models/mlpnet_50.pth (torch, 21725 bytes, 21 tensors)

weight f4 [3, 5]
00000000: 905c e4be f357 ba3d 8a15 4fbf 3dfb 1ebf
00000010: ed73 71be 1b83 1fc0 2674 39be b89e bfbe
00000020: 375c b53c 066a b63e a6d3 d33f b41a 10c0
00000030: 3002 4e3f 66de f8be 0569 03bf
-0.4460187 0.09098806 -0.8089224 -0.6210211 -0.23579378 -2.492377 -0.18110713 -0.3742578
0.022138698 0.35627764 1.6548965 -2.2516298 0.8047209 -0.48607177 -0.5133212

weight f4 [3, 5]
00000000: a0a1 60bf 05cd 4b3f f625 b53f 8d3b 6a3f
00000010: cee1 85bd 699d 5fbe ae3c 30be 90ce b7bf
00000020: cdac 06bf f354 e1bf 63f0 e5be d362 d13f
00000030: f7b2 3640 c5b2 85bf dca5 35bd
-0.8774662 0.7960971 1.415221 0.9149712 -0.065372095 -0.21837391 -0.17210647 -1.4359913
-0.52607423 -1.760405 -0.44909963 1.6358284 2.8546731 -1.0445181 -0.04434763

weight f4 [7, 9]
00000000: a189 b93d c6eb b0bf 5601 bdbe 9339 f3be
00000010: 7d75 b63d 4ea3 3d3f 59d6 e8be aff7 2b3d
00000020: 26e4 74bf ce1d 613f b58c b6be 1370 e7be
00000030: 95ea efbe 4620 58be db9d 9e3e 6f08 8c3f
00000040: 4e49 51bf b22d 863f 879e 35bf 0f91 9e3f
00000050: 21f4 4b3f 2074 80bd 337c d9bd 52aa 9f3f
00000060: c365 203f 86bb 293f f161 29bf ae8b 6e3e
00000070: cf0d cfbe 6d57 d5bf aead efbe 998b ec3f
00000080: 75fc c7bf 6487 ca3e 6e91 10bf 313e da3f
00000090: 786b 3e3f edae 913e 5e25 f03e 9823 573e
000000a0: 74ad bf3e 245c 153e 9c99 60bf 7ef5 f9be
000000b0: f4d0 7a3f 94d2 f33e 7e1d 80bf c838 6d3f
000000c0: 1569 a9bf df00 f03f 2441 2a3f 2b38 153e
000000d0: 6b3c ae3e f35d d3bf f535 82be c4ab 54bf
000000e0: 3487 76bf f2b8 a6bc 3627 39bf 7695 043f
000000f0: 95cc 5abf 6504 8b3f fb4e 873f
0.09059454 -1.3821952 -0.36915082 -0.47504863 0.08909128 0.7407731 -0.45476034 0.041984256
-0.95660627 0.87936103 -0.35654226 -0.45202693 -0.4685866 -0.21106061 0.3097981 1.0940074
-0.8175248 1.0482695 -0.7094502 1.2388018 0.79669386 -0.06272149 -0.10619392 1.2473853
0.62655276 0.66301763 -0.6616507 0.23295471 -0.40440223 -1.6667305 -0.46812195 1.8480102
-1.5623919 0.3955642 -0.5647191 1.7050229 0.74382734 0.2845377 0.4690351 0.21009672
0.37437022 0.1458593 -0.8773439 -0.48820108 0.9797509 0.47621596 -1.0009 0.92664766
-1.3235193 1.8750266 0.66505647 0.14572208 0.3403047 -1.6513046 -0.2543179 -0.83074594
-0.96300054 -0.02035186 -0.72325456 0.5179056 -0.8546842 1.0860716 1.0570978

weight f4 [40]
00000000: 1e80 943f 3188 ab3f db58 943f 7c25 633f
00000010: 43b1 913f 3335 483f fc46 2a3f a3b0 453f
00000020: c00a 443f d398 493f 7564 743f 2007 763f
00000030: 471a 523f d103 7e3f b9d4 343f a790 813f
00000040: 6e70 813f f6ea ad3f e80f 973f 6c70 633f
00000050: 9e5b 5a3f d672 753f bcd3 593f 138c 773f
00000060: b164 5d3f 2cf3 5d3f aa75 843f c80e 813f
00000070: 0741 753f feb8 8e3f 1ee2 893f 661c 693f
00000080: f2c4 6c3f 7b5d 5d3f c9bc 643f aac1 773f
00000090: bba9 623f 5945 623f ebc9 4d3f 8407 543f
1.1601598 1.3400937 1.1589617 0.8872907 1.1382221 0.78206176 0.66514564 0.7722265
0.76578903 0.78748816 0.95465785 0.9610462 0.82071346 0.99224573 0.7063709 1.0122269
1.0112436 1.3587329 1.1801729 0.8884342 0.85296047 0.9587835 0.85088706 0.9669811
0.8648177 0.86699176 1.0348408 1.0082636 0.9580235 1.1150205 1.077213 0.9105896
0.92488015 0.86470765 0.89350563 0.9677988 0.8854024 0.88387066 0.8038623 0.8282397

bias f4 [40]
00000000: 7526 45bb 0a30 38bb 137c a03c 886f 853a
00000010: ecd4 e93b fc44 393a 0f46 15bc a131 d8ba
00000020: 4660 19bc 9be3 023b 35da 6c3b 62a2 f53a
00000030: ad2b ad3b 5266 4b3c 79a5 7b3a 42de 72ba
00000040: 5cf3 a5bc 2fec 51bc 05c0 39bb eaea dc3a
00000050: 0665 25bb 416a ad3b 9294 1cbc ad20 6fbb
00000060: 89cd 28bc c5a7 013b d9b6 85bc 1a6a a73b
00000070: 976a 85bc f185 d43b 01be 573c 356b 5b3b
00000080: 9d2a 433c ad62 95b9 4419 78b9 9f6a eabb
00000090: 8d54 173c 52db 103a 91b2 df3a 950b 4a3c
-0.0030082737 -0.0028104805 0.019590413 0.0010180334 0.007135978 0.00070674694 -0.009110942 -0.0016494283
-0.009361332 0.001997209 0.0036140804 0.001874041 0.0052847476 0.012414532 0.00095995475 -0.00092646864
-0.020257644 -0.012812658 -0.0028343212 0.0016854678 -0.0025237217 0.0052922075 -0.009556906 -0.0036487982
-0.01030291 0.0019783836 -0.01632254 0.005109084 -0.016286178 0.0064856936 0.013167859 0.0033480648
0.011912015 -0.00028493014 -0.00023660535 -0.0071538235 0.009236467 0.00055258453 0.0017066767 0.012331863

running_mean f4 [40]
00000000: 1da4 163f f023 0441 34b2 343f b19d c240
00000010: b425 ad3d b77f fb3e 083b 183d fe65 803e
00000020: 63b6 433e 3714 563f a8ca c43e c9a7 e43e
00000030: d2a6 ee3c e0cd fb44 4c52 7d41 9bbd 883b
00000040: ff7e 83bd 764f 37bf abe9 b23c 5acc 833c
00000050: bb80 97bd bf62 adbf 8ae8 23be 487c 03bf
00000060: ad98 97be dae2 313d c98e 2dbf f84c 133f
00000070: 8fba 363f 49a7 da3e 60fa 05bf eb88 70be
00000080: f640 f7bd 02e1 dbbd 1741 3ebe 85c9 f4bd
00000090: 4669 393f ce6e 2cbe 86f6 223f 974b d33d
0.58844167 8.258774 0.70584416 6.0817494 0.08454457 0.49120876 0.03716567 0.25077814
0.19112544 0.83624595 0.38435864 0.4465926 0.02913228 2014.4336 15.832592 0.0041729934
-0.06420707 -0.7160562 0.021839937 0.016088653 -0.073976 -1.354576 -0.16006675 -0.51361513
-0.2960867 0.043429233 -0.67796 0.5753932 0.71378416 0.42705753 -0.52335167 -0.2348973
-0.12072937 -0.10736276 -0.18579517 -0.11952499 0.7242626 -0.16839144 0.63657415 0.10317152

running_var f4 [40]
00000000: 5e95 793e 7fc5 1e41 be89 553e b737 2b40
00000010: affd 8a3c 460f 803e d99b 8b3a 38cd f33c
00000020: b9f5 1e3e 0554 0d3e 7785 733e 5f95 7b3e
00000030: 4d16 e73c 0540 093f 85ab 9842 b41c f43e
00000040: 9ab4 063f 6032 f63d 361d bb3e 3a5e 0c3f
00000050: ae6a e33e 9db4 ba3f 3865 7b3e 4574 0b3e
00000060: 2460 cd3d 0450 ca3d 0b3f b23d 4a19 783e
00000070: 9efe e93f 0365 033f 5dd4 123f ecf3 543e
00000080: 317a 853f db52 3c3f 31c4 0a3e 0cbe 0f3f
00000090: 21ef 7f3e 3cdb f73e 9516 863e f178 813f
0.24373385 9.923217 0.20853326 2.6752756 0.016966669 0.25011653 0.0010651305 0.029760942
0.15523423 0.13801582 0.23781382 0.245687 0.028208876 0.5361331 76.335 0.4767815
0.52619326 0.12021327 0.36545724 0.5483128 0.44417328 1.4586369 0.2455033 0.13618572
0.10028103 0.09878543 0.08703431 0.24228397 1.8280828 0.51326007 0.5735529 0.20796174
1.0427915 0.7356393 0.13551404 0.56149364 0.24993564 0.4840945 0.26189104 1.0115033

weight f4 [32, 40]
00000000: 3c28 aa3d c606 c7bc 229c 28be ecd4 a53d
00000010: 4b7d 663e 4452 ca3d b795 1b3e 580a b23d
00000020: d09e 833e 7aa2 963d 01aa cbbd 49b2 50be
00000030: fb41 42bc c08e 5abd 00e7 9d3d 375a 13be
00000040: f746 d13d 4a07 0f3f 7291 5cbe 92e6 4e3d
00000050: 987f 8e3e 4346 86be 0ea2 bcbb 9fd4 033d
00000060: bed2 0cbe 2610 04be e6a3 123e a3a1 22bd
00000070: 88e5 133e 5243 09be 63aa dbbd ae33 debd
00000080: a457 e43d 90a7 fbbd 2345 213e 5330 81be
00000090: 532e 023e 2d15 c8bc 90fe 15be 4b90 7f3e
000000a0: c178 5d3d 89b4 233d 3860 b83e 4ac2 d83b
000000b0: e3bf 34be 2b5c a9bc 73c4 38bd 5321 2fbe
000000c0: b6a2 4fbe 9209 41bd 1b99 31bd eb08 a23e
000000d0: 9667 6b3e b2e5 8bbe a6de 98be 9fd5 503e
000000e0: 9d30 2bbe 4c10 e0bc e8ae 38bd c77b f0bd
000000f0: fb20 753e 735f 553c d245 9c3c 18d3 1f3e
00000100: 7bb8 99be 348c b8bd 3bd5 acbe 0a9b bb3e
00000110: 4ae9 173e 6da6 783d d655 33bd c5f3 273e
00000120: 18bb b2bd a204 813e 40b0 893e 0fa6 9bbe
00000130: f781 0a3d 2565 6b3e 3dfc d23d 3ad9 6abe
00000140: bb80 01be a0b6 f83e ef5c 9ebe b7f1 303d
00000150: 519c 6d3e 90a4 843d c0ed d5bc 2511 ddbc
00000160: e415 29bd 70af 09be 474c 76bd 1006 c4bc
00000170: b61f a4bd 1f2d 64be 01c5 09be 33b9 9cbd
00000180: 0d49 173e 2674 b7be 11e8 af3d a55c e3bd
00000190: a164 b73c 14fa 16be c1e9 eb3d cf2f c93c
000001a0: 9d83 bcbc e682 cfbd 3ba0 753e 0ea6 4a3e
000001b0: 6830 673e f18b 193d 3c5a 73be 74ba bfbd
000001c0: 3fa5 0cbe f772 843d c256 b2bd b8ed c43d
000001d0: 789f a7bd 6f66 143e 7b5d 5a3e 8d7c 0c3d
000001e0: 7409 c7be da33 27bd e2f4 583e eb7f 4abd
000001f0: ddd9 d4be 0efa 66bd eac5 1cbe 8e96 0ebe
00000200: 92d7 1ebe 88b6 3b3d f105 5cbc 6dd3 363e
00000210: 51b8 22bd 0b39 55bd 7a0e 63bb c013 0bbe
00000220: f5ff 2bbe af95 24be d078 993c 8c4e fe3d
00000230: 0f68 a53d 9eae 92bd afa1 01be 6c54 89be
00000240: 7d55 aabe 1e78 6a3e 8568 883e 8007 853d
00000250: b557 cfbd 6b90 3f3e a8cf 17bd 8188 9c3d
00000260: 85e5 0f3e cc19 d7bd 0646 76bd 6097 65be
00000270: cc31 ec3d ca82 8c3d 67f0 3bbe c227 17be
00000280: b3fd 243e b5cb aabe 1267 3a3e 4a3a 913d
00000290: 8c86 13bb 25d7 253e c762 d5bd ce2c 80bd
000002a0: 5c36 85be 2ae1 58bd bbec e4bd 2458 123e
000002b0: bb57 d0bd 68a5 a33e e2ae 0f3e 0fbe a03d
000002c0: 9a58 c3bd 3dac bfbc 2f92 06be e2ae 683c
000002d0: fa4a 9dbe 5d0a 333d 0f89 cabd 630f 35be
000002e0: 4c42 b43b b664 263e 9fe9 29be fcb7 e83c
000002f0: a78c 3b3e 714c 45bd 5e88 eabd 203a 6d3e
00000300: 3495 43bb 5b93 00be 4e6d 3c3e 7521 6a3e
00000310: a7c3 993d 43b5 be3d 4642 7b3e 84d9 693e
00000320: 24d6 4b3e 4bae ea3d a071 69bd d90e 9e3d
00000330: 61e5 94bc 0b5b 5a3e 171c 213e 1dea e73d
00000340: 8131 2dbe ce7b ea3c 6e15 9ebe 1d00 f63c
00000350: acd9 a7bb d7fa febd 5f9a 1dbc 3c42 0d3e
00000360: 2567 85be 7819 04be 56f4 423e 12a6 bfbd
00000370: 46e7 4d3e f3e4 533e 7d1a 16bd 044a 2bbe
00000380: 25a6 9e3c 7763 973d 6142 113d cadf 78be
00000390: 0fa7 a0bd 8a95 14be 194d 9ebe 8e51 54be
000003a0: 4079 5ebe 17eb f4bd d26e 88be 9d8e 27bd
000003b0: ea09 33be 8e24 953e c22e 703e c1e1 4c3e
000003c0: 3b21 8b3e 9912 103e bdfc a3bd 3880 af3d
000003d0: 909a 63be 31d9 283e 9443 1f3d 110f 23be
000003e0: 6d9e e3bc 5a54 bfbd 6c78 10be 5b36 1dbb
000003f0: 824c 2c3d f06f 3e3e dca9 2fbd 9de5 333e
0.08308455 -0.024295222 -0.1646581 0.08097252 0.22508733 0.09878972 0.1519383 0.08693379
0.25707102 0.07355209 -0.09944535 -0.2038051 -0.011856551 -0.053358793 0.077100754 -0.14389883
0.102186136 0.558705 -0.21539858 0.050512858 0.2783172 -0.2622548 -0.005756623 0.032185193
-0.13752267 -0.12896785 0.14320335 -0.03970493 0.14443028 -0.13404587 -0.10725858 -0.10849701
0.111495286 -0.122878194 0.1574903 -0.2523218 0.12712984 -0.02442416 -0.14647889 0.24957387
0.054070238 0.039967094 0.3601091 0.006614958 -0.17651324 -0.020673832 -0.045109224 -0.17102556
-0.20276913 -0.047128268 -0.043358903 0.3164743 0.22988734 -0.2732368 -0.29857367 0.2039399
-0.16717763 -0.027351521 -0.04508868 -0.11742359 0.23938362 0.013023245 0.019076262 0.1560787
-0.3002356 -0.090111166 -0.33756432 0.36641723 0.14835086 0.06070559 -0.04378303 0.16401584
-0.087270916 0.25198847 0.2689228 -0.3040013 0.03381535 0.22987802 0.10302017 -0.22934428
-0.12646763 0.48576832 -0.30930278 0.043199267 0.23204161 0.064767 -0.026114345 -0.026985714
-0.041280642 -0.1344583 -0.060131337 -0.023928672 -0.08013861 -0.22282837 -0.13454057 -0.076525114
0.1477396 -0.35830802 0.08589185 -0.11101655 0.02238685 -0.14743835 0.115191944 0.02455893
-0.023011977 -0.10132389 0.23986904 0.19789907 0.2257706 0.037486974 -0.2376489 -0.09361735
-0.13734911 0.0646724 -0.08707954 0.09615654 -0.08184713 0.144922 0.21324722 0.03429847
-0.388744 -0.040820934 0.21187165 -0.0494384 -0.41572466 -0.056390814 -0.15309873 -0.1392462
-0.15511921 0.045828372 -0.013429151 0.1785409 -0.03972656 -0.052056354 -0.003464608 -0.13581753
-0.16796859 -0.16072725 0.018734366 0.124173254 0.08076488 -0.07162212 -0.12659334 -0.2682222
-0.33268347 0.22897384 0.26642242 0.06495571 -0.10124151 0.18707435 -0.03706327 0.076432236
0.14052399 -0.10502967 -0.060125373 -0.22421026 0.115329355 0.068608835 -0.18353425 -0.1476126
0.16112404 -0.3335854 0.1820338 0.07091196 -0.0022510616 0.16195352 -0.10419231 -0.06258546
-0.26018035 -0.05294911 -0.11177965 0.14291435 -0.10172983 0.31962132 0.14031556 0.07848751
-0.09538384 -0.02339756 -0.13141702 0.014201852 -0.30721265 0.043711055 -0.09889423 -0.17681651
0.0055010673 0.16249356 -0.16593026 0.028408043 0.18315373 -0.048168603 -0.11451791 0.23166704
-0.002984357 -0.12556212 0.18401071 0.22864325 0.07508021 0.09311917 0.24537 0.22836882
0.19905907 0.11459025 -0.056993127 0.07717676 -0.018175783 0.21323793 0.15733372 0.113239504
-0.16913415 0.028623488 -0.30875725 0.03002935 -0.005122384 -0.12450188 -0.0096193245 0.13794798
-0.26055256 -0.1290034 0.1903852 -0.09357847 0.20107755 0.20692806 -0.036646355 -0.16727453
0.019366333 0.07392018 0.035463694 -0.24304119 -0.07844364 -0.1451017 -0.30918196 -0.20734236
-0.2172594 -0.11958902 -0.2664705 -0.04090749 -0.1748425 0.29129452 0.23455337 0.20007993
0.2717379 0.14069594 -0.080071904 0.08569378 -0.2222693 0.16489102 0.038882807 -0.15923716
-0.027785504 -0.09342261 -0.14108437 -0.0023988697 0.04206515 0.18597388 -0.0428866 0.1756806

bias f4 [32]
00000000: cbf3 82bd af38 37bc e928 773d db42 d4bb
00000010: 6b0c ebbc 8525 903a 8bf9 e9bd 55f6 f1bd
00000020: cf61 bebd 81b5 1b3e 5bb4 d1bd 81e2 103e
00000030: 4248 15bc 173b 123e 7bc0 84bd c24c e1bd
00000040: 9118 7d3d 27c5 ee3d 4ec1 0e3e d140 1c3e
00000050: e5ff 63bd c1fb e93c b9cf be3d d586 25bd
00000060: b703 7b3b 9842 993d 5ca3 c03d dfbc 12be
00000070: 8b46 0cbe 31c1 f63d 5a88 54bc fc78 8f3c
-0.06394156 -0.011182948 0.06034175 -0.0064776964 -0.028692445 0.001099751 -0.1142455 -0.11814562
-0.09295999 0.15205957 -0.10239478 0.14148904 -0.009111466 0.14280353 -0.06482025 -0.110009685
0.061791006 0.116586976 0.13940927 0.152591 -0.055663962 0.028562428 0.09316964 -0.04041179
0.0038301775 0.07483405 0.09406158 -0.14329861 -0.13698785 0.12048567 -0.012971962 0.017513745

weight f4 [32]
00000000: 8c56 643f 2d82 853f 05c2 8e3f 6ac7 803f
00000010: 5712 733f 185f 773f cdee 653f d483 813f
00000020: 8fe1 7b3f 4bc2 823f edd4 713f 450a 713f
00000030: 4d02 6e3f 8a9e 823f 05db 7d3f f6a9 803f
00000040: 7045 753f b4df 713f 0165 833f cdfc 5b3f
00000050: bba8 923f 6a83 683f 3651 783f cbe4 6b3f
00000060: bca6 743f 0815 8b3f 9cc1 733f f865 8a3f
00000070: da51 813f 3a88 8e3f bcdc 7c3f c97f 6d3f
0.8919456 1.0430351 1.115296 1.0060856 0.9494986 0.96629477 0.89817506 1.0118356
0.9839105 1.0215544 0.94465524 0.94156295 0.9297226 1.0204632 0.9916232 1.0051868
0.9580908 0.9448197 1.0265199 0.8593262 1.1457742 0.9082552 0.9699892 0.92145985
0.95566916 1.0865793 0.952173 1.0812368 1.0103104 1.1135323 0.98774314 0.9277311

bias f4 [32]
00000000: 64af d5bd 4cd2 163e 37cc 00be 7421 5f3e
00000010: d661 343d 92d7 9bbc 841f 91bd fb21 72bd
00000020: acf9 d1bd 4e4e a93d 197a 0ebd a858 5cbe
00000030: 2dd2 f8bd 7806 573c 9489 0d3e a4a9 123d
00000040: 8394 753e e336 933e 342c b23d ac0e abbd
00000050: 9d88 39be 09d8 c63b 40d3 033d edcd 05be
00000060: 8150 a13d 4901 52bd c154 093e 69ab 423e
00000070: 8ffd 05be 2105 003d 210d b9bd e6d8 253d
-0.10433844 0.1472866 -0.12577902 0.21790105 0.044038616 -0.01902369 -0.07086089 -0.059114438
-0.10252699 0.082668886 -0.03478441 -0.21518195 -0.12149463 0.013124101 0.13822013 0.035806313
0.23982434 0.28752813 0.08699837 -0.08352408 -0.1811852 0.006068234 0.032183886 -0.13066836
0.07876683 -0.051270757 0.13411237 0.190107 -0.13085006 0.03125489 -0.09035707 0.040490054

running_mean f4 [32]
00000000: ac58 a5bd 2ac3 7d3b 00b8 203d 7734 323c
00000010: 187d 36bc 5037 51bb 1a92 f5bd 0474 debd
00000020: 87a4 babd 1698 183e fd74 d7bd 2990 103e
00000030: 200c 49bb 9965 1a3e c6a3 9abd 42be febd
00000040: ef1f 413d 26a5 f43d 2e32 183e a094 253e
00000050: 6e4e a7bd 6486 c63c e621 cc3d da87 d1bc
00000060: aaac 0cbc 2daf 9e3d edbd ab3d 7e04 18be
00000070: b794 19be 51ef e73d 3669 edbc a96c f53c
-0.080735534 0.0038721063 0.039237976 0.010876766 -0.011138223 -0.0031923838 -0.11990757 -0.10861972
-0.09113412 0.14901766 -0.105203606 0.14117493 -0.0030677393 0.15077819 -0.075507686 -0.124386325
0.047149595 0.11945562 0.14862892 0.16169977 -0.08169256 0.024234004 0.09967403 -0.025577474
-0.008586088 0.07748256 0.08385835 -0.14845464 -0.14998136 0.11324943 -0.028980833 0.02995904

running_var f4 [32]
00000000: ea3d c83f 8729 0040 8bc4 693f f472 883f
00000010: 8a82 353f 0866 c03f 5eaa 6d3f 6515 9e3f
00000020: 4ac0 3e3f 28f1 493f cbf4 5b3f ce34 c73f
00000030: 029d e63f 9d2c bb3f caa0 153f 3ee3 a03f
00000040: 8b04 403f f8c2 863f 0541 683f 1a1d eb3f
00000050: 13db d23f b62c 933f fa0a 0c40 92e1 2540
00000060: dddd c83f 089a 533f 2906 d33f 1d92 a23f
00000070: 3ad2 1a40 ad80 cb3f 3e78 813f afae d53f
1.5643895 2.0025346 0.91315526 1.0660081 0.7090231 1.5031137 0.92838085 1.2350279
0.7451216 0.788836 0.859204 1.556299 1.8016665 1.462299 0.5844847 1.2569349
0.7500693 1.052825 0.9072421 1.8368256 1.6473106 1.149802 2.18817 2.5918927
1.5692707 0.8265691 1.6486255 1.270084 2.4190812 1.5898644 1.011482 1.6693934

weight f4 [32, 32]
00000000: edfc 1ebe fd91 593e 2d5a 6b3d f396 443e
00000010: f655 c6bd 2f12 1ebe 45ac 6e3e f801 92bd
00000020: 790b c4bd 013d 513e 8db9 27be d7b7 6c3d
00000030: 113d 6bbd a2bc 413e ab4e 853c f532 11bd
00000040: 3b8f 90be 0dc4 23bc c79d 943b 5230 18bd
00000050: f03e 65be 123f cfbd 078b 16be 8d57 94bd
00000060: 7781 e1bd 0b57 98be 9481 c63d 839b 523e
00000070: e8d2 cf3d 6fc4 a13e 877f a73e 1b18 fbbd
00000080: 6c02 083e 444c 1cbd 9327 4c3d b0c1 483e
00000090: f638 913e f643 473e 8cdc 2d3d f724 c43c
000000a0: 7453 bfbd 238a 503e 13aa 843d 2078 633e
000000b0: ed0f 943e 4524 093d 079c fa3c 651c 2bbe
000000c0: 7fc4 713e 927b 37be f900 873e 16f4 043e
000000d0: 80ee d5bc 0e8d a93c 4ada d3be e00a b0be
000000e0: 1ed4 88bd 3d89 863e be15 fbbd d00d 2abe
000000f0: e782 b8bc 9301 fc3d 0549 0bbe 2793 cabb
00000100: 2405 7e3d 23eb 4f3e 9cf5 e23b c01c de3d
00000110: fbfd 7e3e 0a3e 32bd 50c0 413e cb23 9e3e
00000120: 56bc 433d eaa3 88be 0656 2e3e 56fc 03be
00000130: 76ea a8bc 912e 28bc aaf3 a8be 2dfd cf3d
00000140: 32b4 30be 163c fcbd d879 3cbe 84ec 43be
00000150: 1f98 fd3c fa9c cebd a9c7 993e eeed f93d
00000160: 81a3 7c3e d899 3fbe 4dda febd e29e 093d
00000170: 71b4 d1bd 451e 83be 938d 2bbe b80b a93b
00000180: 4a43 f5bc f383 4cbd 0df4 52bd fad2 85be
00000190: da1d 893e e7fb 343e 4e78 9d3d 8f67 2a3e
000001a0: edc6 273e 8eb1 0fb8 7c07 843e 6f48 8ebe
000001b0: 8c57 a33b 25a6 433e 8c50 0a3e c376 18be
000001c0: fc75 093e c8ba 253e 4574 d9bb 32a2 56be
000001d0: 9889 72be 8c47 8ebe 6d8e f6bd 5f24 67be
000001e0: 7d96 9abe 2bb0 a73e bea4 1cbd d3f3 ac3d
000001f0: 37cd 993d 0f96 8ebe fc11 3abe e47d 5dbd
00000200: 7603 993e 5073 8a3e 53dc 81be fc99 78be
00000210: 4e5e cc3d d276 95be bcd6 3c3d 460a 233a
00000220: 7c64 203e 3a4e 183b 380a 6d3c 20fc 8a3d
00000230: 086f 393e a0d2 d4bd 5e8e a2be 23d2 fa3b
00000240: b97f 54bd 53f6 82bd 84d7 a33e 7e85 d3bd
00000250: f4d4 713e f745 b4bd 9d68 a13d be6f ebbc
00000260: 6421 533e d5d2 02bd ebd7 873e 26e4 3c3e
00000270: 2a87 d83d 6e55 c33e e15b 613d ecb2 f0bd
00000280: 24dc 3c3e df67 68be 1eb1 32bc bcdc 843e
00000290: 3a5e 74bd 791f 3dbe a138 443e 767b 433e
000002a0: f139 533c ce06 46be 58f8 313d 4c1e 8abd
000002b0: 7002 74be 78a3 8a3e a15b 5e3e 9eff a8bd
000002c0: faaf d3bd 6484 6cbe acc3 f33c bd4d 4bbc
000002d0: 76a0 82be f1f6 22bd aab0 afbd a9f7 043d
000002e0: 7fbd 74be 5859 4cbe fe22 683e 47d9 94bd
000002f0: 0212 703e 552c f5bd 5bde b0bd fafd b2bd
00000300: 7a88 bdbb f7f8 b43d f509 9bbe 9733 183e
00000310: 6cd5 ec3d 2843 1e3d 8553 a63e 39c3 bc3d
00000320: e363 b9be 5547 983d 6289 123e ed50 f3bd
00000330: b563 0fbd e7c0 b3be 2878 a6bc 8481 cc3d
00000340: 6a5f 63bd 33e1 3fbe 5923 2cbe 1bd3 443e
00000350: 43e4 713d ce72 b53e 202c 26be 0c76 bb3d
00000360: 9d2f dd3b dad9 8fbe 292f 383e 3737 dfbd
00000370: 95cf e8bd c120 253e dae3 213d 26ba a43d
00000380: 50cb eabd be50 653e 4410 a83b abde 633e
00000390: 06a8 523e 0edf 77bd 5c17 1bbe 34b7 603e
000003a0: 7adb 82bd 3df6 09be 2da3 853e c3bc 123e
000003b0: 26c0 983e 0ef2 aebe 6259 bb3d ab4a 1dbe
000003c0: 7bb4 463e 3683 cb3d e490 2f3d 7654 703e
000003d0: 94d4 62be 3907 573e 9baf 913d a8bd c3be
000003e0: 1e5e 9d3d 1e01 b73d 14c7 773c bd7b 82bd
000003f0: b1c5 82be 94ea a9bd 23da d4bd 09fc fbbc
-0.15526171 0.21247096 0.057459045 0.19198208 -0.096843645 -0.15436624 0.23307903 -0.07129282
-0.09572501 0.20433427 -0.16379376 0.05779251 -0.057431284 0.18919614 0.016272863 -0.035448987
-0.28234276 -0.009995473 0.00453541 -0.037155457 -0.2238729 -0.101194516 -0.14701472 -0.072432615
-0.110110216 -0.2975391 0.09692684 0.20567136 0.10147649 0.3159518 0.32714483 -0.12260457
0.13282174 -0.03815867 0.04984243 0.19605136 0.2836377 0.19459519 0.042446658 0.023943407
-0.09342089 0.20365195 0.064777516 0.22213793 0.289184 0.033481855 0.030591978 -0.1671005
0.23610114 -0.17918232 0.2636793 0.12983736 -0.026114702 0.020697143 -0.4137748 -0.34383297
-0.06681083 0.2627658 -0.12260006 -0.16606832 -0.022523357 0.12304988 -0.13602073 -0.0061820927
0.06201662 0.20304541 0.0069262516 0.108453274 0.24901573 -0.043516196 0.18921018 0.30886683
0.047787033 -0.26687557 0.17025003 -0.12889227 -0.020619612 -0.010265009 -0.329984 0.10155711
-0.17256239 -0.12316148 -0.18405855 -0.19133192 0.030956326 -0.10088535 0.3003514 0.122035846
0.24671747 -0.1871103 -0.12443981 0.033598788 -0.102394946 -0.2560903 -0.16753225 0.0051588677
-0.029939312 -0.049930524 -0.051502276 -0.26137525 0.26780587 0.17674218 0.07688962 0.16641067
0.16384478 -3.4259218e-05 0.2578696 -0.27789637 0.0049848016 0.19106348 0.13507289 -0.14889054
0.13423914 0.16184533 -0.006636175 -0.2096031 -0.236853 -0.2778896 -0.12038884 -0.22572468
-0.30192938 0.32751593 -0.038243048 0.08444943 0.07509845 -0.2784886 -0.18170923 -0.054075137
0.29885453 0.270411 -0.25363407 -0.2427749 0.09978925 -0.29192215 0.046103224 0.00062194874
0.15663332 0.0023239986 0.014467768 0.0678637 0.18108761 -0.10391736 -0.31749243 0.007654445
-0.05187962 -0.06394639 0.32000363 -0.10328196 0.23616391 -0.08802407 0.078812815 -0.028739806
0.20618206 -0.031939346 0.2653192 0.18446407 0.105726555 0.38151115 0.055019263 -0.11752877
0.18443352 -0.22695874 -0.010906486 0.25949657 -0.059660174 -0.18469037 0.19162227 0.19090065
0.012892232 -0.19338533 0.04344973 -0.0674406 -0.23829055 0.27077842 0.21714641 -0.0825188
-0.10336299 -0.23097378 0.02975639 -0.012408671 -0.25513047 -0.039786283 -0.08578618 0.03246275
-0.23900412 -0.19955957 0.22669598 -0.07268005 0.2344437 -0.11971346 -0.08636161 -0.087398484
-0.0057840915 0.08836549 -0.30281034 0.1486343 0.115641445 0.038638264 0.32485595 0.09216923
-0.3620902 0.074354805 0.1431022 -0.1188067 -0.035007197 -0.3510811 -0.020320967 0.09985641
-0.055510916 -0.1873825 -0.16810359 0.19221155 0.059055578 0.35439152 -0.1622777 0.09153375
0.0067500607 -0.28095895 0.1798674 -0.10899203 -0.11367718 0.16125776 0.039523937 0.080433175
-0.1146456 0.22394082 0.005128892 0.2225291 0.20571908 -0.060515456 -0.1514563 0.21944886
-0.06389518 -0.13472839 0.26101056 0.1432982 0.29834098 -0.34169048 0.09147908 -0.15360515
0.19404785 0.09937136 0.042862788 0.2346972 -0.22151405 0.20998849 0.07113572 -0.38230634
0.07683967 0.0893576 0.0151231475 -0.063712575 -0.25541452 -0.08296695 -0.10393169 -0.030759828

bias f4 [32]
00000000: 510c 00be c265 8bbc 2fa1 253e b8e1 873d
00000010: 6e5a 36be 7e1e 2f3d 4c30 aa3d fe64 24be
00000020: 9dde 3c3d 8a66 e03d faac dfbd ee30 25be
00000030: b768 bebd f9bf cd3c ae6e 2c3d 3349 d4bc
00000040: 19cb 703d 4a5e e4bd 8768 71bd 1866 28be
00000050: f6b3 333e 568a 68bd 13c3 74bc 94b9 2b3e
00000060: a351 43bd 8108 583d cfb0 a6bd 41f8 023b
00000070: d036 cc3b 299a c5bd 6017 2fbe 40b4 1cbe
-0.12504698 -0.017016295 0.16174768 0.06634849 -0.17807934 0.04275369 0.08309993 -0.1605415
0.046110738 0.10957058 -0.109216645 -0.16131946 -0.092973165 0.025115954 0.04209774 -0.02591381
0.05878744 -0.11150797 -0.058937576 -0.16445196 0.17549118 -0.056772552 -0.014939087 0.16770011
-0.047685277 0.052742485 -0.08139192 0.0019984397 0.00623212 -0.09648544 -0.1709876 -0.15303135

weight f4 [32]
00000000: 7ef2 a63f d68c 9b3f a4b1 a63f 495a b83f
00000010: dc38 a13f b790 bb3f 0dc6 9a3f 1aa3 a33f
00000020: 8a41 b53f 1000 a13f 3925 993f 9d01 983f
00000030: e2fc 8b3f cc19 a33f fac5 933f dd18 8e3f
00000040: 865b b93f b0b1 963f 5fd9 9b3f 3d4f 943f
00000050: 13a7 a33f 1ddc b73f ee65 923f e7f6 b43f
00000060: ef29 8d3f 19ac 913f ee5a 9b3f 2d61 ab3f
00000070: a011 a43f 5879 b53f a292 ae3f 4050 953f
1.3042753 1.2152355 1.3022962 1.4402553 1.2595477 1.4653538 1.209169 1.278415
1.4160626 1.2578144 1.1964484 1.1875492 1.0936549 1.2742248 1.1544793 1.1101338
1.4481056 1.1772976 1.2175711 1.1586682 1.2785362 1.4364048 1.1437356 1.4137849
1.1028422 1.1380645 1.2137125 1.3389031 1.2817879 1.4177656 1.3638499 1.1665115

bias f4 [32]
00000000: e360 803e f333 b03d f4e2 773e 4244 7e3e
00000010: d189 9abd 467f c0bd 05aa babc 3f39 553e
00000020: 437b 903e f621 f73d a04b 793e 0799 db3d
00000030: ec8a 72bd 5a0d c43e f7d5 b53d b396 25bd
00000040: 3683 e73e 1d31 923e 4c02 6bbc aaae 74bd
00000050: ba0a a53e a8a8 cc3d 9de2 30bd 0713 483e
00000060: e6fe aebb bc05 e13d 4e25 8e3d de70 1c3d
00000070: 841f 803e 0cc8 0dbd fe76 243e 74e5 973c
0.2507392 0.086036585 0.2420767 0.24830726 -0.07545818 -0.093992755 -0.02278615 0.20822619
0.2821904 0.120670244 0.24345255 0.10722547 -0.059214517 0.38291436 0.08878701 -0.04042692
0.45217294 0.28553095 -0.014343809 -0.059736885 0.32234746 0.09993106 -0.043184865 0.19538508
-0.005340445 0.10987422 0.06940709 0.038193576 0.25024045 -0.034614608 0.16061017 0.018542029

running_mean f4 [32]
00000000: e80f 6ebd dc80 a03e 6ebf cb3c 501d b6bd
00000010: da2a 963e 28a1 88be 5da7 8e3d 728b d53d
00000020: 8dd9 d3be 6116 6b3e 01bf 2b3f f5c9 1bbf
00000030: 358f 39be 98a8 03bd 75c1 95bd f4d8 55bd
00000040: 2ced 7fbe 96a8 403e 0c48 0cbf 3241 d0be
00000050: 6478 51be f6c8 98be c587 a53d ef4a a1bd
00000060: ebf4 31be d7a5 9abe 52c4 383e b9e6 54bd
00000070: f695 2bbe 14ef 843e 472d f93e 74a4 2abe
-0.058120638 0.31348312 0.024871554 -0.0889231 0.29329568 -0.26685452 0.06965516 0.10426988
-0.41376916 0.22957756 0.67088324 -0.60855037 -0.18121035 -0.032143205 -0.073122896 -0.052208856
-0.24992818 0.1881431 -0.54797435 -0.4067474 -0.20456082 -0.2984082 0.080825366 -0.078756206
-0.17378585 -0.3020465 0.1804364 -0.051977847 -0.16756424 0.25963652 0.48667356 -0.16664296

running_var f4 [32]
00000000: 0499 483e 0f06 e13e cead 113f 7f51 ef3e
00000010: b564 e73e 8e96 ce3e cf1c b33e 3af9 b73e
00000020: fcf7 9a3e 8709 6f3e d347 043f 0a65 9f3e
00000030: d601 e03e 00c4 6d3e f7d4 303f 67e0 8f3e
00000040: 1b4b df3e 3106 113f 7d23 a43e 3cb8 bf3e
00000050: 6324 f43d 7729 5b3e 9069 503e a8c7 eb3e
00000060: 5b3d 493e 28d3 983f 5a6a 4c3e cfc2 f13e
00000070: 724c 033f f047 aa3e 0bdf e53e 5dd7 893e
0.19589621 0.43949935 0.5690583 0.46741864 0.4519402 0.4034924 0.34982917 0.35932332
0.30267322 0.23343478 0.51672095 0.31131774 0.437514 0.232193 0.6907496 0.28100893
0.43611988 0.5665007 0.32058325 0.37445247 0.11921003 0.21402536 0.20352769 0.46050763
0.19652312 1.193944 0.19962445 0.4721894 0.5128852 0.3325801 0.4489673 0.26922122

weight f4 [5, 32]
00000000: b72e b43e 22e4 5cbe 7dc4 413d eff2 293e
00000010: 5bb2 5fbd e102 0b3f 9ad8 ad3c 5f60 8f3e
00000020: 6b0d 85be fa03 8f3d 2cc8 c33d 1dc4 9d3e
00000030: d68c 1dbe e219 1a3e ac7c 7ebe 231b 4cbe
00000040: 56f8 a23d d83a d03c a096 9cbd 949e 93be
00000050: fbfc 133e 4b49 2f3e ccd0 29be b817 513e
00000060: 6705 46be 3996 01be 3712 d93d 78c5 a4be
00000070: 0283 cc3d ab54 b4be 7b2e e43e 58bf 5ebe
00000080: 95e5 1d3c d62c 143e f0ea dbbe 323a 47be
00000090: a878 333d 26f6 5c3e 5440 a5be 9f17 c8bd
000000a0: 4997 273e 7225 4dbe c5aa 183d 4e55 86bd
000000b0: 3c7b 063e 6dd7 8dbc 9e23 a0bd ad20 183e
000000c0: 1668 ca3d 8c19 f1bd 2f79 2a3e 30df 8a3d
000000d0: 0e4b 51be f043 c2be a8a6 c23d 48cf c2be
000000e0: 231a bcbd eb21 85be 7542 cbbe 80b8 993d
000000f0: dcc1 dbbd 9846 033e 870a b4be 1819 273e
00000100: 5b4a 203e 964e a6bd feb2 963e 4a21 bb3d
00000110: 6dc2 c1bd f788 babe 3e36 e4bd d6aa 81bd
00000120: b595 0b3e 5217 9bbe 0faa 8c3e a784 bfbd
00000130: 0639 51be bd6a 803d aa91 273e f86e 9a3e
00000140: 5fb9 723b 4d97 483c d284 eabe 8571 24be
00000150: 9ba3 083e 1120 8fbe dd57 adbd a9c7 8abc
00000160: adfc b1be 6248 6d3d 98c3 a93d fb2c 0e3e
00000170: 0118 fb3c 7bc3 9cbe aecd da3c 946e 523e
00000180: dbb4 e03a 39a3 793e 349f abbd 2703 533e
00000190: ba35 c33e ba43 80be 2c19 4d3e 44a7 1e3e
000001a0: 103c 013e f293 893e 3211 923d 10bc 73be
000001b0: e90b db3d b0f6 71bd 0c33 643e 8be7 6cbd
000001c0: 2a59 ddbd e7bd 3b3e a455 043e 55a2 b03d
000001d0: 44e0 b2bd 3f2c 823e 409d 963e bfad f23d
000001e0: ff2f 233e 332e 793d 2dcb f1bb 4f45 0e3d
000001f0: ff7b bf3e 840b 643d 1a5d 14be e67b 1c3b
00000200: 0fc8 6bbf 5e27 8ebe 8ad2 37bf 84f3 59bf
00000210: c506 cfbe 25a5 53be b126 f0be 347a 54bf
00000220: 34dd 53bf 427e 01bf a1ad 3bbf fd9b 14bf
00000230: e768 09bf 0513 76bf e472 c3be 9fd5 fdbe
00000240: 45ec b0bf 92ce 4dbf 2aa9 f1be d3b3 ddbe
00000250: 20fc 42bf d619 d4be 79a6 f2bd b10d 4ebf
00000260: a700 4abe 0684 3cbf a323 cdbe 28f8 36bf
00000270: acdf 3fbf c253 29bf 3455 dabe fe21 f0be
0.3519189 -0.21571401 0.047306526 0.16596578 -0.054613452 0.5430127 0.021221448 0.28003213
-0.259868 0.0698318 0.09559664 0.30813685 -0.15385756 0.15048936 -0.24852246 -0.19932227
0.079575226 0.025418684 -0.07645917 -0.28831923 0.14451973 0.17117803 -0.16583556 0.20419204
-0.19337998 -0.12654962 0.10599177 -0.32181907 0.09985925 -0.35220847 0.44566712 -0.2175268
0.009637256 0.14470229 -0.4295268 -0.19455793 0.04381624 0.21578273 -0.3227564 -0.0977013
0.16366304 -0.20033816 0.037272234 -0.06559239 0.13132948 -0.017314637 -0.078192934 0.14856215
0.09883134 -0.11772451 0.1664779 0.06780851 -0.20438787 -0.37942457 0.095044434 -0.38048768
-0.09184673 -0.2600244 -0.3969914 0.07505894 -0.10730335 0.12819898 -0.35164282 0.16318166
0.15653364 -0.08120458 0.29433435 0.09137209 -0.09460912 -0.3643262 -0.111431584 -0.063314125
0.13631327 -0.3029123 0.27473494 -0.09351473 -0.20431909 0.06270359 0.1636416 0.30162787
0.003703676 0.012243104 -0.4580446 -0.1605893 0.1334366 -0.27954152 -0.08464024 -0.016940909
-0.3476309 0.057930358 0.0828926 0.13884346 0.030651094 -0.3061789 0.026709404 0.20549995
0.0017143743 0.24378671 -0.08379975 0.20606671 0.38126928 -0.2505167 0.20029134 0.15493494
0.12620568 0.26870686 0.07132186 -0.23802209 0.10695631 -0.05907315 0.22285098 -0.057838004
-0.10808022 0.18334161 0.12923294 0.086247124 -0.087341815 0.25424382 0.29416847 0.11849546
0.15936278 0.060835075 -0.007378957 0.034734067 0.3739929 0.055675045 -0.1448864 0.002387756
-0.9210214 -0.2776441 -0.7180563 -0.851372 -0.40434852 -0.20668466 -0.4690452 -0.8299897
-0.82759404 -0.5058328 -0.7331181 -0.5805052 -0.53675693 -0.9612277 -0.38173592 -0.49577042
-1.3822104 -0.80393326 -0.47199374 -0.43301257 -0.7616596 -0.4142596 -0.118481584 -0.8048964
-0.19726811 -0.7363895 -0.4006625 -0.71472406 -0.7495067 -0.6614343 -0.4264313 -0.46900934

bias f4 [5]
00000000: 4049 8a3e fe0f 003e d828 173e 2d2c 4bbd
00000010: 1cc7 2abf
0.2700901 0.125061 0.14761674 -0.049602676 -0.66710067
