models/mlpnet_0.pth (torch, 21725 bytes, 21 tensors)

weight f4 [3, 5]
-0.43794483 0.034452356 -0.7260543 -0.61343926 -0.33911347 -2.50012 -0.12471375 -0.45715943
0.020377731 0.47655478 1.6465088 -2.305836 0.8884364 -0.49169868 -0.41167533
00000000: 4e3a e0be ea1d 0d3d b2de 39bf 5b0a 1dbf
00000010: 48a0 adbe f701 20c0 ec69 ffbd cd10 eabe
00000020: 33ef a63c fdfe f33e cdc0 d23f d192 13c0
00000030: 9170 633f eebf fbbe 1cc7 d2be

weight f4 [3, 5]
-0.7151861 0.6950585 1.341887 0.9941553 -0.1500261 -0.0049620504 -0.07270895 -1.3623807
-0.605273 -1.6606072 -0.622906 1.7393336 2.927874 -0.9651994 0.04315505
00000000: 7016 37bf 5bef 313f f4c2 ab3f f680 7e3f
00000010: 71a0 19be b298 a2bb 6ee8 94bd 7e62 aebf
00000020: 2cf3 1abf c78e d4bf c576 1fbf 7ca2 de3f
00000030: 4a62 3b40 4f17 77bf 5ac3 303d

weight f4 [7, 9]
0.10225101 -1.437341 -0.47897565 -0.54822385 0.11901261 0.8004056 -0.29282716 0.078637674
-0.9508195 1.2087007 -0.5906964 -0.42113134 -0.457309 -0.15395585 -0.03162855 1.2905982
-0.8187115 0.8377655 -0.6364922 1.2274892 0.6679692 -0.1062027 -0.18004371 1.1810752
0.47892612 0.6050255 -0.6265917 0.1082085 -0.30813277 -1.6478058 -0.43961862 1.8566823
-1.5067289 0.34546316 -0.59167993 1.747598 0.65074056 0.29429135 0.46837053 0.102201514
0.42909026 0.17927697 -1.0318681 -0.48156363 1.0861411 0.3500863 -0.93890977 1.0978786
-1.2725806 1.8573848 0.6647417 0.07408193 0.36499503 -1.6793585 -0.25528634 -0.7860733
-0.8834973 0.09041233 -0.69589204 0.586825 -0.75802517 1.1205744 1.05316
00000000: fa68 d13d cafa b7bf 4c3c f5be 6658 0cbf
00000010: e2bc f33d 62e7 4c3f 71ed 95be ca0c a13d
00000020: e868 73bf b4b6 9a3f e137 17bf 879e d7be
00000030: 6824 eabe 9aa6 1dbe f08c 01bd 5232 a53f
00000040: 1497 51bf cd77 563f 27f1 22bf 5e1e 9d3f
00000050: 0800 2b3f cd80 d9bd 615d 38be 792d 973f
00000060: ce35 f53e f3e2 1a3f 5068 20bf 6b9c dd3d
00000070: 94c3 9dbe 4deb d2bf b115 e1be c4a7 ed3f
00000080: 7edc c0bf 8ce0 b03e 5678 17bf 4bb1 df3f
00000090: ef96 263f 5bad 963e 43ce ef3e 074f d13d
000000a0: b8b1 db3e 6294 373e 4114 84bf 828f f6be
000000b0: ac06 8b3f 833e b33e 645c 70bf 4987 8c3f
000000c0: ece3 a2bf c9be ed3f 832c 2a3f 44b8 973d
000000d0: a1e0 ba3e 38f5 d6bf e4b4 82be 1a3c 49bf
000000e0: e12c 62bf 1a2a b93d fb25 32bf 2a3a 163f
000000f0: f00d 42bf fb6e 8f3f f2cd 863f

weight f4 [40]
0.99735785 1.0771801 1.0352075 1.0043952 0.9916364 0.98416644 0.9610253 0.96825224
0.9713063 0.9501 1.0150676 0.99027836 0.98879176 0.97012186 0.95137125 0.95395005
0.94455683 0.9901757 1.0169427 0.9518094 0.9597527 1.010188 0.9891721 1.0441
0.9692787 0.9654947 1.0689048 1.013424 0.97563386 1.0779437 1.0640986 1.0020672
0.9964912 0.9878964 0.97778386 0.99686795 1.0184076 1.0008891 0.97479546 0.9786757
00000000: d852 7f3f 0ae1 893f ae81 843f 0690 803f
00000010: e2db 7d3f 55f2 7b3f c105 763f 61df 773f
00000020: 88a7 783f c139 733f bced 813f e282 7d3f
00000030: 7521 7d3f e859 783f 118d 733f 1236 743f
00000040: 7ace 713f 287c 7d3f 2e2b 823f c8a9 733f
00000050: 5ab2 753f d74d 813f 623a 7d3f 12a5 853f
00000060: a622 783f a92a 773f dfd1 883f e1b7 813f
00000070: 24c3 793f 0ffa 893f 6234 883f bd43 803f
00000080: 0c1a 7f3f c7e6 7c3f 0b50 7a3f bd32 7f3f
00000090: 2e5b 823f 221d 803f 328c 793f 7e8a 7a3f

bias f4 [40]
-0.00030972093 0.00074884726 9.996001e-05 0.00024242338 0.00012396247 0.00022087696 0.00033161897 0.0011382945
-0.00011869194 -0.00087065564 2.004662e-05 0.00084445626 0.00012482986 -0.0009137017 -0.00035264567 -0.00037897628
2.9036823e-05 -0.0005238067 0.0007461998 -0.00068178517 -0.00017764022 -0.0002732096 -0.000103027676 0.0006447632
0.00035348156 0.00019472236 3.7876518e-05 0.0007156215 -0.00018912669 0.0009516052 -0.00036658417 -0.0008163539
-0.0004638027 -0.00033819847 -0.0005132809 -0.0002841213 1.9245877e-05 -0.00014109249 -9.7879245e-05 0.0001867565
00000000: 0a62 a2b9 4a4e 443a 9fa1 d138 0833 7e39
00000010: ecfb 0139 359b 6739 25dd ad39 d332 953a
00000020: 40ea f8b8 b63c 64ba ca29 a837 805e 5d3a
00000030: c3e4 0239 7c85 6fba 4de3 b8b9 56b1 c6b9
00000040: 1a94 f337 1350 09ba 9f9c 433a d4b9 32ba
00000050: ef44 3ab9 923d 8fb9 9010 d8b8 5305 293a
00000060: 7e53 b939 632e 4c39 9add 1e38 8c98 3b3a
00000070: 4f50 46b9 2575 793a 1832 c0b9 9500 56ba
00000080: 8b2a f3b9 3b50 b1b9 b38d 06ba 1ef6 94b9
00000090: 3572 a137 3af2 13b9 8544 cdb8 11d4 4339

running_mean f4 [40]
0.59514767 8.399862 0.732726 5.9084563 0.07684726 0.5282748 0.037649356 0.26545447
0.1920965 0.8446665 0.38036078 0.41056868 0.027874174 2014.4178 16.478493 -0.0047519575
-0.049712732 -0.7088317 0.03058229 0.057306197 -0.06058801 -1.4516068 -0.13183664 -0.5274638
-0.27484277 0.08911154 -0.5351532 0.541823 0.73126346 0.5314891 -0.51605004 -0.20426224
-0.109946854 -0.14675283 -0.1377661 -0.15864404 0.70341307 -0.19331694 0.6396213 0.20788567
00000000: 995b 183f d665 0641 ee93 3b3f 1312 bd40
00000010: 1962 9d3d 043d 073f 3636 1a3d a6e9 873e
00000020: f2b4 443e 103c 583f a6be c23e 0f36 d23e
00000030: 6158 e43c 5fcd fb44 f4d3 8341 4fb6 9bbb
00000040: 949f 4bbd ff75 35bf b687 fa3c e7b9 6a3d
00000050: 222b 78bd 40ce b9bf 2f00 07be de07 07bf
00000060: 31b8 8cbe 1c80 b63d cdff 08bf eab4 0a3f
00000070: 1534 3b3f ab0f 083f db1b 04bf 1f2a 51be
00000080: d12b e1bd 6046 16be 8e12 0dbe 9573 22be
00000090: e112 343f e0f4 45be 39be 233f fbdf 543e

running_var f4 [40]
0.24246435 9.157523 0.1958672 2.7160294 0.015939182 0.251988 0.0011727035 0.030480903
0.15609367 0.13000749 0.23757428 0.24433576 0.027080232 0.5384202 74.118614 0.5076111
0.48493934 0.122276194 0.37542206 0.5466199 0.45090818 1.3694911 0.17721476 0.09005215
0.09826994 0.1706632 0.09318396 0.15898134 1.5148358 0.5521702 0.4285873 0.19965963
0.949192 0.6430181 0.13198377 0.5252081 0.23132117 0.41178733 0.3036925 0.9854372
00000000: 9348 783e 3785 1241 6991 483e 6dd3 2d40
00000010: e392 823c 9204 813e 66b5 993a 16b3 f93c
00000020: 05d7 1f3e af20 053e ac46 733e 2733 7a3e
00000030: 5dd7 dd3c e8d5 093f bb3c 9442 cdf2 013f
00000040: f849 f83e f16b fa3d 5237 c03e 48ef 0b3f
00000050: 70dd e63e 7c4b af3f c977 353e 436d b83d
00000060: c041 c93d 55c2 2e3e 3bd7 be3d 01cc 223e
00000070: 24e6 c13f 075b 0d3f cb6f db3e 9373 4c3e
00000080: 3ffe 723f d69c 243f c126 073e 0a74 063f
00000090: 75df 6c3e cad5 d23e 957d 9b3e 9d45 7c3f

weight f4 [32, 40]
0.1354591 0.009179517 -0.13530158 0.2094604 0.19812407 0.09435333 0.2860419 0.0714464
0.2873434 0.23798929 -0.21616343 -0.16055582 -0.12913622 -0.023541663 -0.029109627 -0.21369451
0.23534031 0.23227647 -0.22590506 0.21098462 0.13664635 -0.11739821 -0.100018814 0.084114976
-0.25350362 -0.26226166 0.1671908 -0.010119582 0.15708233 -0.19960402 -0.11228032 -0.21116614
0.0808462 -0.11536745 0.16116168 -0.21868025 0.22058214 -0.12202383 -0.0910564 0.14585327
0.10692091 -0.0071909903 0.2740171 0.01624796 -0.09085915 0.11156125 -0.24251601 -0.18509454
-0.22003193 -0.14035098 -0.0951649 0.19919899 0.17737728 -0.2571775 -0.23864324 0.24323082
-0.02185323 -0.22709619 -0.23479632 0.027279835 0.27642968 -0.012266701 0.11924584 0.07917865
-0.28731558 -0.070301145 -0.29398292 0.28066012 0.07314644 0.05282206 -0.10294911 0.15803832
-0.12109345 0.24191672 0.2790256 -0.28625396 -0.09730165 0.18249965 0.2365348 -0.1751284
-0.16443534 0.28956383 -0.21505196 0.027636807 0.1344257 0.17980942 0.06981292 0.043829676
0.16400406 -0.18059358 -0.2230286 -0.038878668 0.05392007 -0.15967639 -0.117257245 -0.078782
0.13070102 -0.241405 0.2573396 -0.24507505 0.037383918 -0.2570921 0.1096968 0.07704946
0.06462849 -0.009846671 0.2928394 0.14442785 0.17572148 0.014513357 -0.28890938 -0.15743038
-0.22044417 -0.037123892 -0.09656605 0.084404804 -0.11645664 0.09082993 0.2535871 0.043279037
-0.266216 0.035251074 0.027566634 -0.09314737 -0.2267793 0.028209336 -0.14656077 -0.21118765
-0.22317466 0.121977195 0.050432336 0.28237557 -0.01672171 0.042008962 -0.008639368 -0.16727543
-0.16937448 -0.08476632 0.099161565 0.14861387 0.20292723 -0.09292413 -0.20413366 -0.19970998
-0.265314 0.2774528 0.21124405 0.1654444 -0.015307623 0.22276023 0.033794448 -0.006097978
0.16820818 -0.047268886 -0.07582165 -0.21547282 0.2717748 0.1017911 -0.18097687 -0.2698096
0.08005568 -0.14358923 0.21988514 0.13995422 -0.032880772 0.22771437 -0.10711342 -0.072859906
-0.21729255 0.045988686 -0.08684764 -0.02008118 -0.117566824 0.24523541 0.25645363 0.06911226
-0.051393755 0.078694075 -0.21572337 -0.08517034 -0.25893357 0.03158928 -0.19181024 -0.061914906
0.0753012 0.20479338 -0.09871486 0.030007776 0.16481115 -0.1486778 -0.15838195 0.2669633
-0.08632634 -0.20949073 0.23323976 0.11848593 0.12093844 0.08037241 0.22949216 0.24608801
-0.1451215 0.22258848 0.025027122 0.15514441 -0.09926251 0.10665524 0.16699053 0.098877
-0.13986656 0.13571383 -0.20465334 0.16462483 0.035835255 -0.252831 -0.022983572 -0.14503063
-0.20762253 0.10581802 0.16805105 -0.20764591 0.04941981 0.19758478 -0.082656555 -0.100030944
0.06948613 0.10358765 0.003019282 -0.18441083 -0.026299816 -0.13239934 -0.26488766 -0.22435652
-0.21058038 -0.1694791 -0.15679687 -0.15796196 -0.1679241 0.25675595 0.2521795 0.26877037
0.1810674 0.0664656 -0.09799664 -0.038667597 -0.21006729 0.044602256 0.058789615 -0.225707
-0.0078034047 -0.14350984 -0.08265286 0.071701445 0.13257602 0.06692615 -0.099210404 0.1239404
00000000: cab5 0a3e af65 163c 7f8c 0abe c97c 563e
00000010: 09e1 4a3e 523c c13d 1574 923e 7d52 923d
00000020: ad1e 933e 77b3 733e f259 5dbe bf68 24be
00000030: 493c 04be 72da c0bc 5077 eebc bcd2 5abe
00000040: 0dfd 703e e2d9 6d3e a853 67be 5a0c 583e
00000050: 05ed 0b3e 796e f0bd aad6 ccbd 7944 ac3d
00000060: 3acb 81be 2947 86be 1134 2b3e 9acc 25bc
00000070: 31da 203e ff64 4cbe 39f3 e5bd f03b 58be
00000080: b192 a53d c545 ecbd 9107 253e b7ed 5fbe
00000090: 49e0 613e a1e7 f9bd c77b babd 8f5a 153e
000000a0: 5af9 da3d 66a2 ebbb f84b 8c3e 711a 853c
000000b0: 5d14 babd 3a7a e43d 1e56 78be 6c89 3dbe
000000c0: 0d50 61be 2bb8 0fbe d1e5 c2bd d2fa 4b3e
000000d0: 64a2 353e c5ac 83be e55e 74be 8011 793e
000000e0: 8c05 b3bc e78b 68be 726e 70be f679 df3c
000000f0: 3188 8d3e 46fa 48bc 2a37 f43d 6b28 a23d
00000100: 071b 93be 0cfa 8fbd ee84 96be afb2 8f3e
00000110: cdcd 953d f25b 583d fcd6 d2bd ccd4 213e
00000120: d8ff f7bd 04b9 773e 72dc 8e3e e18f 92be
00000130: 1646 c7bd 30e1 3a3e 2e36 723e dc54 33be
00000140: bd61 28be b641 943e 9536 5cbe 9666 e23c
00000150: e4a6 093e f61f 383e 14fa 8e3d bf86 333d
00000160: aef0 273e 86ed 38be 9c61 64be 3d3f 1fbd
00000170: 4bdb 5c3d 3582 23be 9124 f0bd 7558 a1bd
00000180: 7dd6 053e df32 77be 04c2 833e f4f4 7abe
00000190: e11f 193d 93a1 83be b7a8 e03d 1bcc 9d3d
000001a0: f15b 843d ee53 21bc 0cef 953e e5e4 133e
000001b0: 55f0 333e 6ec9 6d3c eeeb 93be 6e35 21be
000001c0: 1ebc 61be 390f 18bd 6cc4 c5bd 6ddc ac3d
000001d0: d280 eebd 0b05 ba3d 2bd6 813e 5c45 313d
000001e0: 774d 88be 6e63 103d 6cd3 e13c 0cc4 bebd
000001f0: d538 68be 4417 e73c 0714 16be 9341 58be
00000200: e687 64be 2ecf f93d 2392 4e3d 8893 903e
00000210: f8fb 88bc 9711 2c3d 238c 0dbc 404a 2bbe
00000220: 8170 2dbe f799 adbd 3815 cb3d 3c2e 183e
00000230: 28cc 4f3e 024f bebd 6a08 51be c680 4cbe
00000240: 3dd7 87be 4b0e 8e3e 5c50 583e 426a 293e
00000250: d3cc 7abc 421b 643e 0c6c 0a3d 8cd1 c7bb
00000260: c43e 2c3e 059d 41bd 6248 9bbd e8a4 5cbe
00000270: 1126 8b3e da77 d03d 0052 39be 7c24 8abe
00000280: 3bf4 a33d 0e09 13be 9229 613e 2950 0f3e
00000290: fdad 06bd f52d 693e 485e dbbd 9337 95bd
000002a0: f081 5ebe a25e 3c3d 2ddd b1bd 4981 a4bc
000002b0: e0c6 f0bd fe1e 7b3e e44d 833e bb8a 8d3d
000002c0: 4282 52bd 5c2a a13d 96e6 5cbe ca6d aebd
000002d0: f192 84be c363 013d e769 44be 7c9a 7dbd
000002e0: 8437 9a3d 5bb5 513e 042b cabd ded2 f53c
000002f0: 41c4 283e fe3e 18be e12e 22be 6aaf 883e
00000300: ddcb b0bd bd84 56be 67d6 6e3e c0a8 f23d
00000310: 93ae f73d 4a9a a43d feff 6a3e 7ffe 7b3e
00000320: bb9a 14be 3cee 633e ae05 cd3c 2dde 1e3e
00000330: 254a cbbd 106e da3d 91ff 2a3e 0680 ca3d
00000340: 2e39 0fbe 91f8 0a3e a590 51be 6993 283e
00000350: fdc7 123d 1173 81be 0b48 bcbc e982 14be
00000360: 009b 54be 1eb7 d83d 9315 2c3e 21a1 54be
00000370: 6d6c 4a3d aa53 4a3e d747 a9bd 06dd ccbd
00000380: be4e 8e3d c325 d43d 25df 453b 31d6 3cbe
00000390: b672 d7bc b193 07be 5b9f 87be b7bd 65be
000003a0: 62a2 57be ee8b 2dbe 5c8f 20be c8c0 21be
000003b0: 4cf4 2bbe 8475 833e ac1d 813e 459c 893e
000003c0: bc69 393e 1e1f 883d 76b2 c8bd ea61 1ebd
000003d0: e11b 57be dbb0 363d 61cd 703d bc1f 67be
000003e0: b4b3 ffbb 3ef4 12be e745 a9bd 35d8 923d
000003f0: 02c2 073e 9410 893d d32e cbbd 77d4 fd3d

bias f4 [32]
-0.058109045 -0.0057551228 0.07533782 -0.01269011 -0.044962402 0.0038891463 -0.11117593 -0.12866375
-0.09321843 0.14915575 -0.10143987 0.13694988 -0.007703996 0.13513088 -0.054958925 -0.108016126
0.064963795 0.10796689 0.12909557 0.15339582 -0.051447272 0.028389052 0.092077516 -0.03755095
0.005737762 0.07511597 0.087125726 -0.13537766 -0.13085818 0.119495064 -0.013018914 0.010919365
00000000: c003 6ebd 7895 bcbb b74a 9a3d 2eea 4fbc
00000010: 7f2a 38bd 0ce1 7e3b 35b0 e3bd 6ec0 03be
00000020: 4ee9 bebd 49bc 183e b5bf cfbd 973c 0c3e
00000030: cd71 fcbb c05f 0a3e 9c1c 61bd 8f37 ddbd
00000040: bd0b 853d bf1d dd3d a131 043e cb13 1d3e
00000050: 60ba 52bd 2890 e83c 2393 bc3d 06cf 19bd
00000060: d603 bc3b 67d6 993d f96e b23d 71a0 0abe
00000070: b0ff 05be d4b9 f43d 484d 55bc 23e7 323c

weight f4 [32]
0.9411792 1.0046544 1.0436528 0.993871 0.9755933 0.9840042 0.98450834 0.9508462
0.954419 1.0293384 1.0414431 1.0352353 0.9466174 1.0259972 0.9685039 1.0184741
0.9613952 1.015951 0.9713632 0.9487672 1.0732007 0.9659324 0.99145615 1.0066663
0.9728649 0.99408954 1.0279068 0.9962906 1.0567901 0.99004054 0.96539104 0.9761954
00000000: 1ff1 703f 8498 803f 6a96 853f 546e 7e3f
00000010: 7cc0 793f b3e7 7b3f bd08 7c3f a86a 733f
00000020: ce54 743f 5cc1 833f 024e 853f 9782 843f
00000030: 8555 723f e053 833f dfef 773f 5c5d 823f
00000040: ff1d 763f af0a 823f 42ab 783f 68e2 723f
00000050: a45e 893f 5947 773f 12d0 7d3f 71da 803f
00000060: ad0d 793f a77c 7e3f 7392 833f e70c 7f3f
00000070: e644 873f 4c73 7d3f de23 773f f1e7 793f

bias f4 [32]
-0.050771873 0.024780696 0.03801931 0.016812393 -0.0135805085 0.013448869 -0.00031605462 -0.026487086
-0.02976029 0.019083524 0.05732552 0.01984347 -0.03862245 0.03641471 -0.010129551 0.018866463
-0.010621053 0.038665146 -0.0110947285 -0.03916812 0.065630786 -0.022728654 0.0031391869 0.003837265
-0.014175099 -0.0117793465 0.029313602 0.035638142 0.033600003 0.002916032 -0.017829288 0.017604675
00000000: 2bf6 4fbd e300 cb3c 23ba 1b3d 25ba 893c
00000010: c880 5ebc a558 5c3c 22b4 a5b9 72fb d8bc
00000020: dacb f3bc 0d55 9c3c 2ace 6a3d c68e a23c
00000030: 9332 1ebd 9727 153d 6bf6 25bc d78d 9a3c
00000040: ed03 2ebc 585f 1e3d aac6 35bc c06e 20bd
00000050: 6f69 863d 7131 babc d1ba 4d3b a07a 7b3b
00000060: ad3e 68bc 29fe 40bc 1423 f03c 4df9 113d
00000070: 28a0 093d e61a 3f3b ba0e 92bc ae37 903c

running_mean f4 [32]
-0.05865235 -0.0057112454 0.07699524 -0.012557487 -0.045876134 0.004967306 -0.11186039 -0.1291388
-0.093511835 0.15085748 -0.10170251 0.13642603 -0.0076360195 0.13585123 -0.05510686 -0.10894789
0.064640224 0.108058184 0.12940645 0.15351604 -0.05182127 0.028854113 0.093176566 -0.037849188
0.0055632507 0.07566048 0.08745307 -0.1344452 -0.13143891 0.12007423 -0.012981057 0.011663215
00000000: 723d 70bd 6625 bbbb aeaf 9d3d ebbd 4dbc
00000010: 9de8 3bbd c8c4 a23b 0f17 e5bd f63c 04be
00000020: 2283 bfbd 627a 1a3e 6849 d0bd 44b3 0b3e
00000030: 9337 fabb 961c 0b3e bbb7 61bd 1220 dfbd
00000040: 1862 843d 9c4d dd3d 2083 043e 4f33 1d3e
00000050: 8a42 54bd 765f ec3c 5bd3 be3d c007 1bbd
00000060: ee4b b63b e2f3 9a3d 981a b33d 01ac 09be
00000070: ec97 06be 7ae9 f53d 80ae 54bc 1217 3f3c

running_var f4 [32]
1.406064 1.6956298 0.926426 1.2114863 0.9706041 0.9782841 0.62355065 1.4369193
0.9634414 0.9780012 1.2359347 2.1172934 1.6407954 1.0913773 0.8596144 0.99575067
0.60012376 1.3985255 0.9269178 1.4699459 1.479443 1.002811 1.9760075 2.5831778
1.2497901 1.3095248 1.8025918 0.94508725 1.6897712 1.8252127 1.15168 1.4248362
00000000: e8f9 b33f 660a d93f 412a 6d3f fc11 9b3f
00000010: 8379 783f d470 7a3f 04a1 1f3f f9ec b73f
00000020: 18a4 763f 495e 7a3f 1c33 9e3f bc81 0740
00000030: 9505 d23f 40b2 8b3f b00f 5c3f 84e9 7e3f
00000040: b6a1 193f e202 b33f 7c4a 6d3f 3027 bc3f
00000050: 635e bd3f 1c5c 803f d0ed fc3f c952 2540
00000060: 1ff9 9f3f 829e a73f 54bb e63f 3df1 713f
00000070: 6c4a d83f 92a0 e93f 406a 933f 0861 b63f

weight f4 [32, 32]
-0.30816355 0.20076609 -0.009086011 0.22406979 -0.07057123 -0.166404 0.118162036 -0.184376
-0.14120351 0.22423086 -0.12670773 -0.0695354 0.009414543 0.15377024 -0.014964651 -0.04535375
-0.19680403 0.08858615 0.10568909 0.058808547 -0.27489054 -0.24768554 -0.11494931 0.017344551
-0.0939592 -0.25578642 -0.03798646 0.19822009 -0.091756925 0.23895471 0.2400675 -0.13294628
0.031697247 -0.03980756 0.15821941 0.11948447 0.29781485 0.29677138 -0.03874502 0.14916149
-0.11658069 0.1647892 0.11790399 0.3066976 0.10736376 0.040599912 0.068923935 -0.13494377
0.19714117 -0.1746511 0.25979668 0.18933663 0.041105445 0.058142062 -0.29688054 -0.28368637
-0.2494313 0.08439686 -0.14894108 -0.12204415 -0.032863826 0.2215987 -0.104544766 0.06663278
0.039827816 0.18370086 0.035441898 0.16553271 0.22125933 -0.0021647064 0.20487931 0.1514505
0.04515868 -0.28782865 0.16732615 -0.20040953 0.06504623 0.02379473 -0.23893449 0.067510344
-0.19866018 -0.17563473 -0.0006572781 -0.14552407 -0.0784574 -0.16201599 0.27690032 0.15582146
0.28357428 -0.1577723 -0.13552088 -0.03625369 -0.18471697 -0.29458717 -0.19233914 0.024976531
0.10417883 -0.17098747 -0.08498753 -0.21061578 0.19024977 0.14069037 0.06436738 0.10235737
0.08818173 -0.050003584 0.26426587 -0.30396852 -0.21501075 0.19672811 0.26559138 -0.24038494
0.0907627 0.18263519 -0.067807354 -0.15721096 -0.06065372 -0.24902104 -0.15112188 -0.23110834
-0.23636118 0.22728845 0.07637294 0.17719148 0.023724215 -0.14432417 -0.2943727 -0.10178576
0.2872036 0.19706288 -0.25708744 -0.24592254 0.015507011 -0.18456782 0.21215427 -0.09486981
0.12497743 -0.0035333668 -0.20583367 0.11401251 -0.001313311 -0.22844884 -0.18402854 0.016304068
-0.24711284 -0.1830611 0.13917802 -0.1529872 0.28166488 -0.1631405 0.005282413 -0.15323061
0.16755247 0.05594244 0.17679805 0.018493861 0.2926796 0.27418312 -0.0069570737 -0.29012144
0.24950871 -0.13136502 -0.18617 0.1805104 0.017146677 -0.22447307 -0.016219718 0.19239189
-0.070361584 -0.23722605 0.1362791 -0.14832558 -0.24901547 0.21320315 0.1355529 -0.19919558
-0.036305863 -0.19673914 0.053323727 -0.19629192 -0.31173182 -0.12679935 0.05442151 0.14288604
-0.23213294 -0.15203992 0.04965423 -0.07475916 0.10176033 -0.20878975 -0.06733482 -0.058297787
-0.10801792 0.070744716 -0.20543025 0.2685033 0.1136141 0.043999244 0.26889274 0.008351183
-0.30083418 -0.14196919 0.12310313 -0.010821038 -0.05622873 -0.24166457 0.059246086 -0.13389054
-0.20201345 -0.18272957 -0.27969733 0.121373914 -0.0022733286 0.20966396 -0.17923553 0.14095533
-0.11473147 -0.30240598 0.26806232 -0.16896667 -0.18304047 0.10504686 0.082198955 0.10940382
-0.089757785 0.18473451 -0.020231836 0.2231039 0.26087266 -0.09456265 -0.12561387 0.18863703
-0.19904318 -0.15876192 0.28663474 0.16248591 0.2641801 -0.20148309 0.13565741 -0.12949698
0.21282962 0.018560784 -0.022195267 0.17234118 -0.23790032 0.21060787 0.104013 -0.29366755
0.0923488 -0.04313907 -0.041317232 -0.16306838 -0.30698922 -0.08620512 -0.008222413 -0.11068411
00000000: 9dc7 9dbe a095 4d3e 7edd 14bc 8d72 653e
00000010: a687 90bd cf65 2abe f0fe f13d 10cd 3cbe
00000020: a797 10be c69c 653e acbf 01be 9368 8ebd
00000030: 753f 1a3c f275 1d3e 4c2e 75bc dbc4 39bd
00000040: ff86 49be a86c b53d 8673 d83d 3be1 703d
00000050: 74be 8cbe 47a1 7dbe 8b6a ebbd 2916 8e3c
00000060: ae6d c0bd 70f6 82be b197 1bbd 35fa 4a3e
00000070: 0eeb bbbd 8bb0 743e 41d4 753e 1223 08be
00000080: f9d4 013d 410d 23bd 4504 223e 46b4 f43d
00000090: 307b 983e 6bf2 973e 19b3 1ebd cabd 183e
000000a0: dbc1 eebd 80be 283e a677 f13d 7807 9d3e
000000b0: 88e1 db3d 184c 263d fe27 8d3d b32e 0abe
000000c0: 60df 493e bdd7 32be 1204 853e 76e1 413e
000000d0: 2f5e 283d 5f26 6e3d ba00 98be 573f 91be
000000e0: eb6a 7fbe 43d8 ac3d 0384 18be 49f2 f9bd
000000f0: 389c 06bd c5ea 623e 911b d6bd c476 883d
00000100: 7e22 233d 141c 3c3e 862b 113d 6881 293e
00000110: ce91 623e bfdd 0dbb e2cb 513e d715 1b3e
00000120: 4ff8 383d 475e 93be 8c57 2b3e 2838 4dbe
00000130: f536 853d 2aed c23c 3eab 74be dd42 8a3d
00000140: 936d 4bbe 97d9 33be 304d 2cba 4304 15be
00000150: 46ae a0bd 85e7 25be e1c5 8d3e a98f 1f3e
00000160: a630 913e 108f 21be fcc5 0abe c07e 14bd
00000170: 7226 3dbe 21d4 96be 8df4 44be 959b cc3c
00000180: b65b d53d 5717 2fbe f10d aebd aaab 57be
00000190: d6d0 423e 2311 103e 0cd3 833d bea0 d13d
000001a0: 9f98 b43d 8fd0 4cbd db4d 873e c3a1 9bbe
000001b0: c72b 5cbe 1873 493e 98fb 873e 7827 76be
000001c0: cbe1 b93d b804 3b3e 95de 8abd e9fb 20be
000001d0: 0970 78bd 5fff 7ebe b2bf 1abe aaa7 6cbe
000001e0: aa08 72be 4ebe 683e 6a69 9c3d af71 353e
000001f0: 4959 c23c b7c9 13be 05b8 96be 0d75 d0bd
00000200: 5a0c 933e daca 493e f7a0 83be 1ed3 7bbe
00000210: 1e11 7e3c 59ff 3cbe f83e 593e 1a4b c2bd
00000220: 2bf4 ff3d 0f90 67bb 10c6 52be 647f e93d
00000230: 6823 acba 7eee 69be fa71 3cbe 1c90 853c
00000240: 260b 7dbe 5e74 3bbe af84 0e3e ada8 1cbe
00000250: 6136 903e 4e0e 27be 1818 ad3b 7ce8 1cbe
00000260: e092 2b3e e623 653d 8c0a 353e 7080 973c
00000270: 1ada 953e bb61 8c3e 2af8 e3bb cc8a 94be
00000280: 367f 7f3e 8d84 06be 59a3 3ebe b8d7 383e
00000290: 3077 8c3c 45dc 65be 37df 84bc 6102 453e
000002a0: bc19 90bd 63eb 72be c08c 0b3e a9e2 17be
000002b0: e9fd 7ebe ed51 5a3e 61ce 0a3e edf9 4bbe
000002c0: 75b5 14bd fc75 49be fb69 5a3d c000 49be
000002d0: 509b 9fbe b0d7 01be 17e9 5e3d b850 123e
000002e0: 42b4 6dbe 5ab0 1bbe 3c62 4b3d 551b 99bd
000002f0: b867 d03d fbcc 55be d7e6 89bd a9c9 6ebd
00000300: 8038 ddbd 9be2 903d 4f5c 52be 4479 893e
00000310: 82ae e83d 8d38 343d 4fac 893e 66d3 083c
00000320: f006 9abe 5f60 11be 7e1d fc3d b94a 31bc
00000330: 1950 66bd eb76 77be 06ac 723d 9a1a 09be
00000340: 9ddc 4ebe 761d 3bbe 7d34 8fbe e392 f83d
00000350: 20fc 14bb 26b2 563e 8589 37be 9856 103e
00000360: 55f8 eabd f5d4 9abe 773f 893e 9905 2dbe
00000370: f66e 3bbe cf22 d73d ed57 a83d 1c0f e03d
00000380: eed2 b7bd 0b2b 3d3e 3cbd a5bc 5975 643e
00000390: 1a91 853e 10aa c1bd eca0 00be 112a 413e
000003a0: fad1 4bbe 7c92 22be cac1 923e b562 263e
000003b0: 9d42 873e 9551 4ebe c7e9 0a3e db9a 04be
000003c0: 02f0 593e c90c 983c d9d2 b5bc 357a 303e
000003d0: 249c 73be 97a9 573e c504 d53d 985b 96be
000003e0: 5e21 bd3d 98b2 30bd 423c 29bd 66fb 26be
000003f0: b12d 9dbe 4f8c b0bd 4db7 06bc 5aae e2bd

bias f4 [32]
-0.12587251 0.00622683 0.14174533 0.058415756 -0.16935615 0.050232522 0.06910478 -0.17195694
0.046529323 0.11734973 -0.12269375 -0.16040356 -0.09122906 0.027367266 0.05019976 -0.0077391635
0.06279936 -0.11038551 -0.06415436 -0.1594412 0.17501752 -0.07006643 -0.0021147232 0.16650797
-0.054904524 0.053214114 -0.09273428 0.011994252 0.00014046254 -0.095272645 -0.1617114 -0.15123515
00000000: b9e4 00be 700a cc3b b025 113e 5c45 6f3d
00000010: b36b 2dbe 9ec0 4d3d cf86 8d3d 7b15 30be
00000020: 8895 3e3d 0e55 f03d dc46 fbbd d540 24be
00000030: 4dd6 babd 5131 e03c 439e 4d3d cf98 fdbb
00000040: f39c 803d cc11 e2bd 5c63 83bd 8e44 23be
00000050: cb37 333e fd7e 8fbd 2b97 0abb 1181 2a3e
00000060: 91e3 60bd 0bf7 593d 78eb bdbd 8a83 443c
00000070: 2049 1339 4e1e c3bd ac97 25be 63dd 1abe

weight f4 [32]
1.0863957 1.0575008 1.0455383 1.0789801 1.0642872 1.0597246 1.0639603 1.0828243
1.0648086 1.065073 1.0223694 1.0568035 0.98064107 1.0723337 1.0280628 0.9538742
1.0047786 1.0595151 0.97275645 0.9909182 1.0267769 1.0566584 0.9905924 1.0843542
0.96945864 0.96136653 0.9780776 0.99562365 1.0715569 1.0333757 1.0823907 0.970958
00000000: 040f 8b3f 305c 873f 33d4 853f 051c 8a3f
00000010: 903a 883f 0ea5 873f da2f 883f fd99 8a3f
00000020: a64b 883f 5054 883f 00dd 823f 5645 873f
00000030: 4b0b 7b3f 3b42 893f 9097 833f 1931 743f
00000040: 969c 803f 319e 873f 9106 793f d1ac 7d3f
00000050: 6d6d 833f 9540 873f 7797 7d3f 1ecc 8a3f
00000060: 712e 783f 1e1c 763f 4b63 7a3f 31e1 7e3f
00000070: c728 893f a845 843f c78b 8a3f b490 783f

bias f4 [32]
0.0846681 -0.009907369 0.036748298 0.082178354 0.06379622 0.031896144 0.068351984 0.08000261
0.027022807 0.06920665 0.02268508 0.06982091 -0.034764152 0.07416168 0.034423675 -0.05092607
0.0070951534 0.07706649 -0.038516533 -0.031155283 0.01707201 0.07624148 -0.02869673 0.085644834
-0.028438643 -0.041531958 -0.028087351 -0.018995082 0.07314637 -0.010748094 0.08425174 -0.03976629
00000000: 7866 ad3d 8452 22bc 6285 163d 204d a83d
00000010: 98a7 823d 88a5 023d 20fc 8b3d 69d8 a33d
00000020: ef5e dd3c 37bc 8d3d 10d6 b93c 44fe 8e3d
00000030: db64 0ebd 14e2 973d d7ff 0c3d db97 50bd
00000040: 767e e83b 09d5 9d3d 83c3 1dbd 5d39 ffbc
00000050: 9ada 8b3c 7e24 9c3d 6815 ebbc 8f66 af3d
00000060: 28f8 e8bc 6a1d 2abd 7217 e6bc 939b 9bbc
00000070: c4cd 953d c618 30bc 2d8c ac3d fae1 22bd

running_mean f4 [32]
-0.36124167 0.4356649 -0.0010035147 -0.20505293 -0.2585821 -0.534176 -0.21354665 -0.13348225
-0.17644292 0.089243114 0.6558073 -0.6039892 -0.3731889 -0.007874122 -0.017648062 -0.15202507
-0.012046479 0.2522409 -0.74171174 -0.29489195 -0.22411771 -0.12850079 -0.097509325 0.14107995
-0.2298571 -0.118553355 0.243186 0.10960703 0.18501504 0.24000059 0.4621592 -0.011357793
00000000: abf4 b8be 780f df3e 5e88 83ba 65f9 51be
00000010: df64 84be c2bf 08bf f9ab 5abe 92af 08be
00000020: 74ad 34be 18c5 b63d fde2 273f 099f 1abf
00000030: 9e12 bfbe 7602 01bc ab92 90bc 76ac 1bbe
00000040: 985e 45bc b825 813e d2e0 3dbf 14fc 96be
00000050: 1d7f 65be b695 03be f8b2 c7bd 4377 103e
00000060: a95f 6bbe 1acc f2bd c005 793e a779 e03d
00000070: 9574 3d3e b7c2 753e 21a0 ec3e 0916 3abc

running_var f4 [32]
0.33002827 0.4553003 0.44527528 0.300134 1.0606086 0.45836377 0.47561824 0.43332353
0.4816824 0.52373385 0.308517 0.44159654 0.27561623 0.6572738 0.4063097 0.33661628
0.42156276 0.35643798 0.50052667 0.40826997 0.48223162 0.15472923 0.34590918 0.37071282
0.32187936 0.8182557 0.21738614 0.6174135 0.27002662 0.49473017 0.38509667 0.2365028
00000000: 77f9 a83e 1f1d e93e 1ffb e33e 2aab 993e
00000010: 06c2 873f a8ae ea3e 3c84 f33e 95dc dd3e
00000020: 139f f63e 6c13 063f f1f5 9d3e f118 e23e
00000030: 921d 8d3e 1943 283f d307 d03e f858 ac3e
00000040: 13d7 d73e 0a7f b63e 8422 003f c308 d13e
00000050: 10e7 f63e 5771 1e3e 021b b13e 12ce bd3e
00000060: 5fcd a43e 3579 513f 799a 5e3e d00e 1e3f
00000070: ee40 8a3e 464d fd3e 642b c53e ca2d 723e

weight f4 [5, 32]
0.2417263 -0.050917443 0.02936836 0.09948683 0.109295696 0.23025744 -0.0449192 0.20143639
-0.08631077 -0.006711566 0.08350156 0.20952788 -0.06253609 0.08993384 -0.074908204 -0.107133545
-0.02981408 -0.0063625895 -0.07646139 -0.11638233 0.024071978 0.09346128 -0.024762342 0.09848796
-0.04801513 -0.099426605 0.020845493 -0.13379252 0.14689961 -0.1575055 0.23546997 -0.10317634
0.0008815784 0.058305178 -0.19093038 -0.056200966 0.12925294 0.109672286 -0.21295209 -0.034252476
0.076133065 -0.12033678 0.030700983 -0.13579239 0.0882795 0.043464348 -0.114757925 0.107384816
-0.020225976 -0.07256496 0.055452835 0.0048445268 -0.10048636 -0.12175921 0.09783748 -0.15419509
-0.17621942 -0.11041452 -0.15206616 0.016129715 -0.04301256 0.008127949 -0.19600573 0.043510307
0.100788504 -0.06911899 0.16073361 0.10023509 -0.16659491 -0.07285483 -0.11855175 -0.013319451
0.05837651 -0.18746868 0.17930947 -0.14670464 -0.20273176 -0.0085497275 0.025856692 0.16679356
0.02836363 -0.00256645 -0.20431353 -0.18421072 0.0760378 -0.14222145 -0.08830323 0.012669234
-0.1874262 0.040085893 0.05132651 0.083209455 0.037706275 -0.17028348 0.016005304 0.12364363
0.09089048 0.16503434 -0.12810569 0.08705389 0.22357741 -0.031961627 0.1318196 0.09290065
0.0907571 0.15709977 0.08920819 -0.1283985 0.039279412 -0.05177798 0.16188149 -0.053930867
-0.047562193 0.11834881 0.06832512 0.01358055 -0.060497083 0.057085205 0.16235223 0.03932104
-0.015011479 -0.121887706 -0.055967864 -0.024299955 0.22147839 -0.034712184 0.008364599 0.014231654
-0.15958972 0.09076142 -0.07833139 -0.19076583 -0.09432656 0.0769686 -0.10455367 -0.23751605
-0.17336828 -0.080367826 -0.0005774754 -0.052126594 0.009592698 -0.1998266 -0.011840837 -0.009433214
-0.18581888 -0.05571419 0.059122507 -0.024241779 -0.08712213 0.031986594 0.09405539 -0.088751286
0.08296869 -0.1282736 0.077774756 -0.21132584 -0.22489259 -0.17142881 0.030885706 -0.031552248
00000000: 1987 773e cf8e 50bd ea95 f03c c0bf cb3d
00000010: 6cd6 df3d 9bc8 6b3e 32fd 37bd 5745 4e3e
00000020: b3c3 b0bd b2ec dbbb de02 ab3d 7a8e 563e
00000030: ec12 80bd 3c2f b83d 7969 99bd d568 dbbd
00000040: a83c f4bc 457d d0bb ca97 9cbd dc59 eebd
00000050: 9932 c53c a168 bf3d 65da cabc 0eb4 c93d
00000060: 83ab 44bd 2da0 cbbd 2bc4 aa3c e800 09be
00000070: da6c 163e 1f49 21be 0a1f 713e 1e4e d3bd
00000080: ba19 673a 69d1 6e3d 4183 43be fc32 66bd
00000090: e25a 043e dd9b e03d 1d10 5abe 534c 0cbd
000000a0: a7eb 9b3d 2173 f6bd a180 fb3c 290d 0bbe
000000b0: e2cb b43d ac07 323d 3406 ebbd 92ec db3d
000000c0: f2b0 a5bc f09c 94bd 8322 633d d6be 9e3b
000000d0: cbcb cdbd e55c f9bd 045f c83d 51e5 1dbe
000000e0: dd72 34be 0221 e2bd 3bb7 1bbe 7722 843c
000000f0: f02d 30bd 172b 053c bab5 48be dd37 323d
00000100: 346a ce3d 428e 8dbd 5a97 243e 0e48 cd3d
00000110: db97 2abe ea34 95bd 43cb f2bd d439 5abc
00000120: 351c 6f3d caf7 3fbe e79c 373e be39 16be
00000130: ea98 4fbe 2814 0cbc 6ad1 d33c eecb 2a3e
00000140: d85a e83c e331 28bb 9137 51be bca1 3cbe
00000150: b5b9 9b3d 80a2 11be 53d8 b4bd 9e92 4f3c
00000160: a7ec 3fbe 1b31 243d bf3b 523d b869 aa3d
00000170: e571 1a3d cb5e 2ebe 8e1d 833c df38 fd3d
00000180: ca24 ba3d c3fe 283e 232e 03be 4f49 b23d
00000190: 7af1 643e 32ea 02bd b8fb 063e b242 be3d
000001a0: dcde b93d c3de 203e c9b2 b63d e57a 03be
000001b0: 73e3 203d 2615 54bd 43c4 253e 9de6 5cbd
000001c0: 93d0 42bd dc60 f23d 0aee 8b3d f580 5e3c
000001d0: cacb 77bd 2dd2 693d aa3f 263e 190f 213d
000001e0: b5f2 75bc 43a0 f9bd 8f3e 65bd b310 c7bc
000001f0: 3bcb 623e 5d2e 0ebd ac0b 093c e22b 693c
00000200: 7d6b 23be 20e1 b93d 356c a0bd 1e58 43be
00000210: 492e c1bd b7a1 9d3d 3c20 d6bd 6837 73be
00000220: 7487 31be e397 a4bd b861 17ba b282 55bd
00000230: b12a 1d3c 589f 4cbe 1200 42bc c48d 1abc
00000240: 4e47 3ebe 9034 64bd 712a 723d b296 c6bc
00000250: 166d b2bd 6004 033d 1da0 c03d 3cc3 b5bd
00000260: 7deb a93d 285a 03be 5f48 9f3d cd65 58be
00000270: 3e4a 66be 098b 2fbe 0504 fd3c ee3c 01bd

bias f4 [5]
0.22386748 0.08330089 0.10477065 -0.06607393 -0.118075654
00000000: 843d 653e a899 aa3d ff91 d63d c551 87bd
00000010: a6d1 f1bd
