models/mlpnet_80.pth (torch, 21725 bytes, 21 tensors)

weight f4 [3, 5]
00000000: 9c70 e5be ed0e 0c3e f3a2 50bf abf3 18bf
00000010: 0a11 6abe 2766 1fc0 a13b 68be 5bd0 bcbe
00000020: 7d8a 553d 00b0 b33e 7023 d43f 3338 0dc0
00000030: 0300 4d3f 0dc2 02bf 1f81 05bf
-0.44812477 0.13677569 -0.8149864 -0.5974681 -0.22858062 -2.49061 -0.22678997 -0.36877713
0.052134026 0.35095215 1.6573315 -2.2065551 0.8007814 -0.5107735 -0.5215015

weight f4 [3, 5]
00000000: 2e9f 60bf 7d51 4b3f 69cb b53f 53f9 6c3f
00000010: 0f19 7dbd 5e0c 5bbe 0f1f 2fbe 877f b8bf
00000020: 750e 09bf 5346 e6bf 9665 e7be 94b7 d13f
00000030: 0f63 3640 6092 84bf 8570 42bd
-0.8774289 0.79421216 1.4202701 0.9256794 -0.061791476 -0.21391436 -0.17101692 -1.4413918
-0.53537685 -1.7990211 -0.4519469 1.6384149 2.849796 -1.035717 -0.04747059

weight f4 [7, 9]
00000000: 83ba 973d 0e5a aabf 2a96 a0be 6c2e fbbe
00000010: 4bfb 843c 562c 3b3f d140 fbbe b3fd 03bb
00000020: d900 83bf 0771 513f 7c8c a8be c43b cebe
00000030: 965a debe 1a4a 86be e6e8 d43e 9d9a 883f
00000040: 6a3d 42bf bb97 8b3f 02f7 3abf 34b3 a13f
00000050: 3f40 483f 8f59 85bd 78a8 9cbd b3eb a53f
00000060: 1935 223f acd3 2b3f 3c89 24bf c393 8d3e
00000070: bef7 f1be fbc1 dbbf 1073 02bf 2ebf ec3f
00000080: 32dc c4bf 1f93 c63e 0a2b 14bf 3c17 d93f
00000090: 9a17 3f3f f14a 933e d584 003f 5a1b 383e
000000a0: 42c2 c43e 86f7 253e fd6b 63bf 2b3d 08bf
000000b0: 91aa 7a3f 8520 003f fa5d 80bf 0e37 613f
000000c0: 36be a9bf 0272 f23f 6393 253f 217a 383e
000000d0: 4cdb c33e 192c cfbf 3fb2 75be c0c2 5cbf
000000e0: 5510 7dbf b2fc aa39 13fe 33bf 1439 ec3e
000000f0: b09e 56bf 6d78 893f 6848 863f
0.07408621 -1.3308733 -0.31364566 -0.49058855 0.016233107 0.73114526 -0.49072888 -0.002014023
-1.0234634 0.8181309 -0.3291968 -0.40279973 -0.43428487 -0.2622841 0.41583937 1.0672184
-0.7587496 1.090568 -0.73033154 1.2632813 0.7822303 -0.065112226 -0.0764932 1.2962555
0.6336227 0.6711986 -0.64271903 0.27651796 -0.47259325 -1.7168573 -0.5095682 1.8495843
-1.5379698 0.3878412 -0.5787817 1.6960216 0.7464539 0.28768113 0.50202686 0.17979184
0.38429457 0.16207704 -0.8883665 -0.53218335 0.97916514 0.5004962 -1.0028679 0.8797463
-1.3261173 1.8941042 0.6467802 0.18015338 0.38253248 -1.6185333 -0.23993777 -0.86234665
-0.98853046 0.000326132 -0.7030956 0.46137297 -0.8383589 1.0739876 1.0490847

weight f4 [40]
00000000: ef03 983f e409 b03f d2ba 913f 87dc 763f
00000010: 30ff 903f 29d3 463f 9640 1a3f b8d0 3e3f
00000020: a765 403f 90a4 4b3f db2d 6e3f 115d 723f
00000030: e832 473f d18f 843f abf4 353f 603e 873f
00000040: e531 833f 85e6 b13f e39f 963f 48d4 6e3f
00000050: d557 6e3f d7d2 773f 448e 4f3f e9dc 743f
00000060: 09ea 543f cbab 593f bd2e 823f be39 803f
00000070: 1fc4 6f3f 6337 8d3f a5ee 873f 86d3 653f
00000080: 857f 653f e5ef 573f d38f 583f b057 743f
00000090: c78d 5b3f 7114 5f3f 8081 493f 5aa9 4e3f
1.18762 1.3753018 1.1385138 0.9643025 1.1327877 0.77665955 0.602548 0.7453723
0.7515511 0.7954798 0.9303872 0.9467326 0.7781205 1.0356389 0.7107646 1.056591
1.0249602 1.3898474 1.1767544 0.93292665 0.9310277 0.9680609 0.81076455 0.9564958
0.8316961 0.8502776 1.0170513 1.0017622 0.9365863 1.1032528 1.0619704 0.89775884
0.89647704 0.84350425 0.8459446 0.954463 0.8576321 0.87140566 0.78713226 0.8072716

bias f4 [40]
00000000: 9c3c 79bb e864 9abc 2ebb 973c d7ca abbb
00000010: bc55 173c 3c26 23b9 f843 13bc fa4a 943b
00000020: dd64 51bc 1ea6 053c cd4f 7dbb fea8 adbb
00000030: 0713 313c 9b45 5e3c eda6 313c bd5c 713a
00000040: 39a3 4abc cabf 96bc 50ab 9cbb 170c 293b
00000050: 2192 483a 75ee d93b 7e15 77bc f76e 63bc
00000060: 9576 4fbc 04f2 343b 19ce 61bc f10f 363c
00000070: f9a6 acbc 738b 91bb 8ec0 a23c c5cd 0f3b
00000080: 0ce1 c43c 0b3e 0a3b 6da8 963a b28d 7fbc
00000090: 16db 423c a5b9 babb eaf2 c1bb b8bb 9b3c
-0.003803051 -0.018846944 0.018521871 -0.0052426863 0.009236749 -0.00015559135 -0.008988373 0.0045255395
-0.012780395 0.008157281 -0.0038652301 -0.0052996865 0.010807759 0.0135664 0.010843021 0.00092072395
-0.012368017 -0.018401999 -0.004781164 0.002579456 0.00076511694 0.0066507407 -0.015080808 -0.013881437
-0.0126625495 0.0027610073 -0.013782048 0.011112199 -0.021075713 -0.0044416725 0.019867208 0.0021942717
0.024033092 0.002109411 0.0011494287 -0.015597748 0.0118930545 -0.0056984 -0.00591885 0.01901041

running_mean f4 [40]
00000000: f148 123f 5f8c 0641 22a5 323f e77b c040
00000010: 4fc0 b13d 36bf 083f 7bb3 113d e6aa 823e
00000020: 02bc 473e 0648 523f a856 cb3e 1dbe de3e
00000030: 4de0 f13c 7acd fb44 0f88 8041 c2d6 e23c
00000040: 67cd 29bd deac 3cbf d865 403d 8c5f 3c3d
00000050: e069 b1bd 40c0 b0bf ada9 06be 477b 08bf
00000060: a672 8bbe 30ba 423d e2d6 2cbf 6715 0e3f
00000070: c4c1 2b3f d025 e23e 9b81 0cbf 284b 7bbe
00000080: 26d0 e0bd a998 14be b22c 24be 9e7f 16be
00000090: bc64 373f 6d04 30be 04b7 273f 8bdd 2a3e
0.5714255 8.40927 0.6978322 6.015125 0.08679258 0.53416765 0.035571557 0.2552101
0.19505313 0.8214115 0.3971455 0.4350442 0.0295259 2014.4211 16.066435 0.027690295
-0.041455653 -0.73701274 0.046972126 0.045989558 -0.08662772 -1.380867 -0.13150664 -0.53313106
-0.27235907 0.047540843 -0.67515385 0.5550141 0.6709254 0.44169474 -0.5488526 -0.24540389
-0.10977201 -0.1451136 -0.16032675 -0.1469712 0.71638083 -0.17189188 0.65513635 0.16686074

running_var f4 [40]
00000000: 5007 7c3e feda 1841 dd86 543e 678e 1a40
00000010: 9561 8a3c 6a69 803e bf80 933a b14d ee3c
00000020: c190 213e 3f37 173e 1680 753e f5db 7b3e
00000030: 1d99 ea3c b9f4 0d3f 64b0 9b42 6ffa f53e
00000040: dcee 053f 8765 c33d ef1e b83e 5bac 093f
00000050: d7f5 e73e b92d b03f 8e44 4e3e 05a2 f13d
00000060: 4f82 d53d 2715 c13d 2522 b83d 72c5 6e3e
00000070: ae22 ea3f 6e02 033f bd2a 1d3f 86c1 503e
00000080: 5ff6 853f ba43 3f3f 0ce3 fe3d 3d5f 043f
00000090: 8e21 873e 802b 003f 8261 863e 0343 7b3f
0.24612164 9.553465 0.20754571 2.4149415 0.016892234 0.25080425 0.0011253579 0.02908978
0.15777875 0.14767168 0.23974642 0.24595626 0.028637463 0.5545154 77.84451 0.48042628
0.52317595 0.09540849 0.359611 0.5377862 0.45304748 1.3763953 0.20143339 0.11798481
0.10425245 0.094278626 0.089908876 0.23317507 1.8291833 0.5117558 0.6139334 0.20386323
1.0465811 0.7471272 0.124456495 0.5170782 0.26392788 0.50066376 0.26246268 0.98149127

weight f4 [32, 40]
00000000: f07d 8d3d b0bb 88bc a6d1 08be ddca 733d
00000010: 928d 453e 44bd e33d bfc7 d53d 8754 733d
00000020: 131b 8b3e e5e1 883d ac52 acbd b66e 5fbe
00000030: be2d f13c c2b9 aebd e18e f23d b2fc e0bd
00000040: c6e7 f33d 23bf 193f eaf8 59be 1f4b 7c3d
00000050: dee7 963e 0efd 84be bf9f a2bc 2ace 243d
00000060: 9564 0cbe 224d 05be 1fa5 143e 0b11 0cbd
00000070: d543 173e 34bc 0bbe bd35 dabd edb7 f6bd
00000080: 4f41 093e 7de3 f8bd eff9 e93d b7e9 5dbe
00000090: a429 c93d c7a8 d43c 1c4a 01be 0d97 8c3e
000000a0: 4159 a0bc 9e43 683d 77ff ad3e 03b3 2e3c
000000b0: 7668 1ebe fae0 a0bd 8e37 e1bc fdcb 39be
000000c0: 1763 21be 4a28 f5bc f9a2 30b9 7071 a33e
000000d0: 7c09 623e 9ff7 92be 63df 9fbe 787f 5e3e
000000e0: dcdc 76be 456b 9ebd d0cd d8bc 242d 9dbd
000000f0: 4239 703e 2901 863c c0cb d23c a318 143e
00000100: 2ac5 9fbe 4a74 c8bd d8fa aabe f48b b53e
00000110: 12ef 0c3e f21b 813d 80b9 54bd 4aa2 403e
00000120: e586 cdbd e33f 6b3e 3443 7f3e 8583 a9be
00000130: f813 413d 3f88 833e 4167 7f3d 9c80 5ebe
00000140: 6e20 c0bd 849b 033f 6af6 a3be ddab 1a3d
00000150: 30af 793e 8384 103d 43d4 88bd d1cd 13bd
00000160: 71ae bcbd fb92 d0bd 0494 91bb 4cbf 773a
00000170: fab8 87bd 8827 82be 2b5b 0dbe 3998 1cbd
00000180: 241c 053e a740 b8be 5986 e73d de60 92bd
00000190: e585 493c f541 1ebe f25c f73d d9af 813c
000001a0: 6169 36bc bd5d b8bd aac7 5e3e 7f8e 4e3e
000001b0: 12c1 6f3e 1adf 643d 1620 63be bf85 a2bd
000001c0: 56ab 0fbe 4bf0 883d 1afe b8bd 1662 ad3d
000001d0: 8302 7cbd bc85 2b3e 81f9 4e3e 84a4 fa3c
000001e0: 4887 dabe 3112 4bbd 910c 683e 35a8 5abd
000001f0: b620 debe bb96 78bd 054b 2ebe 3618 fcbd
00000200: dffc 06be b27d 053d f037 e1bc 8020 233e
00000210: 4f52 c2bc c2ac 19bd 4156 3eba 8363 08be
00000220: af25 16be 226a 34be f04e 333b 6a62 203e
00000230: 200f 6f3d 99ef c7bd e354 f0bd 35ef 86be
00000240: 974d a1be 908c 803e a471 853e c1a0 673d
00000250: 52f6 d7bd 88f4 483e d666 16bd 1fba 9b3d
00000260: d787 133e bd3f ffbd 0434 51bd 5241 47be
00000270: 81cc 7d3d 2cb4 973d 6dbf 4cbe 77a0 f8bd
00000280: cc02 553e c086 b2be 8758 243e 888a b63d
00000290: 84db 853c b417 183e 6e9c 8cbd 7788 aebc
000002a0: 2413 8dbe b285 a7bd 83c7 f6bd 453a 113e
000002b0: 777d d1bd 725c a13e c9c5 aa3d c6dc 353d
000002c0: 79a0 71bd 2520 2fbd a6dc febd 132f 7c3d
000002d0: 6939 adbe cdf6 d43c 32c7 aabd b421 44be
000002e0: 780c 133c 2e43 323e 0c2f 25be 35ca 733c
000002f0: dc13 2e3e f91f 26bd 898d 00be e766 4b3e
00000300: e828 b93c daca dcbd a97c 373e 17f1 7d3e
00000310: 4564 883d b4ed c33d 69f8 8b3e 32a4 6d3e
00000320: 40a4 6f3e 236f 443e 14b7 77bd a261 cd3d
00000330: 7134 82bc a310 323e d961 143e 5009 f53d
00000340: 5900 dfbd 0067 aabc 7944 8cbe bc06 fa3c
00000350: 8001 b8bc 3129 ecbd 371f 853d 32dc 3f3e
00000360: a74b 57be 2116 b6bd af4b 3e3e 22dd 86bd
00000370: 6501 573e f5eb 453e fc6f 41bd 6fbd 30be
00000380: b9e4 bf3b f3a8 993d 5856 2d3d 0f45 85be
00000390: 56df c2bd c714 0ebe b9a3 a5be 1c7c 82be
000003a0: 1997 19be 47ce d1bd 1511 87be 26d2 96bc
000003b0: 153e 33be 310c ae3e 4b18 753e 0c3e 4c3e
000003c0: b6b0 843e bae7 1f3e a648 5cbd 58b3 c53d
000003d0: 985b 7bbe 3a3b 323e bc20 443c de42 1dbe
000003e0: a626 adbc d431 bbbd c6d6 ffbd bc34 a93c
000003f0: 6354 053c 5cdf 703e 3e6a 9ebd 9f2c 373e
0.06908786 -0.016691059 -0.13361225 0.059519637 0.19292286 0.11120084 0.10438489 0.059406783
0.27169093 0.06683711 -0.08414206 -0.21819577 0.029440757 -0.08531524 0.11843658 -0.10985698
0.11909442 0.60057276 -0.2128636 0.06159508 0.29473776 -0.25974315 -0.019851563 0.040235676
-0.13710244 -0.13017705 0.14516114 -0.03419594 0.1477197 -0.13646013 -0.10654781 -0.120468
0.1340382 -0.12152765 0.11424624 -0.21671186 0.098223954 0.025959386 -0.12625927 0.27458993
-0.01957381 0.05670511 0.33983967 0.010662797 -0.15469536 -0.07855411 -0.02749231 -0.18144222
-0.15760456 -0.029926438 -0.0001684538 0.31922483 0.2207393 -0.28704545 -0.31225118 0.21728313
-0.24107689 -0.07735304 -0.026465327 -0.076746255 0.23459342 0.016357975 0.025731921 0.14462523
-0.31205112 -0.097878054 -0.33394504 0.35458338 0.13763073 0.06304158 -0.05193472 0.18811908
-0.10035495 0.2297359 0.2492798 -0.33108154 0.047138184 0.25689885 0.06235433 -0.21728748
-0.093811855 0.51409173 -0.32023937 0.037761558 0.24383235 0.035282623 -0.06681111 -0.036084954
-0.092129596 -0.10184284 -0.0044426937 0.00094508077 -0.06627078 -0.25420785 -0.13804309 -0.03823111
0.12999016 -0.35986826 0.11304922 -0.07147382 0.012299989 -0.15454848 0.12078275 0.015830921
-0.011133523 -0.09002254 0.21755853 0.20171545 0.23413494 0.05587683 -0.22180209 -0.07935666
-0.14030203 0.06686457 -0.09032841 0.08465974 -0.061525833 0.16750234 0.20212366 0.030596025
-0.42681336 -0.049577896 0.22661044 -0.05338307 -0.4338433 -0.060690623 -0.17020805 -0.12309305
-0.131824 0.032590576 -0.027492493 0.15930367 -0.023720888 -0.03751827 -0.00072607776 -0.1331921
-0.14662813 -0.17618611 0.0027360283 0.15662542 0.058364034 -0.097624965 -0.11734941 -0.26354375
-0.3150451 0.2510724 0.26063263 0.05654979 -0.10545029 0.19624531 -0.036719166 0.07603859
0.14407288 -0.12463329 -0.051074997 -0.19458511 0.06196261 0.07407412 -0.19994898 -0.12139981
0.20801848 -0.3486843 0.16049396 0.089131415 0.016340025 0.14852792 -0.06865774 -0.021305306
-0.27553666 -0.08179797 -0.120497726 0.14182384 -0.10229009 0.31515843 0.08338506 0.0444
-0.05899093 -0.042755265 -0.12444429 0.06156833 -0.33832863 0.02599659 -0.08338775 -0.19153482
0.008975141 0.1740844 -0.16131228 0.014879753 0.16999763 -0.040557835 -0.12553991 0.19863473
0.022602513 -0.10780878 0.17918648 0.24799 0.0665975 0.09566823 0.2733796 0.23207167
0.234025 0.1918302 -0.06047733 0.100283876 -0.015894147 0.17389159 0.14490451 0.11964667
-0.10888738 -0.020801067 -0.2739599 0.03052079 -0.022461653 -0.11531294 0.065000944 0.18736342
-0.21024953 -0.088909395 0.18583558 -0.065851465 0.20996626 0.19328292 -0.047225937 -0.17259763
0.0058561233 0.07502928 0.042318672 -0.2602925 -0.09515254 -0.13875113 -0.32351473 -0.25485313
-0.14999045 -0.102444224 -0.2638022 -0.018410753 -0.17504151 0.33993676 0.23935048 0.19945544
0.2591607 0.1561574 -0.05378022 0.09653348 -0.24546659 0.17405406 0.011970695 -0.15357539
-0.021136593 -0.09140363 -0.12492137 0.020655029 0.008137795 0.23522705 -0.07735108 0.17888115

bias f4 [32]
00000000: 489e 7abd a3a8 6fbc 4d05 703d 3e2f 5abc
00000010: 7ad5 b6bc 99f3 153b 38ea f5bd 90b8 e9bd
00000020: f59b cebd aee0 153e 763e e3bd 3e50 123e
00000030: 9d4f 7abc 41d2 153e 73b2 7cbd 0f0d efbd
00000040: e86a 7a3d 8dc1 ec3d 3a29 0e3e 1544 1d3e
00000050: 8564 52bd b177 c83c 2c3f af3d 9af1 35bd
00000060: b06f ca3a cbb8 953d 1c49 c33d 8bfa 13be
00000070: 12c3 11be 3a03 e83d 8bb3 19bc 2cf5 9e3c
-0.061186105 -0.0146276085 0.058598805 -0.0133169275 -0.02231859 0.0022880791 -0.12007564 -0.11412156
-0.1008834 0.1463649 -0.11095898 0.14288422 -0.01527777 0.14630987 -0.06169362 -0.116724126
0.06113711 0.115603544 0.13882914 0.15358002 -0.051365394 0.024471136 0.08556971 -0.044419862
0.0015444662 0.07310637 0.09535429 -0.14451043 -0.1423457 0.113287404 -0.009381185 0.019404016

weight f4 [32]
00000000: 54f9 603f 8630 853f 0155 903f f223 803f
00000010: 5a5b 713f f684 793f 0956 693f 34ad 833f
00000020: 979f 7b3f b478 813f 1a23 6d3f d0a3 793f
00000030: 8ba3 773f f67c 873f 8f72 743f 6bfd 773f
00000040: 3757 6f3f 2913 633f 1b08 863f 93c9 5a3f
00000050: 7204 913f aeed 5e3f e3f3 7c3f 29f2 693f
00000060: 7c62 713f 6cbc 883f 9e06 733f 99f3 853f
00000070: 71e0 803f 84f8 913f 3e27 7f3f e482 723f
0.87880445 1.0405433 1.1275941 1.001097 0.94280016 0.9746851 0.91146904 1.0287232
0.9829039 1.0114961 0.92631686 0.97515583 0.9673392 1.058501 0.954873 0.9687106
0.93492454 0.8870111 1.0471224 0.8546383 1.1329482 0.8708142 0.9880964 0.9138513
0.942909 1.0682502 0.9493197 1.0464965 1.0068494 1.1403966 0.99669254 0.94730973

bias f4 [32]
00000000: c770 81bd 3bca 4f3e cf01 6fbe 915f 8c3e
00000010: dca8 253d 561a 4abd c10b 97bc bf37 1bbe
00000020: 5d96 19be b2ae 403d 0c33 56bd 8f07 9ebe
00000030: c5cd 09be 9a54 ca3c ea5d 2c3e 504b 71bc
00000040: 3a47 493e 3dc4 a03e 4fee 6a3d 75b3 0dbe
00000050: 63ea 3dbe 1db5 73bd 9b34 223c 4dc5 22be
00000060: 9036 c83d 6850 01be 6526 1f3e e298 473e
00000070: 0520 68be 6124 183d 0f10 dcbd fb8e b23c
-0.06320339 0.20291989 -0.23340534 0.2741666 0.04044424 -0.049341522 -0.018438222 -0.15157984
-0.14998765 0.047041602 -0.052294776 -0.30865142 -0.13457401 0.024698544 0.168327 -0.014727429
0.19656077 0.31399718 0.057356175 -0.13837989 -0.18546443 -0.059498895 0.009900237 -0.15895577
0.09776032 -0.12628329 0.1554199 0.19491914 -0.22668464 0.03714407 -0.107452504 0.021796694

running_mean f4 [32]
00000000: b210 8ebd c226 f4bb e23d c33c eebd 183c
00000010: c009 6bbb aa70 0fbc ffc7 00be 5694 bdbd
00000020: 64ff d7bd 1b12 0b3e b5c4 f2bd 2074 1c3e
00000030: 3c73 8bba 3c9a 293e 4993 94bd 540f fbbd
00000040: 2f19 383d ae7b e13d 6b98 1a3e 005d 383e
00000050: 8674 b9bd 3ef0 943c ed90 cd3d b882 bcbc
00000060: d4d6 04bc 26dc 953d b165 cf3d 9a08 2dbe
00000070: 9be0 0cbe fefb bb3d 0cff d2bc cf4f 043d
-0.06936778 -0.0074509094 0.023833219 0.0093226265 -0.0035863966 -0.008754889 -0.12576292 -0.092568085
-0.10546759 0.13581125 -0.11853925 0.15278673 -0.0010639201 0.16562742 -0.07254655 -0.12258783
0.044945892 0.11009918 0.15097205 0.18004227 -0.09055428 0.018180963 0.10037408 -0.02301155
-0.00810786 0.073173806 0.10126818 -0.16897812 -0.13757555 0.09178923 -0.025756381 0.032302674

running_var f4 [32]
00000000: c700 c23f 73a6 e43f ea39 733f 2855 8b3f
00000010: 51a9 343f 410e b93f 3925 733f 6efd ad3f
00000020: f98f 533f a93f 4f3f e6a1 393f e194 c13f
00000030: 5b8a fc3f be07 d53f b9c7 243f ecbd 9d3f
00000040: 64cd 453f 0241 a23f 2655 823f 9645 0a40
00000050: db72 d43f f414 933f d53e 0c40 9903 fb3f
00000060: c90d d53f a5c3 483f 2cee da3f 426c bb3f
00000070: a6e0 1140 99c7 d93f 810f 833f f7cd d43f
1.5156487 1.7863296 0.95010245 1.0885363 0.70570856 1.4457475 0.9497867 1.3592966
0.8264156 0.8095651 0.7251266 1.5123559 1.9729723 1.6642988 0.6436725 1.2323585
0.77266526 1.2676089 1.0182235 2.1604972 1.6597551 1.1490769 2.191335 1.9610473
1.6644832 0.7842353 1.7103934 1.4642413 2.2793365 1.7014037 1.0239106 1.6625355

weight f4 [32, 32]
00000000: 9234 debd 6147 703e db65 dd3d 9bec 343e
00000010: d370 a3bd 52f5 27be 47bd 933e 3c39 b5bd
00000020: f38c d3bd 923c 4e3e dafe 1abe 6cf3 173e
00000030: e28c 2abd db88 3c3e 46d1 9d3d 224b 4bbc
00000040: 8e96 86be 2ecf 44bc 8a67 1e3d 9c92 bbbc
00000050: 6656 71be 84b2 b9bd ad81 37be 6070 bebd
00000060: c377 fdbd 5a1f 88be 77e6 fb3d 4481 453e
00000070: de33 f43d cff6 983e b688 ab3e f2cf 12be
00000080: 8ecc d73d 384c a9bd 1f3b af3c c074 5d3e
00000090: 280c 953e e3c2 4a3e 1043 9a3d 1f77 e43c
000000a0: 8cc8 37bd 1fef 503e 1766 923d 8334 433e
000000b0: c4f8 9f3e 9634 8a3d 6885 233d 730c 4cbe
000000c0: 9228 583e d689 66be 9429 893e eb92 d43d
000000d0: 66b0 04bd 73d8 1a3d 9cb5 d9be ba7a b8be
000000e0: ad18 943b 8c75 8b3e f64c d8bd 6b67 20be
000000f0: 2676 0abc 02cd de3d 95d9 5fbd dbe9 c0bc
00000100: bb23 f93c f744 2c3e fce3 603d 7002 013e
00000110: 952c 7f3e 563e 86bd 6c93 293e 8774 b33e
00000120: fbac 803d df50 70be ecef 1f3e 1a69 33be
00000130: 0139 84bc de10 8f3c 835f bdbe a735 c13d
00000140: b4f3 02be f83b 09be 33bb 42be fcb3 6fbe
00000150: e7cf c23d cc25 f8bd 71ed a53e 8f4b fd3d
00000160: ff1f 593e 4f1a febd 9364 06be fc86 573d
00000170: 2f8b 17be 3f64 74be ec69 34be 231c 1c3b
00000180: 7c86 8ebd c284 58bb 3e5e b7bd 2bdb 96be
00000190: e178 823e be68 4e3e ae8c bb3d 1716 3e3e
000001a0: 156c 443e 30d8 28bd 06df 7d3e 00ee 85be
000001b0: 091e a2bb c00d 683e ab65 1f3e 498d 9dbd
000001c0: 9aff 1d3e 4b8d ea3d d32f 58bd c8b6 85be
000001d0: cf01 75be 5d16 4cbe 1868 02be 1f31 81be
000001e0: 19c9 a3be cc96 913e 6ecb 8ebd 9b21 f23d
000001f0: 11d0 bc3d 5da5 82be 2b19 0ebe 07fe c13b
00000200: 3b37 963e 99c3 843e da25 72be b237 8dbe
00000210: 9cbb d43d e115 a6be cdb2 093d df22 a3ba
00000220: b2cb de3d 7519 7dbc 78e4 213d 9278 3e3d
00000230: ad19 593e 4812 3abd 2480 96be 8c20 dc3c
00000240: 230d 45bb 9354 3ebc f84b aa3e 3e13 bfbd
00000250: 6d60 523e 0b36 94bd 97cc f23d 773d 8cbc
00000260: 09a4 653e d8b0 a7bd dd4b 983e d8f0 4b3e
00000270: d0b0 b33d 86ef ce3e 9008 093d bcb3 60bd
00000280: 8689 263e 3018 7dbe 269f ab3c e118 8d3e
00000290: b92e e3bd 6944 2cbe 24be 663e 2896 213e
000002a0: eb96 6a3d 6b4f 3cbe 7969 513d 884d a4bd
000002b0: 0c73 88be 3f4e 9f3e b509 453e 6845 a6bd
000002c0: 0a9e c3bd d435 45be c461 e23c a719 bdbc
000002d0: bcf3 85be 5c7c 02bd 8f60 b9bd 6de0 363d
000002e0: 579a 66be a7a5 3ebe 38e8 753e 3afa 6fbd
000002f0: c98a 803e 91f1 cabd 133a 88bd 5bb9 b0bd
00000300: 472d 3abd dc1f 893d d905 b2be a71e d13d
00000310: a31a b93d 4cab 613d 4e8c af3e c9dc ab3d
00000320: 914a b9be 395b de3d d4e6 183e 8f2c 22be
00000330: b43a 57bd 46f7 bebe 10ac 39bc b2f7 133e
00000340: 4071 d2bc 45ff 36be 7a31 fbbd 38ae 253e
00000350: 1c66 5c3d 654f aa3e c409 49be f3ba c63d
00000360: abb1 0d3c 3519 8abe 2436 113e 64d0 01be
00000370: 39ed 04be 8fd1 2a3e c1f0 2e3d 5561 593d
00000380: 4361 14be 0d7a 673e 7ec2 353c 61a6 593e
00000390: fa19 693e 032e 04bd c984 28be 0834 723e
000003a0: 2bb6 91bd 26a3 1dbe 0e2f 753e 617e 393e
000003b0: 72c1 b33e ba3f cbbe 785d 913d 8af6 fabd
000003c0: 6e89 473e dd7d 063e 9b00 193d 9499 593e
000003d0: dada b7bd cac9 7b3e 536e 593d c97b b6be
000003e0: 1855 873d 0b5a c63d db7f 293d 200b 6eba
000003f0: 0bf0 49be 81fe 9bbd f791 05be 300d 813c
-0.10849871 0.23464729 0.10810443 0.17668383 -0.07980504 -0.16402176 0.28855345 -0.08848807
-0.10329618 0.20140293 -0.1513628 0.14838952 -0.041638263 0.18411581 0.07705931 -0.01240805
-0.2628674 -0.012012286 0.03867296 -0.022897057 -0.23568115 -0.09067252 -0.17920561 -0.092987776
-0.12376358 -0.2658642 0.12299817 0.19287592 0.119239554 0.298758 0.3350274 -0.14337137
0.105370626 -0.08266491 0.021390496 0.21626568 0.29110837 0.19800906 0.075323224 0.027888833
-0.04486899 0.20403717 0.07148378 0.19063 0.3124448 0.06748311 0.039922148 -0.19926624
0.21109226 -0.22513518 0.26789534 0.10379585 -0.03239479 0.03780408 -0.4252137 -0.36031133
0.004519543 0.2723812 -0.10561554 -0.15664451 -0.00845102 0.10878946 -0.05465086 -0.023549011
0.030412545 0.16823183 0.054904923 0.12598586 0.2491935 -0.065548584 0.16560143 0.3504984
0.062829934 -0.2346835 0.15618867 -0.17520562 -0.016140463 0.017464098 -0.36986932 0.094340615
-0.12788278 -0.13401783 -0.19016723 -0.23408502 0.095123105 -0.12116584 0.32407716 0.12367927
0.21203612 -0.12407362 -0.13124304 0.052618966 -0.14799188 -0.23866366 -0.17618531 0.0023820482
-0.069592446 -0.0033038114 -0.08953522 -0.29464087 0.25482848 0.20157143 0.09157692 0.18563114
0.19181855 -0.041221797 0.24792108 -0.26158142 -0.004947428 0.22661495 0.15566127 -0.07692964
0.15429536 0.11452731 -0.052779984 -0.26116014 -0.23926471 -0.19930406 -0.12735021 -0.2523279
-0.31989363 0.2843536 -0.06972395 0.11822816 0.09219373 -0.25516787 -0.13876788 0.005920175
0.29339013 0.2593048 -0.23647252 -0.27581555 0.10387346 -0.32438567 0.033617783 -0.0012446305
0.108786955 -0.015447964 0.039524525 0.046501704 0.21201201 -0.04542759 -0.2939464 0.026870988
-0.0030067645 -0.011616844 0.33261085 -0.09329842 0.20544596 -0.072368704 0.11855429 -0.017119152
0.22425856 -0.08188027 0.2974538 0.19916093 0.08773959 0.40417117 0.03345543 -0.054858908
0.16263399 -0.24716258 0.020949911 0.27558044 -0.11092896 -0.16822971 0.2253347 0.15779936
0.057272833 -0.1838967 0.051125977 -0.080226004 -0.26650274 0.31114385 0.19241984 -0.08118707
-0.09551628 -0.19258815 0.027634509 -0.023083521 -0.26162517 -0.03185688 -0.0905162 0.044647623
-0.22519813 -0.18617879 0.24014366 -0.058588244 0.25105885 -0.099093564 -0.06651702 -0.08629104
-0.045453336 0.0669553 -0.34770086 0.102109246 0.09038284 0.055095002 0.3428673 0.08391721
-0.36189702 0.10857243 0.14931804 -0.1583731 -0.052546218 -0.3729803 -0.011332527 0.14449957
-0.025688767 -0.17870815 -0.12265296 0.1617974 0.053808317 0.33263698 -0.19632632 0.097036265
0.008648316 -0.26972356 0.1418081 -0.12677151 -0.12981118 0.16681503 0.04271007 0.05307134
-0.14490227 0.22605152 0.011093734 0.21254875 0.22763816 -0.032270443 -0.16456904 0.23652661
-0.07114824 -0.15394267 0.23943731 0.18114616 0.35108525 -0.39697057 0.07097906 -0.12254055
0.19486019 0.1313395 0.037354093 0.21249992 -0.089772895 0.24588695 0.05308373 -0.35641316
0.06608027 0.09685143 0.041381698 -0.0009080637 -0.19720475 -0.07616902 -0.13043962 0.015753359

bias f4 [32]
00000000: 720b 11be 7c8e c3bc a844 2e3e b13e 843d
00000010: e396 3cbe 792b 173d 0702 aa3d c154 24be
00000020: c47b 373d 3780 ff3d 01c5 dabd df5e 2dbe
00000030: 0c45 c7bd 4741 c63c 011c 1c3d ff3f 0cbd
00000040: 3d5a 533d 635d e4bd c78a 49bd 88fb 2dbe
00000050: b8d2 373e 22d7 26bd ef73 ecbc 60da 333e
00000060: 65df 48bd b714 773d de4c 83bd 31de 5b3a
00000070: e7c2 4f3c 9d9c d1bd b97e 48be 7f60 0cbe
-0.14164522 -0.023871653 0.17018378 0.0645727 -0.18416934 0.036906693 0.08301168 -0.16047956
0.044795766 0.12475627 -0.10682107 -0.16930722 -0.097299665 0.024201049 0.038112644 -0.03424072
0.05159973 -0.111506246 -0.049204614 -0.16990483 0.17951477 -0.04073251 -0.028863875 0.17563772
-0.04904117 0.06032249 -0.06411146 0.0008387296 0.012680746 -0.1023495 -0.19579591 -0.13708685

weight f4 [32]
00000000: 1da5 ac3f 1bdc 9d3f 7524 a93f d671 bf3f
00000010: f2a1 a33f 79d9 c13f d22b a13f 25f1 a83f
00000020: d6f0 bd3f 0429 a43f 7b70 9a3f ebb8 9b3f
00000030: 42f9 923f 0c53 a83f b4f8 983f badf 923f
00000040: eef1 bf3f a1a7 993f f327 a33f aeba 973f
00000050: c3d9 ab3f aad4 c03f 577e 983f 2ec3 bb3f
00000060: d49b 963f dcaa 983f c557 ac3f e150 b53f
00000070: 94c7 a33f e0c0 bc3f 313b af3f 9e28 a03f
1.3487889 1.2332796 1.3214251 1.4956615 1.2783797 1.5144492 1.2591498 1.3198591
1.4839122 1.2825017 1.2065576 1.2165807 1.1482317 1.3150344 1.1950898 1.1474526
1.4995706 1.2004281 1.2746567 1.1853845 1.3425831 1.50649 1.1913556 1.4668939
1.1766305 1.1927142 1.3464285 1.4165307 1.2795281 1.4746361 1.3689939 1.2512395

bias f4 [32]
00000000: 60f8 803e 6d6e de3d 0021 7c3e 567f 6f3e
00000010: 16d6 1bbe beea dcbd 0efd 9abd ea33 4b3e
00000020: 8c68 903e 157c d83d 8423 743e 8231 443d
00000030: 1f92 edbd 95bd cc3e 3c37 e33d 1d12 30bd
00000040: 650d 003f 58bb 983e 4f0d 643a e76f b1bd
00000050: c9db af3e 8a38 9f3d 8d7a f2bd 9c75 3d3e
00000060: b703 243b 6280 c73d 93d1 0e3e 1ae8 2aba
00000070: 4764 843e 9340 d9bd 80f4 273e 9d15 a13c
0.25189495 0.10860906 0.24621964 0.23388419 -0.15218386 -0.10786961 -0.075677976 0.19844022
0.28204763 0.10570542 0.23841673 0.047898777 -0.11600136 0.3998839 0.110945195 -0.042986024
0.5002044 0.29830432 0.0008699493 -0.08663922 0.3434737 0.07774456 -0.11839781 0.18501896
0.0025026628 0.09741284 0.13947134 -0.0006519571 0.25857756 -0.1060802 0.16401863 0.019663626

running_mean f4 [32]
00000000: a669 c33d 9fd5 9f3e 24c1 9c3d f1a6 60bd
00000010: e64d cc3e 406e 3bbe 9716 c73c 1afd 613e
00000020: 82df c0be 8742 4f3e 6adf 303f 94e5 04bf
00000030: 77fc 27be ca02 08bd 82dd 6fbe 1e66 03bc
00000040: 6baf 93be 94c6 0a3e e207 d8be bab8 c7be
00000050: 4b82 53be a4f9 b0be f70b 863d 3f2d 0cbe
00000060: 67c8 bdbd ddaa 9abe 761c a13d fc94 59bd
00000070: 76ab 3cbe 9b36 8e3e 10e6 c03e 42c3 46be
0.09541635 0.31217667 0.07654026 -0.054846708 0.39903182 -0.18303776 0.024302764 0.22069207
-0.37670523 0.20240222 0.690909 -0.5191281 -0.16404901 -0.033205785 -0.23424342 -0.008019952
-0.2884477 0.13552314 -0.42193514 -0.39008123 -0.20655172 -0.3456546 0.06545251 -0.13689135
-0.09266739 -0.30208483 0.078667566 -0.0531206 -0.18424782 0.27776036 0.37675524 -0.19410422

running_var f4 [32]
00000000: c9e0 163e d190 dd3e eb85 f13e 9ab1 b93e
00000010: 0cb3 c63e b904 a73e d1b9 a23e d4c1 903e
00000020: 8b67 803e 3e8b 733e f0bc e23e c135 9d3e
00000030: fe63 c93e 7b36 493e eefe 203f e1b9 5a3e
00000040: eca0 de3e ab8b 193f da23 753e 4468 8b3e
00000050: 023b cc3d ae2f 423e e133 193e 6968 d23e
00000060: 6afb 313e f04c 8a3f 525a 233e 3422 013f
00000070: 48d2 de3e 2549 9a3e ee4f cc3e b239 763e
0.14734186 0.4327455 0.47172484 0.36268312 0.38808477 0.3262079 0.31782392 0.2827288
0.25078997 0.23783585 0.44284773 0.30705073 0.393341 0.19649689 0.6288899 0.2135997
0.4348215 0.5997874 0.23939458 0.27227986 0.09972192 0.18963501 0.14961196 0.41095284
0.17381063 1.080473 0.15952423 0.50442815 0.43519807 0.3013393 0.39904732 0.24045447

weight f4 [5, 32]
00000000: 3143 c63e 6573 66be 798f 2d3d 01f9 313e
00000010: 297f b1bd 8ec6 113f 68ed 133a 62b6 983e
00000020: 7d99 a2be 8e00 b53d 2cbd a53d 0248 a13e
00000030: 886c 23be 7f77 413e c950 9cbe d439 4abe
00000040: ae40 023e 595f 9f3c 6dae e7bd c087 a2be
00000050: b0ad 3c3e c69e 3f3e 41a9 5abe d115 503e
00000060: 0bd4 4dbe 56cc 14be 9563 143e 632a d1be
00000070: e5db 8d3d 6bc3 bcbe 97e5 e83e c1be 98be
00000080: 2151 0d3d 5128 173e 2087 ddbe 2183 6fbe
00000090: c015 043d 1867 883e f1fb bdbe 3cc3 bbbd
000000a0: b03d 213e cef4 6ebe 743c 183d 8808 90bc
000000b0: 948a 333e 7dda 31bc cb91 a3bd dcd3 313e
000000c0: e1da ee3d 29a6 0abe bee7 323e 2278 a53d
000000d0: ba28 64be 90c5 ebbe ac0a f53d f737 ebbe
000000e0: 2b8d e0bd d9c3 a4be 5107 0bbf 2a2a a23d
000000f0: ee0d 8fbd 7c43 1e3e 98d5 9cbe e138 383e
00000100: f09e 173e 81bf d9bd b02b a03e f71f 913d
00000110: cab5 c7bd 6fcc eabe 2bbe f3bd c752 e4bd
00000120: 3835 3f3e 2c99 9ebe 61c6 933e 5a2c a6bd
00000130: f9bc 92be 8466 443d 499a 603e 6f88 ab3e
00000140: 619b 19bc 9ab3 0e3b 02c8 ffbe 43ae 34be
00000150: 40ff 193e 0ae5 90be 3de6 fdbd 6510 89bc
00000160: 5b9f e1be 8d9e a33d cd3e cd3d a1cd 133e
00000170: 3364 233d adbb c2be eb9f d83c dd89 883e
00000180: fff3 3ebd b520 863e b06c ccbd 2d67 703e
00000190: c59c d03e 74fb 8abe badb 803e d678 2b3e
000001a0: 4a1c 093e bd73 8f3e 827b 913d 17b0 92be
000001b0: 0e42 d53d 4538 c0bd a698 663e f337 d5bd
000001c0: 4a3e 1ebe 8640 543e b2ed 273e 61fc c83d
000001d0: b664 10be 0e18 913e bf82 a73e 1c40 113e
000001e0: 0521 5c3e 8b51 ad3d 4eb4 f4bc 7331 783d
000001f0: f05a c53e 2d15 8c3d f45e 2cbe 1019 923a
00000200: e03e afbf 6bd7 d5be a008 9dbf 16dd 97bf
00000210: 9f32 06bf 2ac2 a1be 437f 1dbf 8d2b 8cbf
00000220: f97c 8ebf 7330 3bbf 1c24 97bf 2562 6fbf
00000230: b9f5 5bbf 92bd b4bf 6c0f 18bf 5540 21bf
00000240: 02a7 03c0 9ccb abbf 230d 5bbf 9bf6 23bf
00000250: e73c 81bf aaba 33bf 8a94 1dbe d8dc a6bf
00000260: d90b b8be 578c a4bf 8b6a 41bf f5f3 6dbf
00000270: fc1e 82bf e504 59bf d670 34bf 35c2 28bf
0.38723138 -0.22504957 0.042373154 0.17380144 -0.08666832 0.56943595 0.0005642981 0.29826647
-0.31757727 0.088379964 0.08092722 0.3150025 -0.1595937 0.1889324 -0.30530384 -0.19748622
0.12719986 0.019454645 -0.11312566 -0.31744194 0.18425632 0.18712911 -0.21353628 0.20320822
-0.20100419 -0.14531073 0.14491113 -0.4085265 0.06926707 -0.36867842 0.45487663 -0.29833034
0.0345012 0.14761473 -0.43267155 -0.23389865 0.032247305 0.26641154 -0.3710628 -0.091680974
0.15746188 -0.23335573 0.037167028 -0.017582193 0.17533332 -0.010855314 -0.07986792 0.17365974
0.116628416 -0.13539948 0.17471215 0.08079554 -0.22281161 -0.46049166 0.11964926 -0.45941135
-0.10964426 -0.3218067 -0.5430804 0.079181984 -0.06985079 0.15455431 -0.3063171 0.17990448
0.14806724 -0.106322296 0.3128333 0.07086175 -0.097514704 -0.45859095 -0.11901506 -0.11148601
0.18672645 -0.30976236 0.2886229 -0.08113928 -0.286598 0.04794933 0.21933855 0.33502528
-0.009375424 0.0021774531 -0.4995728 -0.176446 0.15038776 -0.28299743 -0.1239743 -0.01673145
-0.4406689 0.079892255 0.10021744 0.1443391 0.03989048 -0.3803381 0.026443442 0.2666768
-0.04661941 0.26196828 -0.09981668 0.23476858 0.40744606 -0.27144969 0.25167638 0.16745314
0.13389698 0.2801799 0.07103635 -0.2864997 0.104129896 -0.093857326 0.22519168 -0.10411062
-0.15453449 0.20727739 0.16399267 0.098137625 -0.14100918 0.28338665 0.3271694 0.14184612
0.21496971 0.08462819 -0.029871132 0.060594033 0.38545942 0.068399765 -0.16833097 0.0011146385
-1.3691063 -0.41765913 -1.2268257 -1.1864345 -0.5242099 -0.31593448 -0.6152231 -1.0950791
-1.1131889 -0.731208 -1.1807895 -0.9350913 -0.8592182 -1.4120352 -0.5939853 -0.6298879
-2.0570683 -1.3421512 -0.8556692 -0.64048165 -1.0096711 -0.702067 -0.15388694 -1.3036146
-0.3594654 -1.2855328 -0.75553197 -0.92950374 -1.0165706 -0.84773093 -0.70484674 -0.65921336

bias f4 [5]
00000000: 39f1 8e3e 934a 1a3e 3244 123e 4fac 8dbd
00000010: bd9b 8cbf
0.27918413 0.1506751 0.14283827 -0.06917631 -1.0985028
