models/mlpnet_10.pth (torch, 21725 bytes, 21 tensors)

weight f4 [3, 5]
-0.41550794 0.020078035 -0.7772181 -0.6352521 -0.27718642 -2.522656 -0.1102374 -0.40550864
0.00065018743 0.39731112 1.6241729 -2.321898 0.83470637 -0.47032017 -0.47155035
00000000: 75bd d4be b17a a43c c4f7 46bf e29f 22bf
00000010: 61eb 8dbe 3273 21c0 25c4 e1bd d49e cfbe
00000020: 5771 2a3a 5d6c cb3e e6e4 cf3f fa99 14c0
00000030: 51af 553f cecd f0be 0c6f f1be

weight f4 [3, 5]
-0.8064521 0.7386059 1.3835407 0.9431939 -0.060476303 -0.14336315 -0.114185244 -1.4040558
-0.55546695 -1.714163 -0.521763 1.6929072 2.8862379 -1.0147109 -0.04951307
00000000: a573 4ebf 4715 3d3f dd17 b13f 2875 713f
00000010: 00b6 77bd cacd 12be f4d9 e9bd 1ab8 b3bf
00000020: 1533 0ebf b169 dbbf 4392 05bf 2fb1 d83f
00000030: 1fb8 3840 0ce2 81bf 38ce 4abd

weight f4 [7, 9]
0.108055554 -1.4017695 -0.45997545 -0.502622 0.07488215 0.7909112 -0.35312444 0.03215099
-0.93622583 1.1007934 -0.49634942 -0.4194879 -0.45940435 -0.09591316 0.09577062 1.2556381
-0.83674294 0.87906486 -0.6441169 1.2204556 0.7224807 -0.07481049 -0.15172444 1.1784388
0.5229322 0.6386614 -0.64918417 0.1291356 -0.36091915 -1.647112 -0.45282468 1.8555826
-1.548812 0.3646092 -0.57415736 1.7152246 0.7122551 0.3155447 0.42651474 0.15555277
0.39218482 0.14700778 -0.9401422 -0.43539715 1.0790814 0.3866531 -0.99109757 1.0683507
-1.3157415 1.8728261 0.66534555 0.08561449 0.34883797 -1.6741246 -0.277702 -0.79879695
-0.8978636 0.019580217 -0.71377456 0.5851061 -0.8116954 1.1063328 1.0612886
00000000: 3b4c dd3d 2f6d b3bf e781 ebbe d6ab 00bf
00000010: d05b 993d 2879 4a3f bacc b4be c2b0 033d
00000020: 7fac 6fbf cce6 8c3f 8321 febe 1ec7 d6be
00000030: 0c37 ebbe 1e6e c4bd 6323 c43d c0b8 a03f
00000040: c934 56bf 650a 613f d8e4 24bf e437 9c3f
00000050: 7ff4 383f 3e36 99bd a75d 1bbe 15d7 963f
00000060: e2de 053f 507f 233f ef30 26bf 1f3c 043e
00000070: 65ca b8be 91d4 d2bf a3d8 e7be bb83 ed3f
00000080: 793f c6bf 0fae ba3e fafb 12bf 7b8c db3f
00000090: 5a56 363f 138f a13e 2460 da3e 3a49 1f3e
000000a0: 73cc c83e 3589 163e 29ad 70bf 60ec debe
000000b0: 571f 8a3f 65f7 c53e 92b8 7dbf b7bf 883f
000000c0: 386a a8bf c4b8 ef3f 1654 2a3f a656 af3d
000000d0: e49a b23e b749 d6bf f52e 8ebe f57d 4cbf
000000e0: 64da 65bf b166 a03c eeb9 36bf 83c9 153f
000000f0: 45cb 4fbf 509c 8d3f 4ed8 873f

weight f4 [40]
1.0703588 1.256652 1.1134773 0.8867383 1.1090966 0.8328819 0.78767085 0.88188607
0.92875826 0.8404647 1.0423192 0.95291615 0.90515894 0.9304238 0.81881547 0.8642639
0.9680962 1.2671387 1.0982704 0.85732937 0.82747895 0.9807779 0.9175443 0.997447
0.9218936 0.9259047 1.058704 1.0078858 0.9711969 1.1058176 1.0913808 0.97486806
0.9657986 0.9410809 0.92814755 0.9783544 0.9788953 0.9848332 0.85316086 0.9281129
00000000: 8401 893f f9d9 a03f 6d86 8e3f 4801 633f
00000010: e1f6 8d3f c037 553f cca4 493f 49c3 613f
00000020: 1ac3 6d3f b228 573f b76a 853f 50f2 733f
00000030: 7fb8 673f 4130 6e3f e49d 513f 6640 5d3f
00000040: 27d5 773f 9a31 a23f 2094 8c3f f079 5b3f
00000050: a9d5 533f 4314 7b3f 2fe4 6a3f b058 7f3f
00000060: 3801 6c3f 1708 6d3f 9d83 873f 6702 813f
00000070: 5ca0 783f 6e8b 8d3f 5eb2 8b3f f490 793f
00000080: 943e 773f aeea 703f 149b 6d3f 6f75 7a3f
00000090: e298 7a3f 071e 7c3f c068 5a3f cf98 6d3f

bias f4 [40]
0.0067586997 -0.005273415 0.0068280213 -0.0009766145 -0.0021903994 0.0005416895 -0.0025022868 -0.0012832455
-0.0011819116 -0.00064912916 -0.0012659939 0.0030309705 0.002525754 0.000755145 0.00046280527 -0.00055480056
-0.0024959026 -0.00044725236 -0.00010348022 0.0041858726 0.0011614594 0.0003430266 0.00053258357 -0.0016127626
0.0002403531 0.006837005 -0.0029860167 -0.0007723043 -0.0038645463 -0.0037700697 0.0014694511 -0.0013035054
0.003010263 0.0012110438 -0.00062972895 -0.00210608 -0.00049436424 -0.004362479 -0.001693525 0.00049388956
00000000: 1578 dd3b 9ccc acbb 98bd df3b bf01 80ba
00000010: ce8c 0fbb 2b00 0e3a 68fd 23bb 9332 a8ba
00000020: 5fea 9aba 522a 2aba b5ef a5ba 3fa3 463b
00000030: 1f87 253b ecf4 453a aca4 f239 0970 11ba
00000040: 4c92 23bb 327d eab9 8503 d9b8 a529 893b
00000050: 1c3c 983a 40d8 b339 149d 0b3a 5563 d3ba
00000060: 4b07 7c39 f408 e03b 0cb1 43bb 7774 4aba
00000070: 5444 7dbb 4613 77bb 999a c03a 62da aaba
00000080: d547 453b e3bb 9e3a 6514 25ba 2906 0abb
00000090: 3998 01ba 20f3 8ebb 45f9 ddba 5e78 013a

running_mean f4 [40]
0.5757015 8.316015 0.6837118 5.9593415 0.09082353 0.51798815 0.035836704 0.26047644
0.19321552 0.8370506 0.39762986 0.42490518 0.03455435 2014.4307 15.859128 0.024441883
-0.0593728 -0.725407 0.06446947 0.07094606 -0.044904158 -1.2883729 -0.16505793 -0.5184496
-0.3303719 0.026510302 -0.617134 0.5643284 0.727458 0.44357425 -0.49530345 -0.23348175
-0.09962155 -0.12094419 -0.15184256 -0.1786329 0.7323172 -0.19979618 0.6615258 0.17085807
00000000: 2c61 133f 660e 0541 bd07 2f3f edb2 be40
00000010: b001 ba3d df9a 043f 82c9 123d 2b5d 853e
00000020: 4ada 453e f348 563f 2496 cb3e 2c8d d93e
00000030: dd88 0d3d c8cd fb44 fdbe 7d41 583a c83c
00000040: e530 73bd 46b4 39bf 9208 843d 2b4c 913d
00000050: 6ced 37bd 67e9 a4bf f204 29be 1db9 04bf
00000060: 8126 a9be 222c d93c 7efc 1dbf d377 103f
00000070: b03a 3a3f 2a1c e33e 6a98 fdbe d715 6fbe
00000080: 6206 ccbd 96b1 f7bd 9e7c 1bbe 8beb 36be
00000090: 2479 3b3f 5f97 4cbe c159 293f 6bf5 2e3e

running_var f4 [40]
0.24590619 9.8164835 0.21822383 2.2043037 0.01776156 0.251808 0.0010754622 0.029385064
0.15640262 0.13738593 0.24116069 0.2447739 0.033040673 0.5492959 75.01577 0.48021537
0.5265347 0.105753794 0.3627347 0.5402498 0.45078626 1.519783 0.26679203 0.13644905
0.09638936 0.12060218 0.085098445 0.21133813 1.7529169 0.5529209 0.5380568 0.19007131
0.9857006 0.65440774 0.12448389 0.5027923 0.19254278 0.4380249 0.271897 0.9709505
00000000: d5ce 7b3e 5110 1d41 1176 5f3e 5013 0d40
00000010: b180 913c faec 803e 86f6 8c3a f2b8 f03c
00000020: 0228 203e e6ae 0c3e d4f2 763e 02a6 7a3e
00000030: a855 073d a89e 0c3f 1308 9642 cade f53e
00000040: faca 063f 7295 d83d 5db8 b93e d04d 0a3f
00000050: 75cd e63e 4088 c23f f798 883e 4db9 0b3e
00000060: c967 c53d 47fe f63d 1848 ae3d 0669 583e
00000070: 955f e03f 398c 0d3f 17be 093f 0ea2 423e
00000080: e056 7c3f 4487 273f 69f1 fe3d ffb6 003f
00000090: ef29 453e cd44 e03e 1536 8b3e 3690 783f

weight f4 [32, 40]
0.12466578 -0.027982866 -0.19534807 0.18231183 0.25760198 0.066464 0.23981434 0.0533426
0.26762664 0.15472092 -0.19743344 -0.17355596 -0.08588159 0.018990897 -0.05223082 -0.19383757
0.115524784 0.37524208 -0.21379712 0.14170319 0.18595083 -0.20237814 -0.03436551 0.045706667
-0.18880415 -0.18694429 0.1865199 -0.059099507 0.11759217 -0.1906016 -0.14141464 -0.16866566
0.06485765 -0.14676653 0.22848542 -0.2759468 0.18535738 -0.15176113 -0.09702898 0.20234148
0.12987484 -0.01228403 0.32296973 0.014449859 -0.13992752 0.065970935 -0.13868643 -0.16218814
-0.20611179 -0.095408365 -0.11315436 0.2717877 0.19596952 -0.25784063 -0.2781529 0.21626513
-0.104196735 -0.1464166 -0.20997357 -0.0326283 0.27225292 0.0071569714 0.02393302 0.15385136
-0.29028687 -0.08114969 -0.29671836 0.32971302 0.10697414 0.026992826 -0.08638666 0.16386849
-0.116511665 0.27607834 0.24361257 -0.2547339 -0.027916417 0.19394483 0.18283974 -0.24113552
-0.18250252 0.44521454 -0.2416658 -0.025534319 0.16248444 0.1112468 0.025436245 -0.036346156
0.07948444 -0.13619868 -0.13609643 -0.06442563 0.021792723 -0.17631368 -0.09825078 -0.08403216
0.1661237 -0.3196562 0.1691309 -0.16118713 0.060252044 -0.16993088 0.091759816 0.06766202
-0.0036668482 -0.08438733 0.27778786 0.18710294 0.20798323 0.004707409 -0.26626745 -0.1409478
-0.1512486 0.028959604 -0.09711572 0.09890346 -0.094506465 0.14090203 0.22625014 0.03237753
-0.28477955 -0.122415066 0.1323513 -0.08422119 -0.3324549 0.015098029 -0.15063952 -0.18647765
-0.1985606 0.052414287 0.008786913 0.25665307 -0.05813498 0.0116203865 0.019311352 -0.17929484
-0.1898992 -0.1416545 0.035165854 0.13841727 0.14447862 -0.07751812 -0.19527122 -0.22139509
-0.29928043 0.24871923 0.24495418 0.12199006 -0.055412192 0.19769447 -0.0032467572 0.033360608
0.1323273 -0.096170194 -0.071596354 -0.2281136 0.20313758 0.059306387 -0.16933276 -0.21411274
0.06258934 -0.23084776 0.18513514 0.09473384 0.00044295253 0.19821142 -0.13873272 -0.08195296
-0.1827373 0.0029131963 -0.098578386 0.05145898 -0.13107704 0.31255737 0.25070497 0.07963416
-0.10547627 0.04076804 -0.18205628 -0.100249946 -0.24619219 0.063450485 -0.15758991 -0.11520334
0.024065444 0.16077587 -0.14785391 0.057909746 0.19912064 -0.089256436 -0.1148756 0.29030192
-0.055918496 -0.18391144 0.2166062 0.16709523 0.08117402 0.08169536 0.20523803 0.25402308
0.010734957 0.12318059 0.040220555 0.09767569 -0.11450556 0.1511519 0.13710915 0.09925638
-0.178474 0.07401335 -0.31721938 0.11104643 -0.033075333 -0.21791197 -0.04091831 -0.050727963
-0.21131912 -0.074730225 0.21781129 -0.20651628 0.094349064 0.17617941 -0.07622494 -0.09706937
0.08779161 0.12271184 0.027954686 -0.21231109 -0.052435264 -0.15473238 -0.29049215 -0.19040537
-0.28074703 -0.18715382 -0.21314363 -0.109506354 -0.19199407 0.21466106 0.25517792 0.25407606
0.23951712 0.15621208 -0.12066156 -0.019361367 -0.18579592 0.1038843 0.061990928 -0.18991308
-0.050969116 -0.0866384 -0.11267458 0.020661887 0.097967476 0.056767832 -0.065532275 0.16222094
00000000: c650 ff3d 533c e5bc 5309 48be f4af 3a3e
00000010: 68e4 833e 471e 883d e491 753e c57d 5a3d
00000020: 5c06 893e 296f 1e3e fe2b 4abe a7b8 31be
00000030: b0e2 afbd cc92 9b3c fcef 55bd 5b7d 46be
00000040: 4298 ec3d bb1f c03e a2ed 5abe a41a 113e
00000050: e569 3e3e 373c 4fbe d9c2 0cbd ea36 3b3d
00000060: e055 41be 536e 3fbe 13ff 3e3e 5312 72bd
00000070: 2ad4 f03d 112d 43be 00cf 10be b1b6 2cbe
00000080: 16d4 843d f749 16be 15f8 693e e648 8dbe
00000090: 53ce 3d3e 4567 1bbe 21b7 c6bd 9b32 4f3e
000000a0: e9fd 043e f542 49bc 4a5c a53e 1abf 6c3c
000000b0: 2949 0fbe c51b 873d d103 0ebe a614 26be
000000c0: f80e 53be 7665 c3bd 79bd e7bd c227 8b3e
000000d0: 3cac 483e b003 84be 0f6a 8ebe 9b74 5d3e
000000e0: 1965 d5bd 3cee 15be 5003 57be 41a5 05bd
000000f0: bc64 8b3e 0785 ea3b 2e0f c43c 368b 1d3e
00000100: 7ba0 94be cf31 a6bd 78eb 97be 25d0 a83e
00000110: 4215 db3d 0f20 dd3c 7deb b0bd 24cd 273e
00000120: ab9d eebd 245a 8d3e 9375 793e 7b6c 82be
00000130: f8b0 e4bc 7999 463e 573a 3b3e 3bec 76be
00000140: f1e1 3abe 29f3 e33e 3d77 77be 592d d1bc
00000150: 5262 263e 5dd5 e33d ac5f d03c b5df 14bd
00000160: bdc8 a23d ab77 0bbe dd5c 0bbe 96f1 83bd
00000170: a786 b23c 938b 34be b437 c9bd 0e19 acbd
00000180: 551c 2a3e faa9 a3be a730 2d3e 3d0e 25be
00000190: d9ca 763d 5c02 2ebe 92ec bb3d 6392 8a3d
000001a0: 814f 70bb 44d3 acbd 363a 8e3e ea97 3f3e
000001b0: 8ef9 543e 9c40 9a3b 3554 88be 9f54 10be
000001c0: eae0 1abe b13c ed3c 9be4 c6bd e68d ca3d
000001d0: 9b8c c1bd 9f48 103e 1eae 673e 4d9e 043d
000001e0: a0ce 91be c0b4 fabd 1987 073e 297c acbd
000001f0: 8737 aabe b95d 773c 3f41 1abe fff3 3ebe
00000200: 7853 4bbe 5db0 563d fcf6 0f3c 0868 833e
00000210: f21e 6ebd 6f63 3e3c d732 9e3c 1199 37be
00000220: f074 42be e10d 11be 120a 103d 42bd 0d3e
00000230: 34f2 133e d2c1 9ebd 2ef5 47be 65b5 62be
00000240: 493b 99be 41b0 7e3e 45d5 7a3e edd5 f93d
00000250: e5f7 62bd 6b70 4a3e 8cc7 54bb 22a5 083d
00000260: cf80 073e e1f4 c4bd 1ca1 92bd 9d96 69be
00000270: 4c03 503e 41eb 723d 9165 2dbe 5f40 5bbe
00000280: d72e 803d 5b63 6cbe 1194 3d3e d103 c23d
00000290: 153c e839 eff7 4a3e f30f 0ebe f4d6 a7bd
000002a0: 7d1f 3bbe 53eb 3e3b 77e3 c9bd a7c6 523d
000002b0: 0f39 06be 8507 a03e 675c 803e 3c17 a33d
000002c0: f103 d8bd 63fc 263d f66c 3abe d84f cdbd
000002d0: ce19 7cbe 54f2 813d 405f 21be bbef ebbd
000002e0: e524 c53c 6ea2 243e 0467 17be c532 6d3d
000002f0: 48e6 4b3e 14cc b6bd e643 ebbd 74a2 943e
00000300: cb0a 65bd 4853 3cbe 04ce 5d3e 031b 2b3e
00000310: 913e a63d e64f a73d eb29 523e 500f 823e
00000320: ace1 2f3c 1b46 fc3d 4fbe 243d 310a c83d
00000330: e481 eabd 90c7 1a3e 5766 0c3e ee46 cb3d
00000340: e3c1 36be 5094 973d 946a a2be 506c e33d
00000350: 007a 07bd 5124 5fbe f599 27bd 20c8 4fbd
00000360: 0a64 58be 290c 99bd ec09 5f3e 0179 53be
00000370: 153a c13d 6068 343e d21b 9cbd 4ecc c6bd
00000380: 16cc b33d 5850 fb3d 3a01 e53c 1468 59be
00000390: 5cc6 56bd 2a72 1ebe 63bb 94be a0f9 42be
000003a0: 13be 8fbe 40a5 3fbe 5342 5abe de44 e0bd
000003b0: 189a 44be 1cd0 5b3e aea6 823e 4216 823e
000003c0: fa43 753e 0ff6 1f3e 681d f7bd bb9b 9ebc
000003d0: 4941 3ebe 4bc1 d43d 33ea 7d3d 9378 42be
000003e0: fec4 50bd 796f b1bd eec1 e6bd 1e43 a93c
000003f0: 2ca3 c83d 6385 683d c935 86bd 3f1d 263e

bias f4 [32]
-0.05900572 -0.006049418 0.0697366 -0.0139679145 -0.041972663 0.0052185734 -0.1088979 -0.1259986
-0.09393632 0.14788048 -0.103151165 0.13915879 -0.0084986165 0.13787824 -0.0532953 -0.10455838
0.06426916 0.11067253 0.12966238 0.15330663 -0.05145134 0.029548775 0.08895842 -0.038830705
0.006251638 0.0755981 0.08798747 -0.13527694 -0.13367409 0.119456865 -0.011857605 0.011932604
00000000: fbaf 71bd 323a c6bb 10d2 8e3d aed9 64bc
00000010: 87eb 2bbd 9100 ab3b dd05 dfbd c705 01be
00000020: af61 c0bd fb6d 173e eb40 d3bd a47f 0e3e
00000030: c83d 0bbc f42f 0d3e 2c4c 5abd b422 d6bd
00000040: 8d9f 833d 48a8 e23d 37c6 043e 6afc 1c3e
00000050: a4be 52bd 4610 f23c d52f b63d f20c 1fbd
00000060: 8ada cc3b 2dd3 9a3d c632 b43d 0a86 0abe
00000070: dce1 08be cda5 f43d 6646 42bc f880 433c

weight f4 [32]
0.90902483 1.0029736 1.1475075 0.9640128 0.9528286 0.96499723 0.93703455 0.9111846
0.95736134 1.0247754 1.0137091 0.9909925 0.8938621 1.0013922 0.98558474 1.0557513
0.99342763 1.0489601 0.9772585 0.8528349 1.1376219 0.9186527 0.98110265 0.9192827
0.9324274 1.110604 0.9922926 1.1315646 1.0156927 0.9813415 0.94752896 0.9246518
00000000: dab5 683f 7061 803f 87e1 923f 8bc9 763f
00000010: 93ec 733f 0f0a 773f 7fe1 6f3f 6543 693f
00000020: a215 753f d72b 833f 38c1 813f afb1 7d3f
00000030: 26d4 643f 9f2d 803f 484f 7c3f dc22 873f
00000040: 4651 7e3f 5344 863f 9d2d 7a3f 6353 5a3f
00000050: 989d 913f d32c 6b3f 8b29 7b3f 1c56 6b3f
00000060: 90b3 6e3f 4628 8e3f e306 7e3f 1cd7 903f
00000070: 3802 823f 3239 7b3f 4291 723f fbb5 6c3f

bias f4 [32]
-0.10868514 0.046323836 0.11952946 0.063274756 0.026729783 0.01727824 -0.004203948 0.018583966
-0.023482578 0.12539084 0.0761316 -0.033744827 -0.073243864 -0.0021661418 0.023650939 0.12878051
0.09836174 0.127335 0.055082962 -0.08381766 0.050571475 -0.014980369 0.076766446 -0.053916205
0.011984408 0.0853451 0.06600751 0.1677538 -0.003390435 0.03956058 -0.0349984 0.04325837
00000000: 5196 debd 10be 3d3d ddcb f43d 3296 813d
00000010: 6bf8 da3c 188b 8d3c 46c1 89bb 673d 983c
00000020: 895e c0bc 7566 003e e2ea 9b3d 0438 0abd
00000030: e100 96bd d4f5 0dbb 9dbf c13c 0adf 033e
00000040: e171 c93d 1b64 023e ac9e 613d 98a8 abbd
00000050: 0924 4f3d 3970 75bc ba37 9d3d 3dd7 5cbd
00000060: 405a 443c 69c9 ae3d f22e 873d a7c7 2b3e
00000070: 0f32 5ebb 460a 223d 7b5a 0fbd b02f 313d

running_mean f4 [32]
-0.061323147 -0.0023576007 0.05917211 -0.009920706 -0.03972962 0.0048885313 -0.1045401 -0.12573165
-0.0963937 0.14573537 -0.10464184 0.14027947 -0.007581194 0.13635102 -0.048280656 -0.099393025
0.064976886 0.112462796 0.13140422 0.15825725 -0.058915112 0.024898678 0.08940531 -0.035675913
0.005569701 0.07310459 0.09109529 -0.13812715 -0.13698652 0.1131699 -0.016870579 0.010699288
00000000: fb2d 7bbd fa81 1abb 745e 723d 758a 22bc
00000010: 87bb 22bd f92f a03b 1f19 d6bd ccbf 00be
00000020: 0f6a c5bd a73b 153e 764e d6bd 6ca5 0f3e
00000030: aa6b f8bb 9a9f 0b3e f0c1 45bd 928e cbbd
00000040: 9a12 853d e552 e63d d48e 063e 300e 223e
00000050: f950 71bd 50f8 cb3c 221a b73d e820 12bd
00000060: 0a82 b63b dcb7 953d 2b90 ba3d 3471 0dbe
00000070: 3246 0cbe 9fc5 e73d 2b34 8abc 114c 2f3c

running_var f4 [32]
1.7557162 1.542003 0.76434493 0.89525867 0.7953364 1.518659 0.7876209 1.1737907
0.8426252 0.8035499 1.1918508 1.9315399 1.2987009 1.1657168 0.5590758 1.3666856
0.70178235 1.4803611 0.7877326 2.119171 1.4082448 1.2691896 2.4554367 3.321793
2.041234 0.7058411 1.7555708 0.98871374 2.2847831 2.203162 0.9758559 1.4783393
00000000: 4fbb e03f 5b60 c53f 1cac 433f ac2f 653f
00000010: 2b9b 4b3f 6b63 c23f 86a1 493f c63e 963f
00000020: 49b6 573f 72b5 4d3f 918e 983f b33c f73f
00000030: d53b a63f 3536 953f 971f 0f3f 8eef ae3f
00000040: 02a8 333f 797c bd3f d8a8 493f 7fa0 0740
00000050: 5e41 b43f ce74 a23f e025 1d40 4298 5440
00000060: 94a3 0240 01b2 343f 8bb6 e03f 581c 7d3f
00000070: e339 1240 9b00 0d40 b1d1 793f 393a bd3f

weight f4 [32, 32]
-0.28993717 0.1565733 -0.021130757 0.23445907 -0.10798722 -0.16081296 0.10668083 -0.07537363
-0.05176428 0.23057805 -0.1292218 -0.054340996 -0.008867115 0.16990054 -0.051262077 -0.061282802
-0.23364614 0.040824186 0.07911958 0.037193757 -0.28884473 -0.15428393 -0.13518529 -0.027709689
-0.10641233 -0.3375259 0.016863832 0.1795481 -0.026191162 0.26508126 0.2690106 -0.12397967
0.051713 0.008650678 0.17819583 0.1228458 0.2700556 0.26433185 -0.028818859 0.0882468
-0.105232656 0.21656242 0.075256795 0.2818368 0.17436454 0.015094851 0.05523714 -0.1169242
0.27670813 -0.11030285 0.26204157 0.21324678 0.01322212 0.019185457 -0.2711709 -0.258456
-0.15367377 0.23846535 -0.16494569 -0.1575106 -0.034324344 0.18416432 -0.12878004 0.025108617
0.073493496 0.21543688 -0.019459425 0.12667981 0.22968704 0.015457688 0.21926405 0.21194941
0.0584834 -0.33064073 0.16780806 -0.13314816 0.063039705 0.052045427 -0.2740284 0.10944292
-0.17641382 -0.14365861 -0.06484758 -0.11888476 -0.04404125 -0.1428748 0.26267263 0.13837956
0.27376142 -0.20584841 -0.11509589 -0.037650835 -0.08275946 -0.29140988 -0.15283912 -0.037416335
0.050725073 -0.15853696 -0.066745795 -0.19498318 0.18699399 0.12210523 0.058233425 0.05908262
0.09809706 -0.0057633654 0.2619675 -0.38311183 -0.120793246 0.16128679 0.22877648 -0.20272927
0.10105051 0.17545778 -0.016078176 -0.14376776 -0.15123238 -0.3272328 -0.13729775 -0.21844567
-0.2888839 0.31489214 0.056527715 0.07075166 0.004708753 -0.17474358 -0.27777222 -0.14693953
0.34000906 0.19666152 -0.290536 -0.22383249 0.041023478 -0.23029545 0.15227917 -0.06366505
0.17003691 -0.030753672 -0.17005299 0.10283123 0.002913536 -0.20728743 -0.26085076 -0.02446416
-0.2423972 -0.24664472 0.17090869 -0.15067545 0.27202392 -0.12347819 -0.02273138 -0.15433568
0.13916568 -0.008664237 0.2067878 0.10516231 0.20974436 0.2717701 0.07661342 -0.17735335
0.22268082 -0.21814103 -0.11881322 0.18624024 -0.01865698 -0.15334953 0.056877557 0.22696394
0.01552245 -0.24366836 0.08841565 -0.082048975 -0.25708485 0.20347759 0.20748618 -0.19270575
0.020753007 -0.22391354 0.031169478 -0.11911256 -0.25275046 -0.073760256 -0.011524399 0.096188135
-0.23795515 -0.27850515 0.13408405 -0.13622212 0.1358921 -0.14931 -0.061543312 -0.049830355
-0.035500657 0.08472772 -0.28181133 0.21477567 0.17043465 0.025520597 0.28990772 0.033784736
-0.33420917 -0.11138475 0.09862927 -0.05221028 -0.027826298 -0.29800493 0.027292507 -0.065439425
-0.17817028 -0.23240194 -0.27283287 0.13809995 0.006332111 0.2588281 -0.18414843 0.105724014
-0.08807772 -0.27051285 0.24300507 -0.13582428 -0.121212974 0.10562589 0.056640472 0.10543563
-0.13056882 0.1599697 0.038530193 0.20751244 0.23051427 -0.10202104 -0.14105614 0.20687081
-0.12643443 -0.10413336 0.25841746 0.12537032 0.29352117 -0.21552813 0.1466105 -0.17049254
0.2007603 0.0033974748 0.023065012 0.17756331 -0.31541365 0.20668627 0.11393016 -0.2970159
0.096774474 -0.013371707 -5.683034e-05 -0.18942788 -0.33330408 -0.09531222 -0.016842047 -0.090260245
00000000: a572 94be c054 203e 691a adbc 0a16 703e
00000010: 6728 ddbd 27ac 24be 7b7b da3d 7d5d 9abd
00000020: c806 54bd a71c 6c3e b852 04be aa94 5ebd
00000030: 6047 11bc 68fa 2d3e 2ff8 51bd ad03 7bbd
00000040: ef40 6fbe 4337 273d 7209 a23d 7b58 183d
00000050: 75e3 93be 9bfc 1dbe 036e 0abe 6eff e2bc
00000060: b5ee d9bd 32d0 acbe 0526 8a3c 75db 373e
00000070: d98e d6bc bbb8 873e c2bb 893e 0ee9 fdbd
00000080: 03d1 533d 93bb 0d3c f878 363e 9496 fb3d
00000090: ba44 8a3e 8156 873e 8715 ecbc bdba b43d
000000a0: 3884 d7bd 8ac2 5d3e 3c20 9a3d ea4c 903e
000000b0: 9e8c 323e 6550 773c 5740 623d f475 efbd
000000c0: b0ac 8d3e 76e6 e1bd 502a 863e 5d5d 5a3e
000000d0: 97a1 583c d22a 9d3c ead6 8abe 5854 84be
000000e0: a85c 1dbe 4330 743e 86e7 28be 754a 21be
000000f0: af97 0cbd 9295 3c3e eade 03be 96b0 cd3c
00000100: c283 963d 7c9b 5c3e 5f69 9fbc 5ab8 013e
00000110: 1433 6b3e 3e42 7d3c c186 603e 4409 593e
00000120: 4a8c 6f3d be49 a9be e0d5 2b3e fe57 08be
00000130: f61a 813d 962d 553d 734d 8cbe 9c23 e03d
00000140: d3a5 34be 3e1b 13be cfce 84bd da79 f3bd
00000150: 9964 34bd c64d 12be 077d 863e 5fb3 0d3e
00000160: 752a 8c3e edc9 52be 65b7 ebbd c337 1abd
00000170: cb7d a9bd ad33 95be dc81 1cbe df41 19bd
00000180: 18c5 4f3d 8357 22be 05b2 88bd aca9 47be
00000190: 5a7b 3f3e 4f12 fa3d 2c86 6e3d 9e00 723d
000001a0: 1de7 c83d 9dda bcbb 9b20 863e 3c27 c4be
000001b0: 7362 f7bd 5d28 253e 6244 6a3e 4398 4fbe
000001c0: 92f3 ce3d 34ab 333e 61b6 83bc db37 13be
000001d0: a9dc 1abe 0f8b a7be c897 0cbe 39b0 5fbe
000001e0: 97e8 93be 8b39 a13e 9b89 673d 3fe6 903d
000001f0: e24b 9a3b fbef 32be 2938 8ebe 5177 16be
00000200: ab15 ae3e a361 493e 22c1 94be 5834 65be
00000210: 3c08 283d 92d2 6bbe 12ef 1b3e d262 82bd
00000220: 281e 2e3e 20ef fbbc 5f22 2ebe 2e99 d23d
00000230: 06f1 3e3b 2843 54be 3b8e 85be 1069 c8bc
00000240: f936 78be 6f90 7cbe b002 2f3e aa4a 1abe
00000250: b846 8b3e 22e2 fcbd 2937 babc 2c0a 1ebe
00000260: 7381 0e3e 72f4 0dbc 2ec0 533e 565f d73d
00000270: 3ac7 563e 7325 8b3e 7fe7 9c3d 1e9c 35be
00000280: 7106 643e 5d60 5fbe 5854 f3bd c3b5 3e3e
00000290: 86d6 98bc a907 1dbe 71f8 683d 3c69 683e
000002a0: e051 7e3c 3384 79be 4413 b53d 4b09 a8bd
000002b0: a0a0 83be 6e5c 503e 4277 543e a854 45be
000002c0: 3602 aa3c 9749 65be 2257 ff3c 49f1 f3bd
000002d0: 8268 81be 9e0f 97bd d5d0 3cbc 49fe c43d
000002e0: 84aa 73be 3a98 8ebe 544d 093e d07d 0bbe
000002f0: 4c27 0b3e b8e4 18be d714 7cbd ea1a 4cbd
00000300: 2369 11bd ba85 ad3d 9349 90be 27ee 5b3e
00000310: 6c86 2e3e 9210 d13c c96e 943e dd61 0a3d
00000320: 771d abbe b01d e4bd 25fe c93d 72da 55bd
00000330: faf3 e3bc 1a94 98be 8994 df3c 1b05 86bd
00000340: 4572 36be c6fa 6dbe c0b0 8bbe 136a 0d3e
00000350: 997d cf3b 1e85 843e 6891 3cbe d585 d83d
00000360: 1762 b4bd a980 8abe 52d6 783e 8515 0bbe
00000370: 823e f8bd 6352 d83d d7ff 673d a3ee d73d
00000380: d5b3 05be 19cf 233e d6d1 1d3d 247e 543e
00000390: ef0b 6c3e 68f0 d0bd 0571 10be f1d5 533e
000003a0: 0778 01be df43 d5bd 4b4f 843e 1461 003e
000003b0: 6848 963e 68b3 5cbe 1021 163e 9995 2ebe
000003c0: 1c94 4d3e 2ba8 5e3b d6f2 bc3c 28d3 353e
000003d0: e67d a1be 91a5 533e 3754 e93d 7812 98be
000003e0: b231 c63d 0115 5bbc 1d5d 6eb8 62f9 41be
000003f0: d5a6 aabe 0e33 c3bd 55f8 89bc 5dda b8bd

bias f4 [32]
-0.1278879 -0.0014949195 0.14501125 0.060856324 -0.16562402 0.05303962 0.072487004 -0.17224604
0.045691557 0.12030263 -0.12147669 -0.15587856 -0.09003808 0.028792659 0.053357743 -0.009622526
0.062365387 -0.106064364 -0.06542388 -0.15917005 0.17555535 -0.07045259 -0.0063132197 0.167884
-0.05382367 0.053976886 -0.09332122 0.008676623 0.00029802212 -0.09663658 -0.1560337 -0.15182303
00000000: 0cf5 02be 2df1 c3ba d47d 143e 7b44 793d
00000010: 5899 29be 1340 593d 1174 943d 4461 30be
00000020: 1227 3b3d 3a61 f63d c5c8 f8bd a19e 1fbe
00000030: e365 b8bd 95de eb3c a68d 5a3d cda7 1dbc
00000040: d972 7f3d 4638 d9bd f5fc 85bd 79fd 22be
00000050: c8c4 333e 7349 90bd 20df cebb c9e9 2b3e
00000060: 3576 5cbd de16 5d3d 321f bfbd 6528 0e3c
00000070: da3f 9c39 66e9 c5bd 4cc7 1fbe 7f77 1bbe

weight f4 [32]
1.238632 1.1580019 1.1960273 1.2846274 1.1734561 1.2131908 1.1433758 1.2103555
1.255607 1.1585287 1.1773816 1.1622827 1.0662721 1.2148114 1.0939994 0.9995189
1.230852 1.1630164 1.0810876 1.0996385 1.188512 1.2308547 1.0713247 1.259522
0.9779835 1.0447487 1.0013024 1.1650517 1.2348592 1.2597328 1.2538825 1.0433288
00000000: 7e8b 9e3f 6839 943f 6c17 993f ac6e a43f
00000010: cf33 963f d649 9b3f 235a 923f eeec 9a3f
00000020: bbb7 a03f ab4a 943f 71b4 963f aec5 943f
00000030: 9b7b 883f f17e 9b3f 2c08 8c3f 78e0 7f3f
00000040: 8f8c 9d3f b9dd 943f 1461 8a3f f4c0 8c3f
00000050: 2921 983f a68c 9d3f 2b21 893f 0438 a13f
00000060: 205d 7a3f 53ba 853f ad2a 803f 6a20 953f
00000070: de0f 9e3f ed3e a13f 397f a03f cc8b 853f

bias f4 [32]
0.2430242 0.05722871 0.1640853 0.279654 0.12752755 0.032746315 0.14802304 0.21572438
0.22182252 0.14651415 0.23073626 0.13858765 -0.012819624 0.30155975 0.10876883 -0.031941116
0.33635294 0.21911947 -0.01715225 -0.002510312 0.20854658 0.16949841 -0.0052938154 0.22538516
-0.036627878 0.061369203 0.02108277 0.093716614 0.21437906 0.10929302 0.14759445 0.030260535
00000000: 56db 783e a768 6a3d fa05 283e cf2e 8f3e
00000010: 9596 023e 0021 063d 5a93 173e dae6 5c3e
00000020: 7125 633e ce07 163e 2046 6c3e ece9 0d3e
00000030: 6609 52bc 0a66 9a3e 31c2 de3d b0d4 02bd
00000040: 7436 ac3e db60 603e e082 8cbc 0c84 24bb
00000050: 3c8d 553e fe90 2d3e be77 adbb 5ecb 663e
00000060: 1d07 16bd 465e 7b3d c6b5 ac3c 7fee bf3d
00000070: 2f86 5b3e 05d5 df3d 0023 173e f1e4 f73c

running_mean f4 [32]
-0.36737818 0.5415903 0.024942137 -0.2687728 -0.27420717 -0.5335284 -0.32070532 -0.17880037
-0.16885686 0.075950205 0.5751186 -0.80405974 -0.32410768 -0.07362708 -0.053620648 -0.09949265
-0.024415487 0.21632844 -0.5883672 -0.31857112 -0.18518747 -0.2711666 -0.003165099 -0.036125116
-0.29611737 -0.19392267 0.17331424 0.00027082744 0.027304182 0.27293465 0.2679464 0.05885102
00000000: fe18 bcbe a9a5 0a3f 7453 cc3c 979c 89be
00000010: e264 8cbe 5195 08bf 7d33 a4be 7217 37be
00000020: d0e8 2cbe c88b 9b3d f93a 133f dcd6 4dbf
00000030: 71f1 a5be cbc9 96bd 53a1 5bbd cdc2 cbbd
00000040: fd02 c8bc 3485 5d3e 3c9f 16bf c11b a3be
00000050: c9a1 3dbe 59d6 8abe 8d6d 4fbb eef7 13bd
00000060: b29c 97be aa93 46be 4a79 313e d8fd 8d39
00000070: 05ad df3c 17be 8b3e 4530 893e c40d 713d

running_var f4 [32]
0.22336492 0.44343677 0.52151895 0.39503348 0.9304686 0.47214675 0.508535 0.42711425
0.6539585 0.35054713 0.52892387 0.3400588 0.45983633 0.80897504 0.6035686 0.41613662
0.6605774 0.4035414 0.37073413 0.52510196 0.37329793 0.22731684 0.31032205 0.35769528
0.35213694 1.1008575 0.37258312 0.77981883 0.36883855 0.3902419 0.48205665 0.34731758
00000000: c6b9 643e 250a e33e 4482 053f d441 ca3e
00000010: 3133 6e3f 38bd f13e 5a2f 023f b8ae da3e
00000020: d369 273f ea7a b33e 8e67 073f 301c ae3e
00000030: ab6f eb3e fd18 4f3f 7983 1a3f dc0f d53e
00000040: 9a1b 293f fa9c ce3e ddd0 bd3e 156d 063f
00000050: e820 bf3e bfc5 683e 88e2 9e3e d623 b73e
00000060: 4b4b b43e e6e8 8c3f 37c3 be3e 35a2 473f
00000070: 68d8 bc3e c9cd c73e 21d0 f63e 9cd3 b13e

weight f4 [5, 32]
0.3161101 -0.15980917 0.07107629 0.1387426 0.024431977 0.34759697 0.03405613 0.2495947
-0.14132465 0.035924368 0.11361578 0.30154324 -0.103026666 0.12994893 -0.13985954 -0.12020459
0.021682624 0.02073904 -0.08421258 -0.21629778 0.06624977 0.16811596 -0.087176144 0.15986235
-0.10150617 -0.078166805 0.050985146 -0.18774267 0.1633192 -0.27115247 0.3615008 -0.11986875
-0.056149695 0.11889267 -0.29992598 -0.12602022 0.11696935 0.063891225 -0.26661628 -0.11281291
0.12967892 -0.12213366 0.03045985 -0.1700019 0.10638067 -0.01163543 -0.083775945 0.10194192
-0.007958864 -0.104557395 0.13222918 0.051802013 -0.15288988 -0.2058486 0.11596178 -0.24810097
-0.1267201 -0.18960024 -0.17867583 0.0562342 -0.13927673 0.08158386 -0.29349402 0.118008405
0.12563284 -0.06261624 0.22951205 0.1312526 -0.15313928 -0.12852529 -0.12905648 -0.017182766
0.08640255 -0.24835081 0.2622149 -0.11805807 -0.22184093 0.034212384 0.0586936 0.22305423
0.042691812 0.018138785 -0.3104769 -0.16550119 0.12762672 -0.21962486 -0.083630666 0.0053137857
-0.24254541 0.04824896 0.064150885 0.09197035 0.02405038 -0.20981246 -0.00083920045 0.13585733
0.09343991 0.21258248 -0.09884121 0.16030061 0.29779506 -0.07956147 0.15631346 0.15226273
0.11548285 0.21287505 0.05984639 -0.16567011 0.10264679 -0.012511237 0.21739347 -0.0132957855
-0.03072894 0.16883804 0.10041298 0.062326267 -0.027586473 0.14022999 0.23092711 0.10220161
0.057792995 -0.021838611 0.0011277656 0.015931219 0.31864047 0.018043878 -0.04964219 0.021678755
-0.3803962 -0.06120721 -0.24322228 -0.41404873 -0.2298505 -0.037023354 -0.2600002 -0.43724078
-0.39136666 -0.24432802 -0.23859678 -0.2032578 -0.13662888 -0.4160252 -0.15307432 -0.17338814
-0.4483617 -0.26308757 -0.06930184 -0.16223757 -0.29908514 -0.11346151 -0.020276295 -0.28741467
-0.035016526 -0.29726288 -0.084527306 -0.37318572 -0.39507076 -0.34736803 -0.11609435 -0.19837199
00000000: 2fd9 a13e 04a5 23be 7290 913d 8a12 0e3e
00000010: 9225 c83c 3bf8 b13e 717e 0b3d c195 7f3e
00000020: 69b7 10be 6e25 133d 64af e83d e063 9a3e
00000030: a5ff d2bd 5511 053e 5737 0fbe d32d f6bd
00000040: c29f b13c ebe4 a93c a577 acbd 2a7d 5dbe
00000050: f6ad 873d 9726 2c3e 6889 b2bd f5b2 233e
00000060: 78e2 cfbd eb15 a0bd cdd5 503d 9d3f 40be
00000070: 263d 273e 7fd4 8abe a216 b93e bf7d f5bd
00000080: 39fd 65bd 007e f33d e68f 99be 720b 01be
00000090: a08d ef3d 67d9 823d ee81 88be 740a e7bd
000000a0: 8dca 043e 3621 fabd ef86 f93c fa14 2ebe
000000b0: 1cde d93d 88a2 3ebc b992 abbd edc6 d03d
000000c0: e565 02bc 3022 d6bd 1667 073e 592e 543d
000000d0: 2a8f 1cbe fac9 52be 5f7d ed3d 2e0e 7ebe
000000e0: eac2 01be 9126 42be ccf6 36be d555 663d
000000f0: 8f9e 0ebe 7015 a73d d944 96be 64ae f13d
00000100: e5a5 003e f13c 80bd 3505 6b3e 1567 063e
00000110: 8bd0 1cbe 229c 03be 6227 04be dfc2 8cbc
00000120: d2f3 b03d ad4f 7ebe 0841 863e 6ec8 f1bd
00000130: 452a 63be 4922 0c3d b368 703d 5468 643e
00000140: 9cdd 2e3d ca97 943c d4f6 9ebe 2579 29be
00000150: 94b0 023e 57e5 60be 8e46 abbd 441f ae3b
00000160: d35d 78be b4a0 453d 8a61 833d f35a bc3d
00000170: 4d05 c53c 14d9 56be cafd 5bba 2f1e 0b3e
00000180: 6c5d bf3d 39af 593e 436d cabd d825 243e
00000190: 9878 983e 20f1 a2bd a310 203e c3ea 1b3e
000001a0: 4682 ec3d ebfb 593e 7d21 753d 6da5 29be
000001b0: 7b38 d23d eefb 4cbc 659c 5e3e 91d6 59bc
000001c0: 42bb fbbc e1e3 2c3e 52a5 cd3d d449 7f3d
000001d0: 07fd e1bc 7398 0f3e 2878 6c3e 144f d13d
000001e0: 59b8 6c3d e3e6 b2bc 89d1 933a 3082 823c
000001f0: d824 a33e c1d0 933c 9c55 4bbd a597 b13c
00000200: 4ac3 c2be 69b4 7abd 430f 79be 32fe d3be
00000210: ee5d 6bbe cda5 17bd bf1e 85be 06de dfbe
00000220: 3661 c8be 2031 7abe b752 74be d022 50be
00000230: 71e8 0bbe 4101 d5be 84bf 1cbe a98c 31be
00000240: aa8f e5be 6ab3 86be 20ee 8dbd 9b21 26be
00000250: b021 99be 825e e8bd 791a a6bc 0428 93be
00000260: 7d6d 0fbd d732 98be a71c adbd 3312 bfbe
00000270: b746 cabe 39da b1be e0c2 edbd 0722 4bbe

bias f4 [5]
0.26183876 0.07391781 0.13145667 -0.014442141 -0.2802131
00000000: bb0f 863e 3962 973d 949c 063e bb9e 6cbc
00000010: 1778 8fbe
