models/mlpnet_70.pth (torch, 21725 bytes, 21 tensors)

weight f4 [3, 5]
0	0xbee21032	-0.4415298
1	0x3e01562c	0.12630528
2	0xbf4fd1c5	-0.8117946
3	0xbf1ad586	-0.6048206
4	0xbe603cc3	-0.21898179
5	0xc01fd073	-2.4970977
6	0xbe5d98e4	-0.21640354
7	0xbebe57b9	-0.37176302
8	0x3d2e7aab	0.042597454
9	0x3eae82b3	0.3408409
10	0x3fd347b0	1.6506252
11	0xc00dda85	-2.2164624
12	0x3f4da0b9	0.8032337
13	0xbf00c9a7	-0.503077
14	0xbf07e370	-0.5308142

weight f4 [3, 5]
0	0xbf60284c	-0.8756149
1	0x3f4b1059	0.7932182
2	0x3fb52c49	1.415414
3	0x3f6cf01d	0.92553884
4	0xbd8b498f	-0.068011396
5	0xbe5aec53	-0.21379213
6	0xbe2dd5aa	-0.16976038
7	0xbfb7de06	-1.4364631
8	0xbf09284d	-0.5357712
9	0xbfe3a1db	-1.7783769
10	0xbee7c6ee	-0.4526896
11	0x3fd1d08c	1.6391768
12	0x4036b214	2.854619
13	0xbf847f57	-1.0351361
14	0xbd29a8de	-0.04142081

weight f4 [7, 9]
0	0x3da1aa07	0.07893758
1	0xbfac1587	-1.344407
2	0xbeaa079c	-0.3320893
3	0xbef36970	-0.4754138
4	0x3d2f5bf9	0.04281232
5	0x3f3a5f6d	0.7280186
6	0xbef9ef53	-0.48815402
7	0x3c800f01	0.015632154
8	0xbf80578e	-1.002672
9	0x3f56f8cb	0.8397338
10	0xbeae9188	-0.34095407
11	0xbed6e4d2	-0.4197145
12	0xbee3e57d	-0.44511023
13	0xbe7ed028	-0.24884093
14	0x3ec6929c	0.3878373
15	0x3f8a3d8c	1.0800033
16	0xbf487f18	-0.7831893
17	0x3f8a4307	1.0801705
18	0xbf38601c	-0.7202165
19	0x3fa12214	1.2588525
20	0x3f4907e4	0.78527665
21	0xbd877ff3	-0.06616201
22	0xbda29479	-0.07938475
23	0x3fa3ca37	1.2796086
24	0x3f217bf4	0.6307976
25	0x3f2c49fc	0.6730039
26	0xbf234cbf	-0.6378898
27	0x3e88e6bf	0.26738545
28	0xbeec0f51	-0.46105435
29	0xbfd9aef1	-1.7006513
30	0xbefc7784	-0.49309933
31	0x3fece794	1.8508172
32	0xbfc69182	-1.5513155
33	0x3eca50e2	0.39514834
34	0xbf12076c	-0.57042575
35	0x3fd9b90a	1.7009594
36	0x3f3fb3ac	0.7488353
37	0x3e931e1f	0.28733918
38	0x3efb8508	0.49124932
39	0x3e404607	0.18776713
40	0x3ebdce7a	0.37071592
41	0x3e1dc27a	0.15406218
42	0xbf610ff2	-0.87914956
43	0xbf0481f0	-0.5176077
44	0x3f7a6cad	0.97822076
45	0x3efa5537	0.4889314
46	0xbf8072c7	-1.0035027
47	0x3f65e1bd	0.89797574
48	0xbfaae91b	-1.3352388
49	0x3ff176ec	1.8864417
50	0x3f265e62	0.64987767
51	0x3e2a28ef	0.16617177
52	0x3eb991f8	0.36244178
53	0xbfd1f66a	-1.6403325
54	0xbe7dd343	-0.24787621
55	0xbf59cf63	-0.8508207
56	0xbf7afcf9	-0.98042256
57	0xbbf47f3f	-0.007461458
58	0xbf36d6f4	-0.7142174
59	0x3ef93647	0.48674223
60	0xbf579bb7	-0.84221977
61	0x3f89b3ce	1.0757997
62	0x3f85be12	1.044863

weight f4 [40]
0	0x3f975e57	1.1825665
1	0x3faf2ab5	1.3684908
2	0x3f922f53	1.1420692
3	0x3f7056c8	0.9388242
4	0x3f90ea5e	1.1321523
5	0x3f4644c2	0.77448666
6	0x3f1dd39a	0.61651003
7	0x3f42dd3e	0.7611884
8	0x3f3f8f38	0.7482791
9	0x3f495ae4	0.78654313
10	0x3f6f845a	0.9356133
11	0x3f73235f	0.94975847
12	0x3f496f97	0.786859
13	0x3f832e0f	1.0248431
14	0x3f334b01	0.7003632
15	0x3f86cb32	1.053076
16	0x3f82616e	1.0185983
17	0x3fb09820	1.3796425
18	0x3f96fe21	1.1796304
19	0x3f6a2304	0.9145968
20	0x3f6a2401	0.9146119
21	0x3f76dbb1	0.9642897
22	0x3f53d596	0.8274778
23	0x3f75ae3c	0.95968986
24	0x3f56e0e1	0.8393689
25	0x3f5b1bfe	0.8558959
26	0x3f830c92	1.0238211
27	0x3f80b2ef	1.0054606
28	0x3f71469f	0.94248384
29	0x3f8d15f3	1.1022323
30	0x3f8863a3	1.0655407
31	0x3f677543	0.904133
32	0x3f66c77c	0.9014814
33	0x3f5ad4de	0.8548106
34	0x3f5cbae2	0.8622266
35	0x3f750156	0.95705163
36	0x3f5ebf10	0.8701029
37	0x3f5f16de	0.8714427
38	0x3f48b9b3	0.78408355
39	0x3f52a110	0.8227701

bias f4 [40]
0	0xba21f74f	-0.00061785144
1	0xbc7306a8	-0.01483313
2	0x3c49a7a6	0.012308037
3	0xba1a3bc7	-0.00058835413
4	0x3c0f773e	0.008756457
5	0xba7375b7	-0.0009287255
6	0xbba0f9ae	-0.0049125766
7	0x3b0fbc44	0.0021932283
8	0xbc5a20f8	-0.013313524
9	0x3bb4c671	0.00551682
10	0x3a806f7d	0.0009798851
11	0xbaf0496d	-0.001833243
12	0x3c0cc4b0	0.008591816
13	0x3c82b030	0.015953153
14	0x3c14510e	0.009052528
15	0x3b126e0e	0.002234343
16	0xbc3de071	-0.0115891555
17	0xbcad9180	-0.021187544
18	0xb8e9b8d6	-0.00011144734
19	0x3a80c1ce	0.0009823383
20	0x3a5988a2	0.0008298253
21	0x3ae206cb	0.0017244456
22	0xbc2c5c6e	-0.010520084
23	0xbc5165a3	-0.01278058
24	0xbbd8df79	-0.006618437
25	0xbb56a0f4	-0.0032749744
26	0xbc8d735f	-0.017266927
27	0x3c291010	0.010318771
28	0xbc916df8	-0.017752632
29	0x3b3b938b	0.0028621878
30	0x3c8ccdf2	0.017188046
31	0x3a947c84	0.0011328612
32	0x3caa9349	0.020822184
33	0x3b801641	0.003908903
34	0xb99d3ac6	-0.00029989163
35	0xbc64b351	-0.013958768
36	0x3c4927a8	0.012277521
37	0xbae82715	-0.0017711843
38	0xbb4bef35	-0.003111792
39	0x3c99e70e	0.018786933

running_mean f4 [40]
0	0x3f1768c6	0.59144247
1	0x4103e27a	8.242792
2	0x3f3b1ede	0.73093975
3	0x40bea041	5.9570622
4	0x3d9e7c01	0.077384956
5	0x3f084215	0.53225833
6	0x3d1149ba	0.0354707
7	0x3e854286	0.26027316
8	0x3e4b49c4	0.19852358
9	0x3f55317d	0.8327864
10	0x3ec4c402	0.38430792
11	0x3eda0694	0.42583144
12	0x3ce54f76	0.027991991
13	0x44fbcc5c	2014.3862
14	0x4178c960	15.549164
15	0x3c2e3a4f	0.010634019
16	0xbd71ee5d	-0.05906521
17	0xbf33ccea	-0.7023455
18	0x3c7f24b5	0.0155727165
19	0x3ceec619	0.029147195
20	0xbd8a25ad	-0.06745467
21	0xbfb02c4e	-1.3763521
22	0xbe139a21	-0.14414264
23	0xbf061d7c	-0.5238874
24	0xbe8e5c34	-0.2780472
25	0x3d3ebcd9	0.046566818
26	0xbf2fdae7	-0.68693393
27	0x3f14aa3c	0.5807226
28	0x3f3d8ea5	0.74045783
29	0x3eedf0f4	0.46472895
30	0xbf0243e5	-0.5088485
31	0xbe7526bc	-0.23940557
32	0xbded09db	-0.115741454
33	0xbe202726	-0.15639934
34	0xbe2028a6	-0.15640506
35	0xbe275b4c	-0.1634342
36	0x3f364812	0.7120372
37	0xbe407112	-0.18793133
38	0x3f276b64	0.6539824
39	0x3e449f3d	0.1920137

running_var f4 [40]
0	0x3e790468	0.24318087
1	0x411729f2	9.447741
2	0x3e49f406	0.19721994
3	0x4015b0b0	2.3389091
4	0x3c8370a1	0.016044917
5	0x3e7f2c52	0.2491925
6	0x3a93c1ce	0.0011272968
7	0x3cf7c26b	0.030244073
8	0x3e23d604	0.15999609
9	0x3e0f1b12	0.1397517
10	0x3e7330b2	0.23749045
11	0x3e7b3a26	0.245339
12	0x3cdec41b	0.02719312
13	0x3f0e3b03	0.55558795
14	0x42973d94	75.62027
15	0x3efe0767	0.49615023
16	0x3f020dc1	0.50802237
17	0x3e0554c9	0.13020624
18	0x3ec1c367	0.37844393
19	0x3f0a77f4	0.54089284
20	0x3eeb602a	0.45971805
21	0x3fb6f69b	1.4294008
22	0x3e60c5ed	0.21950503
23	0x3e001c5c	0.12510818
24	0x3dd33a8e	0.10313903
25	0x3db8f97d	0.09031961
26	0x3daf71a0	0.08566594
27	0x3e694251	0.22779204
28	0x3fe098c4	1.754662
29	0x3f01426d	0.5049198
30	0x3f10f131	0.5661803
31	0x3e52fc51	0.20604064
32	0x3f833c6d	1.0252815
33	0x3f3d27bc	0.73888755
34	0x3df6943f	0.120399944
35	0x3f02607a	0.5092846
36	0x3e825590	0.25455904
37	0x3f009c4d	0.50238496
38	0x3e8c6db0	0.27427435
39	0x3f755d7c	0.9584577

weight f4 [32, 40]
0	0x3d9d1e74	0.07671824
1	0xbca01216	-0.019539874
2	0xbe130bbc	-0.14359945
3	0x3d819a3a	0.063282445
4	0x3e502a27	0.2032858
5	0x3dd5dae3	0.1044214
6	0x3e021540	0.12703419
7	0x3d9fc668	0.07801515
8	0x3e868b5e	0.26278204
9	0x3d75fbe9	0.060054693
10	0xbdb4b5d3	-0.08823743
11	0xbe5c59a4	-0.2151857
12	0x3c8a5a02	0.016888622
13	0xbdb9f878	-0.09080595
14	0x3dda28ae	0.1065229
15	0xbdfb17be	-0.12260388
16	0x3de168da	0.11006327
17	0x3f15b48a	0.58478606
18	0xbe4fd6d6	-0.20296797
19	0x3d63a7c3	0.055579912
20	0x3e9a2ec1	0.30113795
21	0xbe83b151	-0.2572122
22	0xbc66e3ba	-0.01409238
23	0x3d168584	0.036748424
24	0xbe114a87	-0.14188586
25	0xbe09187b	-0.13388245
26	0x3e13e94a	0.14444461
27	0xbd0f8915	-0.03504284
28	0x3e174278	0.1477145
29	0xbe0b736a	-0.13618246
30	0xbdd8e50d	-0.10590563
31	0xbdefef27	-0.117155366
32	0x3e08b9f1	0.13352181
33	0xbdf0cb61	-0.117575414
34	0x3e11ce8d	0.14238949
35	0xbe6b4d76	-0.22978768
36	0x3dd80bb4	0.10549107
37	0x3bd0635f	0.006359502
38	0xbe098b8f	-0.13432144
39	0x3e8a2607	0.26982138
40	0x3b852cb9	0.0040641692
41	0x3d4d997d	0.050195206
42	0x3eadd79d	0.33953562
43	0x3c01ee9f	0.007930427
44	0xbe1ea973	-0.15494327
45	0xbd75ac84	-0.059978977
46	0xbd24eb5d	-0.040263522
47	0xbe3c78ff	-0.18405531
48	0xbe34ca44	-0.17655283
49	0xbd19a0a8	-0.03750673
50	0xbc58487b	-0.013200874
51	0x3ea2f259	0.31825522
52	0x3e5ae539	0.21376504
53	0xbe905f8b	-0.28197894
54	0xbe9d8911	-0.30768636
55	0x3e591e1a	0.21202889
56	0xbe5bbd2c	-0.21458882
57	0xbd839829	-0.064255066
58	0xbce85603	-0.028361326
59	0xbdb772d6	-0.0895745
60	0x3e74f865	0.2392288
61	0x3c9073a9	0.017633276
62	0x3cce1e1b	0.02516084
63	0x3e1852b0	0.14875293
64	0xbe9e699a	-0.30939943
65	0xbdc7f3f7	-0.097633295
66	0xbeaccb0e	-0.33748668
67	0x3ebab091	0.36462834
68	0x3e170216	0.1474689
69	0x3d812d80	0.063075066
70	0xbd347cf7	-0.04406449
71	0x3e3e730c	0.18598574
72	0xbdbd64ee	-0.092477664
73	0x3e78724e	0.24262354
74	0x3e82ccb5	0.25546804
75	0xbea4f1e0	-0.32215786
76	0x3d356417	0.044284906
77	0x3e8129b0	0.25227118
78	0x3d88c07b	0.06677338
79	0xbe665702	-0.22494128
80	0xbdd34358	-0.10315579
81	0x3f01ebc5	0.5075038
82	0xbea0545f	-0.3131437
83	0x3d1f0217	0.038820352
84	0x3e7220e8	0.23645365
85	0x3d31aea9	0.04337946
86	0xbd5a3c18	-0.053279966
87	0xbcde07d7	-0.027103348
88	0xbd9ba69a	-0.07600136
89	0xbde5f715	-0.11228768
90	0xbcafb495	-0.021448413
91	0xbbf168a8	-0.0073672123
92	0xbd9f788d	-0.07786665
93	0xbe810d02	-0.25205237
94	0xbe0d4fff	-0.13800047
95	0xbd453454	-0.048145607
96	0x3e08acfc	0.13347238
97	0xbeb6a976	-0.35676163
98	0x3dde8358	0.108648956
99	0xbdacf1b7	-0.08444541
100	0x3c6d3068	0.014476873
101	0xbe22151a	-0.15828362
102	0x3def9b23	0.11699512
103	0x3ca3e50e	0.020006683
104	0xbc281c7e	-0.010260699
105	0xbdb3d5e0	-0.08781028
106	0x3e63eea3	0.22259001
107	0x3e4c0b08	0.19926083
108	0x3e6c0b0a	0.23051086
109	0x3d5c9dc0	0.05386138
110	0xbe684e9f	-0.22686242
111	0xbdb4b07e	-0.08822726
112	0xbe0c733d	-0.13715835
113	0x3d81eaf9	0.063436456
114	0xbdb6e171	-0.08929718
115	0x3dbc66e6	0.09199314
116	0xbd9b7726	-0.07591085
117	0x3e2572e7	0.16157113
118	0x3e586d48	0.21135437
119	0x3d135a0d	0.03597455
120	0xbed5c6d0	-0.41753244
121	0xbd217cb2	-0.03942556
122	0x3e67b259	0.22626628
123	0xbd4a5a10	-0.049402297
124	0xbedd5505	-0.43228927
125	0xbd858f4b	-0.065214716
126	0xbe2c7927	-0.16843091
127	0xbe0782b3	-0.13233452
128	0xbe1090ff	-0.14117812
129	0x3d1a232f	0.03763121
130	0xbcb2ddf4	-0.021834351
131	0x3e20b695	0.1569465
132	0xbd09f7aa	-0.033683456
133	0xbd3ce1a5	-0.04611363
134	0xbc2434a1	-0.010022313
135	0xbe0bc404	-0.13648993
136	0xbe11a26b	-0.14222114
137	0xbe315728	-0.17318404
138	0x3c857efd	0.016295904
139	0x3e17dc7b	0.148302
140	0x3d63f0d8	0.05564961
141	0xbdb94581	-0.0904646
142	0xbdf04515	-0.11731926
143	0xbe878d2e	-0.264749
144	0xbea466fc	-0.3210982
145	0x3e7a4136	0.24438938
146	0x3e86d56f	0.26334712
147	0x3d6b5fa1	0.057464246
148	0xbdd7e269	-0.10541231
149	0x3e44b73c	0.19210523
150	0xbd1abca2	-0.03777755
151	0x3d9c6e2f	0.07638203
152	0x3e11fa79	0.14255704
153	0xbdf57ca2	-0.119866624
154	0xbd6137e3	-0.05498494
155	0xbe4e7631	-0.20162274
156	0x3d95b562	0.07309987
157	0x3d964c06	0.07338719
158	0xbe47338c	-0.19453257
159	0xbdffe7be	-0.12495373
160	0x3e4d9154	0.2007497
161	0xbeafd08a	-0.3433879
162	0x3e291fec	0.16516083
163	0x3da67c7e	0.08129214
164	0x3c4f52fc	0.012654062
165	0x3e21fc0b	0.15818803
166	0xbda06f4c	-0.07833728
167	0xbd07852e	-0.033085994
168	0xbe8cc2b4	-0.27492297
169	0xbd979718	-0.07401866
170	0xbdfaecd8	-0.122522056
171	0x3e126934	0.14297944
172	0xbdda6be9	-0.106651135
173	0x3ea4f9b7	0.32221767
174	0x3dd2336a	0.10263713
175	0x3d538e83	0.05164958
176	0xbd921094	-0.07132068
177	0xbd0e4221	-0.034731034
178	0xbdf92a82	-0.12166311
179	0x3d68e0c2	0.05685497
180	0xbea4c427	-0.32180902
181	0x3cfbe799	0.030750083
182	0xbda750a9	-0.081696816
183	0xbe45dfe3	-0.19323687
184	0x3baa8e50	0.0052049533
185	0x3e2de936	0.16983494
186	0xbe25d864	-0.16195828
187	0x3c7cf663	0.015439603
188	0x3e2f1b1d	0.17100187
189	0xbd2ac479	-0.041691277
190	0xbdfef9af	-0.12449967
191	0x3e5513f6	0.20808396
192	0x3c8b981f	0.01704031
193	0xbde3ba94	-0.11119571
194	0x3e38ded1	0.18053748
195	0x3e7c8d0f	0.24663185
196	0x3d89fc86	0.06737618
197	0x3dc7887c	0.09742829
198	0x3e85908c	0.26086843
199	0x3e6b0a2c	0.22953099
200	0x3e64c3ca	0.22340313
201	0x3e2e8de2	0.17046311
202	0xbd6b9764	-0.057517424
203	0x3dbf0ad0	0.09328234
204	0xbc969836	-0.018383127
205	0x3e46632f	0.19373773
206	0x3e188d31	0.1489761
207	0x3de5004a	0.11181696
208	0xbdff09ac	-0.12453017
209	0xbbae3a13	-0.0053169816
210	0xbe922853	-0.2854639
211	0x3cc5d54f	0.024149565
212	0xbcaed98a	-0.021343965
213	0xbde8caea	-0.11366828
214	0x3cc9cb86	0.02463318
215	0x3e365f5a	0.17809811
216	0xbe6903b3	-0.22755317
217	0xbddec8bd	-0.108781315
218	0x3e4d49b8	0.20047653
219	0xbd8794b6	-0.06620161
220	0x3e5079a8	0.20358908
221	0x3e4b6ff6	0.19866928
222	0xbd06bb42	-0.032893427
223	0xbe36ffbf	-0.17870997
224	0x3bf3a6be	0.0074356487
225	0x3d950b1f	0.07277512
226	0x3d201fb0	0.03909272
227	0xbe82d36f	-0.25551936
228	0xbdb86f71	-0.09005631
229	0xbe0dd178	-0.13849437
230	0xbea329e1	-0.3186789
231	0xbe729880	-0.23690987
232	0xbe2c5f90	-0.16833329
233	0xbdd6e73b	-0.104933225
234	0xbe86b452	-0.26309448
235	0xbcd58481	-0.02606416
236	0xbe31fe67	-0.17382203
237	0x3ea742b0	0.32668066
238	0x3e736534	0.23769075
239	0x3e4ebc7c	0.20189089
240	0x3e850e82	0.2598763
241	0x3e14629f	0.14490746
242	0xbd8a6673	-0.06757822
243	0x3dbda09b	0.09259149
244	0xbe6e5cc6	-0.23277578
245	0x3e2bbb86	0.16770753
246	0x3c86e9cf	0.01646891
247	0xbe26d61a	-0.16292611
248	0xbc94fe9e	-0.018187817
249	0xbdd24a00	-0.10268021
250	0xbdffc35c	-0.12488434
251	0x3c89f1b8	0.016838893
252	0x3c97b6b8	0.018519744
253	0x3e66fc42	0.22557166
254	0xbd5bc024	-0.053650036
255	0x3e3fa13e	0.18713853

bias f4 [32]
0	0xbd831057	-0.06399601
1	0xbc6cf43e	-0.014462529
2	0x3d7dce37	0.06196424
3	0xbc54300e	-0.01295091
4	0xbcf7b57c	-0.030237906
5	0x3a00d516	0.0004914565
6	0xbdf68897	-0.12037771
7	0xbde9b1ca	-0.11410864
8	0xbdca1d78	-0.09868902
9	0x3e17f1e5	0.14838369
10	0xbdd887fd	-0.10572813
11	0x3e108de7	0.14116631
12	0xbc2e95ab	-0.010655801
13	0x3e148688	0.14504445
14	0xbd852e30	-0.0650295
15	0xbde58151	-0.11206306
16	0x3d718277	0.05896231
17	0x3dea6cc0	0.11446524
18	0x3e0d783f	0.13815401
19	0x3e1b3a64	0.15158993
20	0xbd5c343f	-0.053760763
21	0x3cc3c49c	0.023897462
22	0x3dad8515	0.08472649
23	0xbd2b0b21	-0.04175866
24	0x3b3512bc	0.0027629575
25	0x3d90edc6	0.07076602
26	0x3dc45781	0.095870025
27	0xbe14281f	-0.1446843
28	0xbe145f84	-0.14489561
29	0x3deac84d	0.114639856
30	0xbc13bf0b	-0.009017716
31	0x3c87d874	0.016582705

weight f4 [32]
0	0x3f626e8f	0.8844995
1	0x3f84e087	1.038102
2	0x3f8f6904	1.1203923
3	0x3f7fcc5f	0.9992122
4	0x3f71b175	0.944114
5	0x3f781655	0.96909076
6	0x3f6856dc	0.90757537
7	0x3f82f4b0	1.0230923
8	0x3f7c7659	0.98618084
9	0x3f828d79	1.0199424
10	0x3f6d0c62	0.9259702
11	0x3f777224	0.9665854
12	0x3f74e40b	0.95660466
13	0x3f858276	1.0430439
14	0x3f77175b	0.9652001
15	0x3f7cc174	0.98732686
16	0x3f71d2fb	0.94462556
17	0x3f66ff5c	0.902334
18	0x3f85a82c	1.0441947
19	0x3f5cefa3	0.86303157
20	0x3f9196dc	1.1374164
21	0x3f618839	0.88098484
22	0x3f7c3af4	0.98527455
23	0x3f6bca87	0.9210591
24	0x3f6f9482	0.9358598
25	0x3f88f429	1.0699512
26	0x3f72a7ad	0.947871
27	0x3f860578	1.0470419
28	0x3f80a1c8	1.0049372
29	0x3f929482	1.1451571
30	0x3f7f1a65	0.9964965
31	0x3f727c32	0.94720757

bias f4 [32]
0	0xbd9cb626	-0.076519296
1	0x3e3fa13d	0.18713851
2	0xbe4c1808	-0.19931042
3	0x3e7f0f30	0.24908137
4	0x3d3b8087	0.04577687
5	0xbd4c0af1	-0.049815122
6	0xbd18b8a9	-0.03728548
7	0xbe0b472f	-0.13601373
8	0xbe0bddb5	-0.13658793
9	0x3d75a831	0.059974853
10	0xbd340ae9	-0.043955717
11	0xbe8f1a33	-0.27949676
12	0xbe03cfb4	-0.12872201
13	0x3cced9ac	0.025250278
14	0x3e291125	0.16510446
15	0x3b481314	0.003052895
16	0x3e584205	0.21118934
17	0x3ea3c00f	0.31982467
18	0x3d98130f	0.0742551
19	0xbde83ac0	-0.11339331
20	0xbe491eee	-0.19640705
21	0xbd4a3984	-0.049371257
22	0x3c0eb8b4	0.008711029
23	0xbe1c2889	-0.15249838
24	0x3dbb9846	0.09159903
25	0xbddeac15	-0.10872666
26	0x3e1f0bbf	0.15531825
27	0x3e4434cd	0.19160767
28	0xbe475a03	-0.1946793
29	0x3d2f889a	0.042854883
30	0xbdee48f2	-0.11635007
31	0x3c88c5cd	0.016695881

running_mean f4 [32]
0	0xbd9b4d0f	-0.07583057
1	0xbbd0f6aa	-0.006377061
2	0x3d14e4d8	0.036351055
3	0x3ac68245	0.0015145025
4	0xbc4a6a6c	-0.0123544745
5	0xbbf35931	-0.007426404
6	0xbe02e800	-0.12783813
7	0xbdbe80d9	-0.093019195
8	0xbdcac4f0	-0.09900844
9	0x3e0e71db	0.1391062
10	0xbde0e27b	-0.10980698
11	0x3e17ac40	0.14811802
12	0x3c00715c	0.007839527
13	0x3e27f910	0.16403604
14	0xbd9c7424	-0.076393396
15	0xbdfd7b9f	-0.123770945
16	0x3d2e20f4	0.042511895
17	0x3de3a64f	0.11115705
18	0x3e1b7144	0.15179926
19	0x3e2d3c35	0.16917498
20	0xbdb53272	-0.08847512
21	0x3c723db3	0.014785218
22	0x3dc6a5ca	0.096995905
23	0xbcba2fe1	-0.022727909
24	0xbbd036c3	-0.0063541844
25	0x3d98dc3a	0.0746388
26	0x3dc73c97	0.097283535
27	0xbe2c762e	-0.16841957
28	0xbe1772f5	-0.14789946
29	0x3dc95f86	0.09832673
30	0xbcae8e69	-0.02130814
31	0x3cf9bcd6	0.030485552

running_var f4 [32]
0	0x3fc09d76	1.5048053
1	0x3fec198b	1.8445295
2	0x3f7c6fcb	0.9860808
3	0x3f8b2de2	1.0873377
4	0x3f40faa0	0.75382423
5	0x3fbed084	1.4907384
6	0x3f72058a	0.945397
7	0x3faab2f2	1.333586
8	0x3f454be3	0.7706892
9	0x3f5be252	0.8589221
10	0x3f4ab7dd	0.79186803
11	0x3fb78f96	1.4340694
12	0x3ff5b3e7	1.9195527
13	0x3fc70ffd	1.5551754
14	0x3f248f6c	0.64281344
15	0x3f9a3e36	1.2050235
16	0x3f3e8f0e	0.74437034
17	0x3f97cb6d	1.1858956
18	0x3f7dc604	0.9913027
19	0x400bfd26	2.187326
20	0x3fdac194	1.7090325
21	0x3f94fb7a	1.1639245
22	0x40124bda	2.2858796
23	0x3ff63553	1.9235023
24	0x3fc9749c	1.5738711
25	0x3f4d4048	0.8017621
26	0x3fcd4a38	1.6038275
27	0x3fb3b9a2	1.4041026
28	0x4014a9c1	2.322861
29	0x3fea0246	1.8281944
30	0x3f801de2	1.000912
31	0x3fcc015b	1.5937914

weight f4 [32, 32]
0	0xbdffa80e	-0.12483226
1	0x3e68e7d3	0.22744684
2	0x3dc8be75	0.09801952
3	0x3e354f34	0.17705995
4	0xbdb86ba3	-0.09004905
5	0xbe286bd5	-0.16447385
6	0x3e8ee733	0.27910766
7	0xbdb00d1d	-0.08596251
8	0xbdcee1dc	-0.10101673
9	0x3e519fd7	0.2047113
10	0xbe1cb848	-0.15304673
11	0x3df8c379	0.121466585
12	0xbd1ddb4b	-0.038539212
13	0x3e3c13c0	0.18366909
14	0x3d85e4b8	0.06537765
15	0xbc88d807	-0.016704572
16	0xbe8a1289	-0.26967266
17	0xbc81c732	-0.015842054
18	0x3d076437	0.033054557
19	0xbd1d6f7b	-0.038436394
20	0xbe6a936e	-0.22907802
21	0xbdc32a1f	-0.09529518
22	0xbe2f3aa9	-0.17112221
23	0xbdaf5ab6	-0.085622236
24	0xbdef1855	-0.11674563
25	0xbe8aa9d9	-0.27082708
26	0x3dde9a45	0.10869268
27	0x3e4a883e	0.19778535
28	0x3de66327	0.112493806
29	0x3e9c7261	0.30556014
30	0x3eac4bb9	0.33651522
31	0xbe1013f0	-0.14070106
32	0x3de61f8a	0.11236484
33	0xbd8b7bfe	-0.06810759
34	0x3ce635bd	0.028101796
35	0x3e58951a	0.21150628
36	0x3e942abc	0.28938854
37	0x3e45a9f6	0.19303116
38	0x3d89f5de	0.067363486
39	0x3cd89ff1	0.026443454
40	0xbd70204f	-0.058624562
41	0x3e4c07a5	0.19924791
42	0x3d86d3f5	0.06583396
43	0x3e4a7996	0.19772944
44	0x3e9cf698	0.30656886
45	0x3d515e70	0.051115453
46	0x3d348bec	0.044078752
47	0xbe3c45c1	-0.18385984
48	0x3e66d0e9	0.2254063
49	0xbe5aeda1	-0.2137971
50	0x3e89073e	0.26763338
51	0x3ddff846	0.10936026
52	0xbd22fdde	-0.039792888
53	0x3c976ee0	0.018485487
54	0xbedd2b5d	-0.43197146
55	0xbeb632b8	-0.3558557
56	0xbc42a0cc	-0.011879157
57	0x3e89d460	0.26919842
58	0xbdd980d9	-0.10620279
59	0xbe24b8c5	-0.16086109
60	0xbc8bccf9	-0.017065512
61	0x3de5ca7a	0.1122026
62	0xbdac5a99	-0.08415718
63	0xbc8b546a	-0.017008025
64	0x3d3ea25c	0.046541557
65	0x3e3eb18f	0.1862242
66	0x3d0a6e3a	0.033796526
67	0x3de79fcc	0.11309776
68	0x3e7ff465	0.24995573
69	0xbd812864	-0.06306532
70	0x3e2c8f67	0.16851579
71	0x3eb012d8	0.34389377
72	0x3d7448c9	0.059639726
73	0xbe807ab1	-0.25093606
74	0x3e2616d0	0.1621964
75	0xbe236318	-0.1595577
76	0xbcadd8ab	-0.02122148
77	0x3b61a666	0.0034431457
78	0xbebbf448	-0.3670981
79	0x3dbfbccc	0.09362182
80	0xbe18f52d	-0.14937277
81	0xbe093893	-0.13400488
82	0xbe43ed1b	-0.19133417
83	0xbe5d5a3e	-0.21616456
84	0x3d9e4aa9	0.07729084
85	0xbdcd3e33	-0.10021629
86	0x3e9f4a90	0.31111574
87	0x3df5aee4	0.11996248
88	0x3e5d4a08	0.21610272
89	0xbe178370	-0.14796233
90	0xbe03d682	-0.12874797
91	0x3d3f6c99	0.046734426
92	0xbe038c71	-0.12846543
93	0xbe74ef35	-0.23919375
94	0xbe36d30a	-0.17853943
95	0x3aa8331e	0.0012832617
96	0xbd5c004b	-0.053711217
97	0xbc7104dc	-0.014710631
98	0xbd94fd3e	-0.072748646
99	0xbe95d240	-0.2926197
100	0x3e848d19	0.258889
101	0x3e493f9c	0.19653171
102	0x3db70190	0.08935845
103	0x3e3780ab	0.17920177
104	0x3e3e80a6	0.18603763
105	0xbd125def	-0.035734113
106	0x3e782083	0.24231152
107	0xbe88e8f6	-0.26740235
108	0x3bfd2281	0.0077250605
109	0x3e5f1ec1	0.21789075
110	0x3e1d9fe7	0.15393029
111	0xbdbd599e	-0.09245609
112	0x3e1690fc	0.14703745
113	0x3e09f896	0.13473734
114	0xbd02cafd	-0.031931866
115	0xbe7ed072	-0.24884203
116	0xbe732d4f	-0.23747753
117	0xbe6c3874	-0.2306841
118	0xbe03b092	-0.12860325
119	0xbe77d545	-0.2420245
120	0xbe9d97b0	-0.3077979
121	0x3e98719f	0.29774186
122	0xbd95ded2	-0.0731789
123	0x3dea20f1	0.11432064
124	0x3d9fdf47	0.07806259
125	0xbe891611	-0.26774648
126	0xbe13c036	-0.14428791
127	0xbbfd0c26	-0.0077223955
128	0x3e95e9d9	0.29279974
129	0x3e872ba1	0.26400474
130	0xbe74fa24	-0.23923546
131	0xbe880d2f	-0.26572558
132	0x3dca33ab	0.09873136
133	0xbea053bc	-0.31313884
134	0x3d1fe8c1	0.03904033
135	0xbbea54f1	-0.007151239
136	0x3deeb34f	0.11655294
137	0xbbe6387b	-0.007025776
138	0x3d12929a	0.03578434
139	0x3d4cb9f8	0.04998204
140	0x3e50032a	0.20313707
141	0xbd83f4c9	-0.064431734
142	0xbe99ef7e	-0.3006553
143	0x3cba2d89	0.022726791
144	0xbc2325fd	-0.009957788
145	0xbca2d649	-0.01987757
146	0x3eaa03f1	0.33206132
147	0xbdbf5787	-0.093428664
148	0x3e5c2c4a	0.2150127
149	0xbd9dbb77	-0.07701772
150	0x3dfa3b51	0.12218345
151	0xbc82cee1	-0.015967788
152	0x3e638a8c	0.2222082
153	0xbd816463	-0.06317975
154	0x3e953dfc	0.29148853
155	0x3e47e851	0.19522215
156	0x3db79139	0.08963246
157	0x3ecc9be2	0.3996268
158	0x3d2e58ee	0.04256528
159	0xbd9b1636	-0.07572596
160	0x3e2ed326	0.17072734
161	0xbe733485	-0.23750503
162	0x3c2c2d1e	0.010508804
163	0x3e8a2583	0.26981744
164	0xbdc6d650	-0.097088456
165	0xbe2e3b6f	-0.1701486
166	0x3e5831d4	0.21112758
167	0x3e27383d	0.16330047
168	0x3d23c9a7	0.039987233
169	0xbe3f23e8	-0.18666041
170	0x3d4b836b	0.049685877
171	0xbd99ef2b	-0.07516321
172	0xbe865325	-0.2623531
173	0x3e999248	0.29994416
174	0x3e4b1182	0.19830897
175	0xbda5df32	-0.08099212
176	0xbdc670e1	-0.09689499
177	0xbe54537a	-0.20734969
178	0x3cc760a7	0.02433808
179	0xbc53f655	-0.012937148
180	0xbe85201c	-0.2600106
181	0xbd17625f	-0.03695905
182	0xbdcb04b0	-0.099130034
183	0x3d0cec91	0.034405295
184	0xbe719697	-0.23592602
185	0xbe44f6b4	-0.19234735
186	0x3e7131f4	0.23554212
187	0xbd8a630e	-0.067571744
188	0x3e807e07	0.2509615
189	0xbde26e90	-0.110562444
190	0xbd8cd8c3	-0.068772815
191	0xbdaa7662	-0.08323361
192	0xbcecf8b2	-0.02892718
193	0x3d8fadbb	0.07015558
194	0xbea862b4	-0.32887805
195	0x3de04690	0.10950959
196	0x3dc113f4	0.09427634
197	0x3d55a526	0.05215945
198	0x3eaf63a2	0.342557
199	0x3dad4529	0.08460457
200	0xbeb65759	-0.35613516
201	0x3de1c7e9	0.11024458
202	0x3e1875d7	0.14888702
203	0xbe19b758	-0.15011346
204	0xbd369998	-0.044580072
205	0xbebe86d6	-0.37212247
206	0xbc5f2a0b	-0.013620864
207	0x3e0a4a82	0.13504985
208	0xbd084edb	-0.033278327
209	0xbe3985f9	-0.18117513
210	0xbe0d2d27	-0.13786756
211	0x3e2ae673	0.16689472
212	0x3d6f1601	0.058370594
213	0x3eaefbbf	0.34176442
214	0xbe3f127d	-0.18659396
215	0x3dd3c664	0.103405744
216	0x3c3ddade	0.011587827
217	0xbe8980e1	-0.2685614
218	0x3e1ceb14	0.1532405
219	0xbdef3bf5	-0.11681358
220	0xbe02722e	-0.12738869
221	0x3e2ddbab	0.16978328
222	0x3d2473c5	0.04014947
223	0x3d5bf224	0.05369772
224	0xbe07116d	-0.13190241
225	0x3e69654e	0.22792551
226	0x3c2611ae	0.010136051
227	0x3e5f714f	0.21820568
228	0x3e650d58	0.22368371
229	0xbd334daf	-0.043775257
230	0xbe2ca0ed	-0.16858263
231	0x3e6a4fcb	0.22882001
232	0xbd9d6e3a	-0.0768704
233	0xbe201d6f	-0.15636228
234	0x3e80b558	0.25138354
235	0x3e2b3089	0.16717733
236	0x3ead5b8e	0.33858913
237	0xbebd2295	-0.36940446
238	0x3d96b766	0.07359199
239	0xbe06f410	-0.1317904
240	0x3e47d767	0.19515763
241	0x3dfe800f	0.12426769
242	0x3d30d9f8	0.04317662
243	0x3e5f373b	0.21798413
244	0xbe10df83	-0.14147763
245	0x3e701e50	0.23449063
246	0x3d6e8127	0.058228638
247	0xbebb4785	-0.36578003
248	0x3d8ef02b	0.06979402
249	0x3dc1f521	0.09470583
250	0x3ce50bde	0.02795976
251	0xbc437b0e	-0.011931194
252	0xbe5d5622	-0.21614888
253	0xbd9d5479	-0.076821275
254	0xbde891b8	-0.11355919
255	0x3c107529	0.008816996

bias f4 [32]
0	0xbe0c04da	-0.13673726
1	0xbca3147c	-0.019907229
2	0x3e28632e	0.16444084
3	0x3d8c0e9b	0.06838723
4	0xbe38b53d	-0.18037887
5	0x3d410e42	0.047132738
6	0x3da7c8bc	0.08192584
7	0xbe25cd96	-0.16191706
8	0x3d3f14f8	0.046650857
9	0x3dfba464	0.122872144
10	0xbde41463	-0.11136701
11	0xbe2cde7a	-0.16881743
12	0xbdc541fd	-0.09631727
13	0x3cea56fb	0.028605929
14	0x3d309d89	0.043118987
15	0xbd179478	-0.037006825
16	0x3d5be830	0.053688228
17	0xbde1b788	-0.11021334
18	0xbd8069d0	-0.06270182
19	0xbe2a31de	-0.16620585
20	0x3e3a949d	0.18220754
21	0xbd3d7698	-0.046255678
22	0xbcd72f9c	-0.02626782
23	0x3e36b80c	0.17843646
24	0xbd48c40d	-0.049015094
25	0x3d667ff3	0.056274366
26	0xbd8c6efd	-0.06857107
27	0x3ba7af2e	0.0051173186
28	0x3c040fb3	0.008060384
29	0xbdd0e3db	-0.1019971
30	0xbe3a0ae1	-0.18168212
31	0xbe11712f	-0.14203332

weight f4 [32]
0	0x3faad956	1.3347576
1	0x3f9cb307	1.2242135
2	0x3fa7af07	1.3100289
3	0x3fbcfa70	1.4763927
4	0x3fa34d96	1.2758052
5	0x3fc0053b	1.5001596
6	0x3f9edb51	1.241068
7	0x3fa6b2e9	1.3023349
8	0x3fbb659f	1.4640387
9	0x3fa3b154	1.2788491
10	0x3f999dd4	1.200129
11	0x3f9acc18	1.2093534
12	0x3f901780	1.1257172
13	0x3fa6ea6a	1.3040287
14	0x3f96efc0	1.1791916
15	0x3f9163f1	1.1358625
16	0x3fbd862c	1.4806571
17	0x3f986fe6	1.1909149
18	0x3fa189c2	1.2620165
19	0x3f95fe22	1.171818
20	0x3fa91a7b	1.3211206
21	0x3fbf622b	1.4951833
22	0x3f96279d	1.1730839
23	0x3fbaeecb	1.4604124
24	0x3f940156	1.1562908
25	0x3f965024	1.1743207
26	0x3fa6d3f4	1.3033433
27	0x3fb1f103	1.3901676
28	0x3fa364ed	1.2765175
29	0x3fbafbfd	1.4608151
30	0x3faf0ed7	1.3676404
31	0x3f9d7cf9	1.2303764

bias f4 [32]
0	0x3e7e2bed	0.24821444
1	0x3ddd037e	0.10791682
2	0x3e7788d8	0.24173295
3	0x3e77a66c	0.24184579
4	0xbe016a86	-0.12638292
5	0xbdd8a158	-0.10577649
6	0xbd79ae49	-0.060957227
7	0x3e4c1a12	0.1993182
8	0x3e931faa	0.28735095
9	0x3df12b6c	0.1177586
10	0x3e700ea1	0.2344308
11	0x3d9397e8	0.07206708
12	0xbdc7cac5	-0.09755472
13	0x3ec9aa93	0.3938795
14	0x3de5434b	0.11194476
15	0xbd481faf	-0.04885834
16	0x3ef51195	0.47864977
17	0x3e995747	0.299494
18	0xba8f31e6	-0.0010924905
19	0xbda4adfd	-0.08040998
20	0x3eae6d5a	0.34067804
21	0x3db85529	0.09000618
22	0xbdc1c7e0	-0.09461951
23	0x3e408adf	0.18802975
24	0xbaa687f4	-0.0012705312
25	0x3dcb5299	0.09927864
26	0x3e00396a	0.12521902
27	0x3bf39bb2	0.007434332
28	0x3e84d619	0.25944594
29	0xbdc13b21	-0.09435106
30	0x3e271a90	0.16318727
31	0x3c809250	0.015694767

running_mean f4 [32]
0	0x3d717377	0.058948006
1	0x3e9d2dc6	0.30698985
2	0x3cf83c28	0.030302122
3	0xbd5d6b9a	-0.054057695
4	0x3ecac781	0.39605334
5	0xbe5a2c33	-0.21305923
6	0x3d2c8c32	0.04212589
7	0x3e44916e	0.19196102
8	0xbec4b5f1	-0.3842006
9	0x3e568e4e	0.20952722
10	0x3f2c5554	0.673177
11	0xbf0c13d8	-0.5471778
12	0xbe0d6a80	-0.13810158
13	0xbd115f05	-0.03549101
14	0xbe452927	-0.1925398
15	0xbd225bb6	-0.039638244
16	0xbe8e4af7	-0.2779157
17	0x3e16a4f5	0.14711364
18	0xbeea24e1	-0.4573126
19	0xbec0df85	-0.37670532
20	0xbe612b8f	-0.21989273
21	0xbeac52b6	-0.33656853
22	0x3d78a742	0.060706384
23	0xbdf469fc	-0.119342774
24	0xbdd06454	-0.10175386
25	0xbe9b8b7b	-0.30379853
26	0x3de6ed30	0.11275709
27	0xbcb189a2	-0.021672074
28	0xbe316995	-0.17325433
29	0x3e93adca	0.28843528
30	0x3ed0fff7	0.40820286
31	0xbe3ff0ff	-0.18744276

running_var f4 [32]
0	0x3e1fda62	0.1561065
1	0x3ece41d0	0.40284586
2	0x3ef8c344	0.48586476
3	0x3ecef129	0.40418366
4	0x3ecb408a	0.39697677
5	0x3eaba8a6	0.33527106
6	0x3e9f048d	0.3105816
7	0x3e9d677c	0.30743015
8	0x3e80a4f9	0.25125864
9	0x3e665a6a	0.22495428
10	0x3ed5ec1f	0.4178171
11	0x3ea095f2	0.313644
12	0x3ecd7bca	0.40133506
13	0x3e538343	0.20655541
14	0x3f1d4f19	0.6144882
15	0x3e81c9f9	0.25349405
16	0x3ee65deb	0.4499353
17	0x3f14ac23	0.5807516
18	0x3e75cbb8	0.24003494
19	0x3e8f583d	0.27997008
20	0x3df9b7dc	0.121932715
21	0x3e2def95	0.16985925
22	0x3e1ac367	0.15113603
23	0x3ee93be9	0.4555352
24	0x3e2114fa	0.15730658
25	0x3f8ef6e6	1.1169097
26	0x3e2b789c	0.16745228
27	0x3f0048d7	0.50111145
28	0x3ef31f00	0.4748459
29	0x3ead5bff	0.3385925
30	0x3edd958c	0.43278158
31	0x3e843eca	0.25829154

weight f4 [5, 32]
0	0x3ec06268	0.37575078
1	0xbe61a594	-0.2203582
2	0x3d3bbc73	0.045834016
3	0x3e2ef5e7	0.17085992
4	0xbda1e7df	-0.07905554
5	0x3f0fcdf6	0.56173646
6	0x3a44d0b0	0.00075079035
7	0x3e9546bb	0.29155526
8	0xbe9aae86	-0.30211276
9	0x3da8ce52	0.082424775
10	0x3db0c3f1	0.08631123
11	0x3ea0347f	0.3129005
12	0xbe23bf9b	-0.1599106
13	0x3e35e4e2	0.17763093
14	0xbe92ebe8	-0.28695607
15	0xbe4d3256	-0.20038733
16	0x3de58912	0.11207785
17	0x3ca54f1f	0.02017933
18	0xbdd2443b	-0.1026692
19	0xbe9d5d87	-0.30735418
20	0x3e31c631	0.1736076
21	0x3e3a8a49	0.18216814
22	0xbe485860	-0.19564962
23	0x3e56575d	0.20931764
24	0xbe4bcc67	-0.19902192
25	0xbe0daebb	-0.13836186
26	0x3e07501e	0.13214156
27	0xbec1fd63	-0.3788863
28	0x3d9fa010	0.077942014
29	0xbebd70fd	-0.37000266
30	0x3ee7d452	0.45279175
31	0xbe8ed376	-0.27895707
32	0x3cf00760	0.029300392
33	0x3e1768e5	0.14786108
34	0xbedcd752	-0.43133026
35	0xbe62e64f	-0.22158168
36	0x3d1c0416	0.038089834
37	0x3e80c29e	0.2514848
38	0xbeb4528f	-0.35219237
39	0xbdbda2a4	-0.09259537
40	0x3e1fde57	0.1561216
41	0xbe64dc34	-0.22349626
42	0x3d0ecdc1	0.03486419
43	0xbcd0cbdd	-0.025487835
44	0x3e25ab9f	0.1617875
45	0xbca09322	-0.019601408
46	0xbda05c99	-0.078301616
47	0x3e2cd746	0.16878995
48	0x3dde7672	0.108624354
49	0xbe037bd1	-0.12840201
50	0x3e30561d	0.1722035
51	0x3d9be454	0.076119095
52	0xbe5c38ca	-0.21506038
53	0xbee3c954	-0.4448954
54	0x3de5d767	0.11222725
55	0xbee068a4	-0.43829834
56	0xbdd70b87	-0.105002455
57	0xbe9a5ff6	-0.30151337
58	0xbefdd65f	-0.49577615
59	0x3d9b7e77	0.07592481
60	0xbd9d18ad	-0.07670722
61	0x3e18745a	0.14888135
62	0xbea53bca	-0.32272178
63	0x3e30ffdc	0.17285103
64	0x3e198eb3	0.14995842
65	0xbdc6b9ac	-0.09703383
66	0x3e9a8091	0.30176213
67	0x3da13686	0.07871728
68	0xbdd39f25	-0.10333089
69	0xbee00484	-0.43753445
70	0xbde794a8	-0.11307651
71	0xbdb9f6a8	-0.09080249
72	0x3e327138	0.17426002
73	0xbea12833	-0.31475982
74	0x3e8f9ae5	0.28047863
75	0xbdacef88	-0.084441245
76	0xbe8005d1	-0.25004438
77	0x3d602de8	0.05473128
78	0x3e4eff30	0.20214534
79	0x3ea56673	0.32304725
80	0xbc042817	-0.008066199
81	0x3bb82d8b	0.0056206635
82	0xbefbd2ad	-0.4918417
83	0xbe28a290	-0.16468263
84	0x3e12eff3	0.14349346
85	0xbe92333d	-0.28554717
86	0xbde49dc5	-0.11162905
87	0xbcd99010	-0.026557952
88	0xbed4641c	-0.41482627
89	0x3d8daf3c	0.06918189
90	0x3dc3279a	0.09529038
91	0x3e12a958	0.14322412
92	0x3d1998d8	0.03749928
93	0xbeb5b1f3	-0.35487327
94	0x3cc06c4b	0.023489138
95	0x3e818df4	0.25303614
96	0xbd03df16	-0.032195173
97	0x3e81bd89	0.25339916
98	0xbdb9d155	-0.0907313
99	0x3e66412e	0.22485802
100	0x3ecd5064	0.40100396
101	0xbe86891a	-0.26276475
102	0x3e710ed6	0.23540816
103	0x3e2480cf	0.16064762
104	0x3e089bd6	0.13340697
105	0x3e8f4005	0.2797853
106	0x3d9d17ac	0.07670531
107	0xbe8d7172	-0.27625614
108	0x3dd025b7	0.101634435
109	0xbda9aedd	-0.08285306
110	0x3e6436a0	0.22286463
111	0xbdb65c1c	-0.08904287
112	0xbe0a7437	-0.13520895
113	0x3e4c6cf9	0.19963445
114	0x3e1f414b	0.15552251
115	0x3db8fbb8	0.090323865
116	0xbe00761e	-0.12545058
117	0x3e8fdbe6	0.28097457
118	0x3ea0692e	0.31330246
119	0x3e0c3727	0.13692914
120	0x3e4cb9b6	0.19992718
121	0x3da2c9fe	0.07948683
122	0xbcbe020e	-0.02319434
123	0x3d580e91	0.052748267
124	0x3ec2fa25	0.3808147
125	0x3d8361a0	0.06415105
126	0xbe230579	-0.15920056
127	0x3b35147a	0.0027630613
128	0xbf9d978e	-1.2311876
129	0xbebda111	-0.37036946
130	0xbf86b638	-1.0524359
131	0xbf88236d	-1.0635811
132	0xbef72914	-0.48273528
133	0xbe8eb7c0	-0.27874565
134	0xbf1076cf	-0.5643129
135	0xbf81f059	-1.0151473
136	0xbf83493c	-1.0256724
137	0xbf27c7ca	-0.6553923
138	0xbf823d90	-1.0175037
139	0xbf536289	-0.8257223
140	0xbf43f84a	-0.76550734
141	0xbfa16308	-1.2608347
142	0xbf0645a3	-0.5245001
143	0xbf198b8d	-0.5997856
144	0xbfec908a	-1.848161
145	0xbf94c271	-1.1621839
146	0xbf3b1352	-0.73076355
147	0xbf1267e2	-0.5718976
148	0xbf6e9e72	-0.9321052
149	0xbf1c73ae	-0.61114013
150	0xbe1cc7c6	-0.15310583
151	0xbf9155d7	-1.1354321
152	0xbe98847b	-0.29788575
153	0xbf897aab	-1.074056
154	0xbf1fbf4b	-0.62401265
155	0xbf5d0892	-0.863412
156	0xbf6e062e	-0.9297818
157	0xbf4a614b	-0.7905471
158	0xbf1e0485	-0.61725646
159	0xbf19839a	-0.59966433

bias f4 [5]
0	0x3e8df701	0.27727512
1	0x3e0fb1a4	0.14032608
2	0x3e1162f9	0.14197911
3	0xbd7894fe	-0.060688965
4	0xbf7180b3	-0.94337004
