models/mlpnet_40.pth (torch, 21725 bytes, 21 tensors)

weight f4 [3, 5]
0	0xbee299b4	-0.4425789
1	0x3d9a7ab1	0.07542933
2	0xbf506ca9	-0.814158
3	0xbf1f43a2	-0.62212574
4	0xbe731a09	-0.237404
5	0xc01fb984	-2.495698
6	0xbe298310	-0.16553903
7	0xbebcd3b8	-0.3688028
8	0x3c996a37	0.018727405
9	0x3eb6d200	0.35707092
10	0x3fd35f40	1.6513443
11	0xc0111b59	-2.2672942
12	0x3f4c7607	0.79867595
13	0xbef80e72	-0.4844852
14	0xbf02e616	-0.51132333

weight f4 [3, 5]
0	0xbf5d4f05	-0.864487
1	0x3f4b4416	0.79400766
2	0x3fb4e494	1.4132257
3	0x3f6a3d8f	0.9150018
4	0xbd60f7c4	-0.054923788
5	0xbe53788c	-0.20651454
6	0xbe2dc90f	-0.16971229
7	0xbfb7877a	-1.4338219
8	0xbf06cb0d	-0.5265358
9	0xbfdf9edb	-1.7470354
10	0xbeec3ad5	-0.46138635
11	0x3fd19e68	1.6376467
12	0x4036d252	2.856587
13	0xbf859ebc	-1.0439067
14	0xbd60daeb	-0.054896276

weight f4 [7, 9]
0	0x3daffc7a	0.08593078
1	0xbfb189b9	-1.3870155
2	0xbec1228f	-0.3772168
3	0xbeed2a28	-0.46321225
4	0x3dcbf73f	0.09959268
5	0x3f3d1b64	0.7386992
6	0xbee1d700	-0.44109344
7	0x3d559034	0.052139476
8	0xbf6d212a	-0.9262873
9	0x3f6df16f	0.92946523
10	0xbec14aab	-0.3775228
11	0xbee943ff	-0.4555969
12	0xbeede1eb	-0.46461424
13	0xbe3954d3	-0.18098764
14	0x3e8509c9	0.25984028
15	0x3f8edc0f	1.1160907
16	0xbf53c967	-0.8272919
17	0x3f806e2d	1.0033623
18	0xbf323c41	-0.6962319
19	0x3f9ca9bc	1.2239299
20	0x3f49da54	0.7884877
21	0xbd7f9ee5	-0.062407393
22	0xbdf7c81a	-0.12098713
23	0x3f9d8b32	1.2308104
24	0x3f1d33e1	0.61407286
25	0x3f273f4d	0.65330964
26	0xbf2b3915	-0.66883975
27	0x3e4f26b9	0.20229615
28	0xbec2da2f	-0.38057086
29	0xbfd447c3	-1.65844
30	0xbeef5084	-0.46741116
31	0x3fed9928	1.8562365
32	0xbfc97da5	-1.5741469
33	0x3ece0a03	0.40242013
34	0xbf0fe2ea	-0.5620562
35	0x3fda823f	1.7070998
36	0x3f3bc4a1	0.73346907
37	0x3e9967a6	0.2996189
38	0x3ee69301	0.4503403
39	0x3e589d8e	0.21153852
40	0x3ec2ce04	0.38047802
41	0x3e225891	0.15854098
42	0xbf637266	-0.88846433
43	0xbef4b6db	-0.47795758
44	0x3f7ca36a	0.9868685
45	0x3ef170bc	0.47156322
46	0xbf80c702	-1.0060732
47	0x3f7473bd	0.954891
48	0xbfaa94ba	-1.3326638
49	0x3feeb019	1.8647491
50	0x3f2c25ac	0.6724498
51	0x3e05394b	0.13010137
52	0x3eac0475	0.3359715
53	0xbfd553b6	-1.6666172
54	0xbe840180	-0.25782394
55	0xbf538b18	-0.82634115
56	0xbf74cbca	-0.9562346
57	0xbcd99e5b	-0.026564768
58	0xbf39d56f	-0.725913
59	0x3f0953f5	0.53643733
60	0xbf58a157	-0.84621185
61	0x3f8c1188	1.094285
62	0x3f88d4b4	1.0689912

weight f4 [40]
0	0x3f92773d	1.1442639
1	0x3faa86c2	1.3322375
2	0x3f943489	1.1578532
3	0x3f59ee1b	0.85128945
4	0x3f92075a	1.1408494
5	0x3f4c7674	0.79868245
6	0x3f30b241	0.69021994
7	0x3f48c3bb	0.7842366
8	0x3f4b3dc7	0.7939114
9	0x3f4c1030	0.797122
10	0x3f7972a9	0.9744058
11	0x3f753648	0.9578595
12	0x3f57f299	0.8435455
13	0x3f7a23ce	0.97710884
14	0x3f31a8e4	0.6939833
15	0x3f7a5aa2	0.97794545
16	0x3f812b2a	1.0091298
17	0x3fac0cbe	1.3441389
18	0x3f956fbc	1.1674724
19	0x3f614938	0.8800235
20	0x3f53e1ad	0.8276623
21	0x3f753b98	0.9579406
22	0x3f5bb00d	0.8581551
23	0x3f78120b	0.9690253
24	0x3f5f442a	0.87213385
25	0x3f60e09f	0.87842745
26	0x3f85b69a	1.044635
27	0x3f81d3e7	1.0142792
28	0x3f784565	0.9698089
29	0x3f8e94fc	1.1139216
30	0x3f895402	1.0728762
31	0x3f6ae786	0.91759527
32	0x3f71b562	0.94417393
33	0x3f5ff57c	0.87483954
34	0x3f67eca7	0.9059548
35	0x3f77786c	0.96668124
36	0x3f669a74	0.90079427
37	0x3f65941b	0.89679116
38	0x3f520ac2	0.82047665
39	0x3f593f3f	0.8486213

bias f4 [40]
0	0x3a1e9f0c	0.00060509215
1	0xbbd15831	-0.006388687
2	0x3c85fbb6	0.016355377
3	0x3b84de84	0.0040548462
4	0x3bcf065a	0.006317896
5	0x3a18044a	0.0005798979
6	0xbbb2e814	-0.005459795
7	0xba3df8fa	-0.0007246878
8	0xbbe91703	-0.007113339
9	0xba7eec15	-0.000972451
10	0xb9edcfcf	-0.00045358992
11	0x3bba7777	0.005690511
12	0x3b49c784	0.0030789087
13	0x3c41f26a	0.011837581
14	0x3aa908fe	0.0012896357
15	0xbb5cb94c	-0.0033679781
16	0xbc834f08	-0.016028896
17	0xbc705bfc	-0.014670368
18	0xbac94e9d	-0.0015358512
19	0xbb4f8a67	-0.0031668188
20	0xbbf62c3d	-0.007512598
21	0x3b44e0d4	0.0030041235
22	0xbbf1fb9d	-0.007384731
23	0xbc16f881	-0.009214521
24	0xbbc3d7e3	-0.0059766634
25	0x3b0b9ef4	0.002130446
26	0xbc0eb49e	-0.008710055
27	0x3b07ea0e	0.0020738873
28	0xbc56e5f9	-0.013116353
29	0x3b05d543	0.0020421303
30	0x3c7e2a66	0.015513038
31	0x3b8cc84d	0.0042963387
32	0x3bedcb19	0.007256877
33	0x3b6c0dba	0.0036018924
34	0xba67c843	-0.0008841792
35	0xbbad3542	-0.00528589
36	0x3bd5b930	0.00652232
37	0xbb52df8a	-0.0032176697
38	0x3b787a13	0.0037914559
39	0x3bad57c9	0.005290006

running_mean f4 [40]
0	0x3f11a63b	0.5689427
1	0x41031bfd	8.194333
2	0x3f360f2d	0.71116906
3	0x40c0f665	6.0300775
4	0x3daa00a5	0.08300904
5	0x3f097a2c	0.53702044
6	0x3d10c570	0.03534454
7	0x3e83ed48	0.2576697
8	0x3e4bbe8e	0.1989691
9	0x3f5678d7	0.83778137
10	0x3ece0f14	0.4024588
11	0x3ed96d09	0.42466
12	0x3d0bf6a4	0.03417076
13	0x44fbceb5	2014.4596
14	0x417d1922	15.818636
15	0xbc3f7f88	-0.011688121
16	0xbceddcfd	-0.02903604
17	0xbf33b6c6	-0.70200765
18	0x3caa809b	0.020813277
19	0x3d2128f0	0.03934568
20	0xbdc364da	-0.0954072
21	0xbfacb060	-1.3491325
22	0xbe1c0b57	-0.15238701
23	0xbf0542e6	-0.52055204
24	0xbe9afa37	-0.30269024
25	0x3d266f36	0.040633403
26	0xbf292b80	-0.66082
27	0x3f1010c7	0.562756
28	0x3f2e4972	0.6808082
29	0x3ed62d14	0.41831267
30	0xbf07be5f	-0.5302486
31	0xbe6ca4ee	-0.2310979
32	0xbdf0eac6	-0.117635295
33	0xbde15a50	-0.11003554
34	0xbe3a839b	-0.18214266
35	0xbe208e77	-0.15679346
36	0x3f3c59c5	0.7357448
37	0xbe33a18f	-0.17542098
38	0x3f2a4b24	0.66520905
39	0x3e1a0106	0.15039453

running_var f4 [40]
0	0x3e7cd0ab	0.24688976
1	0x41156b4e	9.338697
2	0x3e50a8b4	0.20376855
3	0x401c8c85	2.4460766
4	0x3c87d39d	0.016580397
5	0x3e7e3f5b	0.24828856
6	0x3a93ed5c	0.0011285949
7	0x3cf1f808	0.029537216
8	0x3e2479b0	0.16062045
9	0x3e0a7c87	0.13524066
10	0x3e7863f9	0.24256887
11	0x3e7cc312	0.24683788
12	0x3d07a396	0.033114992
13	0x3f05dba0	0.52288246
14	0x429c7e3d	78.24656
15	0x3ef4ad2b	0.47788367
16	0x3f04c13b	0.51857346
17	0x3e1070a4	0.14105469
18	0x3ebb7e36	0.3661973
19	0x3f0d1dc1	0.55123526
20	0x3ee16244	0.44020283
21	0x3fbac840	1.4592361
22	0x3e708d12	0.23491314
23	0x3e089b60	0.13340521
24	0x3dcd1157	0.10013073
25	0x3dcc17f0	0.09965503
26	0x3db1fb8d	0.08690558
27	0x3e749b88	0.23887455
28	0x3fe911f4	1.8208604
29	0x3f03c5ac	0.514735
30	0x3f12885e	0.5723933
31	0x3e58ebf0	0.21183753
32	0x3f7f7422	0.9978658
33	0x3f3d126f	0.7385625
34	0x3e115561	0.14192726
35	0x3f0e9434	0.5569489
36	0x3e4656c8	0.19369042
37	0x3f015934	0.5052674
38	0x3e88f261	0.2674742
39	0x3f83ece4	1.0306668

weight f4 [32, 40]
0	0x3db76f73	0.08956804
1	0xbcedccd2	-0.02902833
2	0xbe37404b	-0.1789562
3	0x3dc5e540	0.096628666
4	0x3e757a31	0.23972394
5	0x3dba5ddb	0.09099933
6	0x3e2dd814	0.16976959
7	0x3d97a8cd	0.07405243
8	0x3e8189b1	0.25300363
9	0x3da96cb0	0.082726836
10	0xbdea0e20	-0.114284754
11	0xbe4603fa	-0.19337454
12	0xbcb5b5fc	-0.022181503
13	0xbd1d9816	-0.03847512
14	0x3d6cec0e	0.057842307
15	0xbe1a68e0	-0.15079069
16	0x3dc8e046	0.09808402
17	0x3f08df45	0.5346568
18	0xbe5eb9d9	-0.21750583
19	0x3d3c5d95	0.045987684
20	0x3e8e1fd0	0.27758646
21	0xbe8353c9	-0.2564986
22	0x3b9c586e	0.004771284
23	0x3cc22ad5	0.023702065
24	0xbe16b4a7	-0.14717351
25	0xbe0c207b	-0.13684265
26	0x3e12af67	0.14324723
27	0xbd2e84b5	-0.042607028
28	0x3e11fad3	0.14255838
29	0xbe094560	-0.1340537
30	0xbddd4a87	-0.108052306
31	0xbdcd8c61	-0.10036541
32	0x3dc11232	0.094272986
33	0xbe086724	-0.13320595
34	0x3e35d442	0.17756751
35	0xbe867061	-0.26257613
36	0x3e03bfc9	0.12866129
37	0xbd4c32dc	-0.04985319
38	0xbe2172e0	-0.15766478
39	0x3e7b58c2	0.24545577
40	0x3d94cb66	0.07265358
41	0x3d1d5418	0.038410276
42	0x3eb7799d	0.3583497
43	0xbbedb188	-0.0072538294
44	0xbe333023	-0.17498831
45	0xbc3206b3	-0.010865855
46	0xbd39a993	-0.045327734
47	0xbe2ccfd2	-0.16876152
48	0xbe559903	-0.2085915
49	0xbd3b510c	-0.04573159
50	0xbd7a7ad3	-0.06115229
51	0x3ea17e4a	0.31541663
52	0x3e6b0ec6	0.22954854
53	0xbe8a0821	-0.26959327
54	0xbe941963	-0.2892562
55	0x3e5608d4	0.20901805
56	0xbe1f6085	-0.15564163
57	0xbd310359	-0.043216083
58	0xbd7ec1ff	-0.062196728
59	0xbdf61af7	-0.12016862
60	0x3e770f56	0.24126944
61	0x3c58d41c	0.013234165
62	0x3b97681d	0.0046205656
63	0x3e2dda39	0.16977777
64	0xbe971477	-0.295078
65	0xbdb45b52	-0.088064805
66	0xbea37a89	-0.31929424
67	0x3eb9e2e5	0.3630592
68	0x3e10a2b3	0.14124565
69	0x3d2757df	0.040855285
70	0xbd689025	-0.056778092
71	0x3e20c06d	0.15698405
72	0xbdbaa69c	-0.091138095
73	0x3e889fc8	0.26684403
74	0x3e86918d	0.2628292
75	0xbe93b07e	-0.2884559
76	0x3d23ac33	0.039959144
77	0x3e640d59	0.22270717
78	0x3df7afc3	0.12094071
79	0xbe7c0960	-0.24612951
80	0xbe13f583	-0.14449124
81	0x3ef76a00	0.4832306
82	0xbe9830cd	-0.29724732
83	0x3ce180b5	0.027527193
84	0x3e60e5e1	0.21962692
85	0x3d9ab746	0.07554488
86	0xbbdf6296	-0.0068171723
87	0xbd0e4f22	-0.034743436
88	0xbc9f11c0	-0.019417644
89	0xbe13645e	-0.14393756
90	0xbda255aa	-0.079264954
91	0xbd0d6e88	-0.03452924
92	0xbd915b3a	-0.07097478
93	0xbe4d6dc7	-0.20061408
94	0xbe01dc33	-0.12681656
95	0xbdba72b1	-0.09103907
96	0x3e1db01a	0.15399209
97	0xbeb82fe6	-0.35974044
98	0x3da825e2	0.082103506
99	0xbe008be7	-0.12553369
100	0x3cee3d61	0.029082002
101	0xbe1938fb	-0.14963143
102	0x3dd61a9c	0.10454294
103	0x3d0e8d2a	0.034802593
104	0xbca92144	-0.020645745
105	0xbdcc1b42	-0.099661365
106	0x3e767a88	0.2407018
107	0x3e4fba78	0.20285976
108	0x3e6b279d	0.2296433
109	0x3d14b536	0.03630563
110	0xbe71b64e	-0.236047
111	0xbdcfd0a2	-0.101472154
112	0xbe0ee962	-0.13956216
113	0x3d63f796	0.05565604
114	0xbda86ddd	-0.0822408
115	0x3dbef6b8	0.093244016
116	0xbdb65270	-0.089024425
117	0x3e0a73aa	0.13520685
118	0x3e5ea6a1	0.21743251
119	0x3d250970	0.040292203
120	0xbebef756	-0.37298077
121	0xbd674169	-0.056458864
122	0x3e4b4e7f	0.19854163
123	0xbd30dadf	-0.04317748
124	0xbecd88a3	-0.40143308
125	0xbd4cac94	-0.04996927
126	0xbe209890	-0.15683198
127	0xbe1cdd73	-0.15318851
128	0xbe26d834	-0.16293412
129	0x3d34b785	0.04412033
130	0xbbc289fd	-0.0059368596
131	0x3e3e4a2e	0.18582985
132	0xbd19d528	-0.037556797
133	0xbd643ea8	-0.055723816
134	0x3bd6cd40	0.0065552294
135	0xbe0ff325	-0.14057596
136	0xbe368352	-0.17823532
137	0xbe272d8d	-0.1632597
138	0x3c9310f3	0.017952418
139	0x3df91f3e	0.12164162
140	0x3da6e2b8	0.08148712
141	0xbd80e5b5	-0.06293813
142	0xbe17a023	-0.14807181
143	0xbe8523a3	-0.2600375
144	0xbeac2a3a	-0.33625966
145	0x3e63e7d1	0.222564
146	0x3e8d4e69	0.27598885
147	0x3d81d73b	0.0633988
148	0xbdd66c99	-0.10469932
149	0x3e31aa7a	0.17350188
150	0xbd2ffb5b	-0.04296432
151	0x3d945495	0.07242695
152	0x3e15bca6	0.14622745
153	0xbdc8f47c	-0.09812257
154	0xbd66f1be	-0.056382887
155	0xbe647baa	-0.22312799
156	0x3e00d907	0.1258279
157	0x3d8a23dc	0.06745121
158	0xbe3a889c	-0.18216175
159	0xbe1e9301	-0.15485765
160	0x3e090999	0.13382567
161	0xbea25ca0	-0.31711292
162	0x3e3fd7f3	0.18734722
163	0x3d92679c	0.07148668
164	0xbbd375d4	-0.006453255
165	0x3e30bedc	0.17260307
166	0xbe0c74d4	-0.13716441
167	0xbda8e9b8	-0.08247703
168	0xbe7509d3	-0.23929529
169	0xbd1b86fb	-0.037970524
170	0xbdde4a8a	-0.10854061
171	0x3e08d50b	0.1336252
172	0xbe05e552	-0.1307576
173	0x3ea40785	0.32036987
174	0x3e1fccda	0.15605488
175	0x3dc6e3e3	0.09711435
176	0xbde69de6	-0.112605855
177	0xbc601d1f	-0.013678818
178	0xbe0cf13a	-0.13763896
179	0xbc061b5d	-0.008185235
180	0xbe96f9b8	-0.29487395
181	0x3d335299	0.043779943
182	0xbdda15b5	-0.106486715
183	0xbe29cae6	-0.16581306
184	0x3c285778	0.01027476
185	0x3e288c62	0.16459802
186	0xbe25df0c	-0.16198367
187	0x3cf91385	0.030404815
188	0x3e3bfcaa	0.18358102
189	0xbd5e0461	-0.054203395
190	0xbdedeb04	-0.11617091
191	0x3e78f29a	0.24311295
192	0xbc7d223d	-0.015450058
193	0xbe09b346	-0.13447294
194	0x3e3f71ca	0.18695751
195	0x3e5df2e6	0.2167469
196	0x3da12252	0.07867874
197	0x3dbfe942	0.09370662
198	0x3e7532ac	0.23945111
199	0x3e6b907b	0.23004334
200	0x3e30c718	0.17263448
201	0x3db2a4ff	0.08722877
202	0xbd89712c	-0.06711039
203	0x3d9738e9	0.073839016
204	0xbc007a97	-0.007841728
205	0x3e63f79e	0.22262427
206	0x3e29946a	0.16560522
207	0x3dee4cac	0.11635718
208	0xbe499758	-0.1968664
209	0x3d1331f2	0.035936303
210	0xbea58154	-0.32325232
211	0x3d24cbeb	0.040233534
212	0xbc80299c	-0.01564484
213	0xbe092ce0	-0.13396025
214	0xbbd087cb	-0.006363844
215	0x3db7d98c	0.08977041
216	0xbe8f61c3	-0.28004274
217	0xbe0b5379	-0.13606061
218	0x3e43e996	0.19132075
219	0xbde5faa1	-0.11229444
220	0x3e470279	0.19434537
221	0x3e52c8ef	0.20584463
222	0xbd469da6	-0.04849019
223	0xbe198b4a	-0.14994541
224	0x3d074cad	0.033032108
225	0x3da59e1c	0.080867976
226	0x3d0a45fb	0.033758145
227	0xbe6cb21c	-0.23114818
228	0xbd8d0798	-0.06886214
229	0xbe18142d	-0.14851446
230	0xbe9b2015	-0.30297914
231	0xbe47b842	-0.19503883
232	0xbe767d3a	-0.24071208
233	0xbe02ee41	-0.12786199
234	0xbe852cb4	-0.26010668
235	0xbd470a67	-0.048593905
236	0xbe34584e	-0.1761181
237	0x3e8a5113	0.2701498
238	0x3e7103fa	0.23536673
239	0x3e508774	0.20364171
240	0x3e87fa91	0.26558354
241	0x3e094102	0.13403705
242	0xbdbd11ca	-0.092319086
243	0x3d5844c2	0.052799948
244	0xbe58194a	-0.21103397
245	0x3e17e943	0.14835076
246	0x3d21e040	0.039520502
247	0xbe2edf2f	-0.17077325
248	0xbc9c2de2	-0.019064847
249	0xbdb83844	-0.08995107
250	0xbe0766af	-0.13222764
251	0xbb473e3f	-0.0030402092
252	0x3d99dc58	0.0751273
253	0x3e272dc8	0.16326058
254	0xbd2c257d	-0.04202794
255	0x3e2fb1a9	0.17157616

bias f4 [32]
0	0xbd8205f5	-0.063487925
1	0xbbb19854	-0.0054197703
2	0x3d7a4793	0.061103415
3	0xbc26047b	-0.010132904
4	0xbce58cfa	-0.028021324
5	0x3b58911f	0.0033045483
6	0xbde55b4d	-0.11199055
7	0xbdf9e1a4	-0.12201241
8	0xbdc013fa	-0.0937881
9	0x3e1a06f7	0.1504172
10	0xbdcbbb53	-0.09947839
11	0x3e13182e	0.14364693
12	0xbc7cc7ee	-0.015428526
13	0x3e14d37d	0.14533801
14	0xbd8b671c	-0.06806776
15	0xbdda5584	-0.10660842
16	0x3d7ffede	0.06249892
17	0x3de923fc	0.113838166
18	0x3e09303e	0.13397309
19	0x3e1bc330	0.15211177
20	0xbd6038da	-0.054741718
21	0x3cec06be	0.028811809
22	0x3db7ddfa	0.089778855
23	0xbd206d6e	-0.03916686
24	0x3b5fddac	0.0034159226
25	0x3d9577c5	0.07298235
26	0x3db8d370	0.090247035
27	0xbe11953c	-0.14217085
28	0xbe0b2bc5	-0.13590916
29	0x3df45bf3	0.119316004
30	0xbc2a96a6	-0.010411894
31	0x3c84509b	0.016151717

weight f4 [32]
0	0x3f6571cf	0.89626783
1	0x3f867dfa	1.0507195
2	0x3f8ec829	1.1154834
3	0x3f81169d	1.0085026
4	0x3f738b54	0.9513447
5	0x3f7998a9	0.97498566
6	0x3f62d6d1	0.88609034
7	0x3f7e8b75	0.99431545
8	0x3f788ab2	0.9708663
9	0x3f831b65	1.0242735
10	0x3f766ba3	0.9625799
11	0x3f6ffe4a	0.9374739
12	0x3f69814f	0.91212934
13	0x3f818d4b	1.0121244
14	0x3f80a636	1.0050724
15	0x3f824694	1.0177789
16	0x3f78ab69	0.9713655
17	0x3f76631f	0.96244997
18	0x3f82311e	1.0171239
19	0x3f588dc0	0.84591293
20	0x3f932a93	1.1497368
21	0x3f68dfb4	0.90966344
22	0x3f770de1	0.9650555
23	0x3f68c959	0.9093223
24	0x3f74ca39	0.9562107
25	0x3f8c56b2	1.0963957
26	0x3f779811	0.9671641
27	0x3f8d1144	1.1020894
28	0x3f80f384	1.0074315
29	0x3f8c7747	1.09739
30	0x3f789506	0.9710239
31	0x3f6f2f88	0.934319

bias f4 [32]
0	0xbde2e109	-0.11078078
1	0x3e115c09	0.14195265
2	0xbda13fc6	-0.07873492
3	0x3e3d8355	0.1850713
4	0x3ce92f65	0.028464982
5	0xbc02e898	-0.007990025
6	0xbd9cae24	-0.07650402
7	0xbcc1e503	-0.023668772
8	0xbdb2c81b	-0.08729573
9	0x3dc22fef	0.09481799
10	0xbafac161	-0.0019131118
11	0xbe264dfc	-0.16240686
12	0xbde5525f	-0.11197352
13	0x3c2fb6eb	0.010724763
14	0x3e012bd5	0.12614377
15	0x3d5d9150	0.05409366
16	0x3e7628ea	0.24039045
17	0x3e82ac57	0.2552211
18	0x3dc4545a	0.09586401
19	0xbdaee987	-0.085406356
20	0xbe1f5a32	-0.1556175
21	0x3c5d9032	0.013523148
22	0x3d805e47	0.06267982
23	0xbde28e31	-0.11062277
24	0x3d891a45	0.06694464
25	0xbc4ea1de	-0.012611834
26	0x3df826d2	0.121167794
27	0x3e4ddfb3	0.20104866
28	0xbdd7efc5	-0.10543779
29	0x3d0b6532	0.034032054
30	0xbdc0f515	-0.09421746
31	0x3d6ab765	0.057303805

running_mean f4 [32]
0	0xbda8c364	-0.08240393
1	0x3b40abc1	0.0029399248
2	0x3d326b38	0.043559283
3	0x3b7296e5	0.003701621
4	0xbc26f7d5	-0.010190924
5	0x3a6e48fa	0.0009089854
6	0xbde205d9	-0.110362716
7	0xbde893cf	-0.11356317
8	0xbdb6539d	-0.08902667
9	0x3e1a9372	0.15095308
10	0xbdcd5d7d	-0.10027597
11	0x3e168557	0.14699303
12	0xbc0abdeb	-0.008468132
13	0x3e1dcfc7	0.15411292
14	0xbd9a3513	-0.07529654
15	0xbde828e1	-0.11335922
16	0x3d6020ff	0.054718968
17	0x3de148c0	0.11000204
18	0x3e0f35f7	0.1398543
19	0x3e224f32	0.15850523
20	0xbda0883f	-0.07838487
21	0x3ceb9bea	0.028760869
22	0x3dc8e76e	0.09809767
23	0xbcca0b28	-0.024663523
24	0xbae4df3a	-0.0017461546
25	0x3d91864b	0.071056925
26	0x3da98294	0.08276859
27	0xbe1bf12b	-0.15228717
28	0xbe1360ce	-0.14392397
29	0x3ddfac1f	0.10921501
30	0xbc6c278e	-0.014413727
31	0x3cccb53a	0.02498876

running_var f4 [32]
0	0x3fc6015e	1.5469167
1	0x3fe48a50	1.785471
2	0x3f60c11c	0.8779466
3	0x3f891179	1.0708457
4	0x3f2e9834	0.68200994
5	0x3fd2e318	1.6475554
6	0x3f74c43a	0.9561192
7	0x3f9d2b4f	1.2278842
8	0x3f3d344b	0.7390792
9	0x3f44617e	0.7671126
10	0x3f845147	1.0337304
11	0x3fd533d8	1.6656446
12	0x3fcc9b71	1.5984937
13	0x3fbec363	1.4903377
14	0x3efbe1f1	0.49195817
15	0x3fad7fa7	1.3554581
16	0x3f39559a	0.7239624
17	0x3f91ab8d	1.1380478
18	0x3f7904e2	0.97273076
19	0x3ffca268	1.9737062
20	0x3fcacec4	1.584435
21	0x3fa4d08a	1.2876141
22	0x401416e2	2.3138967
23	0x4034ea2d	2.826793
24	0x3fdab550	1.7086582
25	0x3f34b7cc	0.7059295
26	0x3fc60cc6	1.5472648
27	0x3fc24d2b	1.51798
28	0x401ab1c2	2.4170995
29	0x3fccdffe	1.6005857
30	0x3f7ed846	0.9954876
31	0x3fd32fb9	1.6498939

weight f4 [32, 32]
0	0xbe412cc8	-0.18864739
1	0x3e50d90a	0.20395294
2	0x3d230071	0.039795343
3	0x3e537397	0.20649563
4	0xbdcc2339	-0.09967656
5	0xbe17b134	-0.14813691
6	0x3e493038	0.196473
7	0xbd8ffa1e	-0.07030128
8	0xbdb3b68a	-0.08775051
9	0x3e5614eb	0.20906417
10	0xbe23b33b	-0.1598634
11	0x3d046950	0.032326996
12	0xbd478785	-0.048713226
13	0x3e439b77	0.19102274
14	0xbcaf75a0	-0.021418393
15	0xbd51e038	-0.051239222
16	0xbe908ae1	-0.28230956
17	0x3b10a2d9	0.002206972
18	0x3c6e8550	0.014558151
19	0xbcfb2c31	-0.03066072
20	0xbe67e33a	-0.22645274
21	0xbddb02e6	-0.10693912
22	0xbe101e13	-0.14073972
23	0xbd865f5a	-0.065611556
24	0xbddb18fc	-0.10698125
25	0xbe9f3082	-0.31091696
26	0x3dc33bbb	0.09532877
27	0x3e4ab259	0.19794597
28	0x3dc48e58	0.095974624
29	0x3e9f4b6b	0.31112227
30	0x3ea0f719	0.3143852
31	0xbdf7eccb	-0.121057115
32	0x3e070d49	0.13188662
33	0xbcf32df2	-0.029684994
34	0x3d91fad3	0.07127919
35	0x3e43e4b9	0.1913022
36	0x3e915234	0.28383029
37	0x3e51b9dd	0.20481057
38	0x3cd039af	0.02541813
39	0x3c9bdb5a	0.019025493
40	0xbdd22bd3	-0.10262265
41	0x3e5b3769	0.21407856
42	0x3d5dffb2	0.05419893
43	0x3e73b79c	0.2380051
44	0x3e87ab85	0.26498047
45	0x3cd5f6dc	0.026118688
46	0x3cdb1279	0.026742207
47	0xbe1ea64a	-0.15493122
48	0x3e79fbf7	0.24412523
49	0xbe2751a8	-0.16339743
50	0x3e851337	0.25991222
51	0x3e153c5d	0.14573808
52	0xbc9f69a4	-0.019459553
53	0x3cc759c0	0.024334788
54	0xbec31485	-0.38101593
55	0xbea8374d	-0.3285469
56	0xbdc9758e	-0.09836875
57	0x3e8448f0	0.25836897
58	0xbe02a3b0	-0.12757754
59	0xbe30c358	-0.17262018
60	0xbcb0ca0e	-0.021580722
61	0x3e0e43fb	0.1389312
62	0xbe1cdb64	-0.15318066
63	0xbbec112c	-0.0072041955
64	0x3d730773	0.059333276
65	0x3e548b8c	0.20756358
66	0x3b197cbb	0.0023420292
67	0x3dc9a9f6	0.098468706
68	0x3e81bc0f	0.2533879
69	0xbcc0a404	-0.023515709
70	0x3e48a80a	0.19595352
71	0x3e934bf4	0.28768885
72	0x3d305f00	0.04305935
73	0xbe90af86	-0.28258914
74	0x3e34147a	0.17585936
75	0xbdd30469	-0.103035755
76	0xbb028d4e	-0.001992065
77	0xbaae2ac8	-0.0013287896
78	0xbe9f6a12	-0.31135613
79	0x3dd4b4f6	0.10386078
80	0xbe2823d2	-0.16419914
81	0xbe0167ba	-0.12637225
82	0xbe2ad5c7	-0.16683112
83	0xbe32a625	-0.17446192
84	0x3b0f869b	0.00219003
85	0xbdda7769	-0.10667307
86	0x3e946bf2	0.28988606
87	0x3e04d5b9	0.12972154
88	0x3e873187	0.26404974
89	0xbe56cfd9	-0.20977725
90	0xbdf3251f	-0.11872315
91	0x3c7359ff	0.014853
92	0xbda77f8c	-0.081786245
93	0xbe8ef391	-0.279202
94	0xbe1dbb1d	-0.1540341
95	0xbbbaa877	-0.005696352
96	0xbb735a0a	-0.0037132525
97	0xbda5ceb2	-0.080960646
98	0xbd50fbd7	-0.051021423
99	0xbe736289	-0.23768057
100	0x3e83b480	0.25723648
101	0x3e25cad5	0.16190656
102	0x3d8c53e6	0.0685194
103	0x3e1b960f	0.15193962
104	0x3e15b349	0.14619173
105	0x3c46179e	0.012090592
106	0x3e86ac4b	0.26303324
107	0xbe99ae1c	-0.30015647
108	0xbc1edbb6	-0.009695938
109	0x3e36aa34	0.17838365
110	0x3e155713	0.14583997
111	0xbe2e05b4	-0.16994363
112	0x3e0b8070	0.13623214
113	0x3e2b8226	0.16748866
114	0x3c0dcb55	0.008654435
115	0xbe4861df	-0.19568585
116	0xbe617ad4	-0.22019511
117	0xbe9cfb7b	-0.30660614
118	0xbdfb2dbe	-0.12264584
119	0xbe60f07c	-0.21966738
120	0xbe9b7b7c	-0.3036765
121	0x3ead559a	0.3385437
122	0xbc3cbb43	-0.011519256
123	0x3d7e743a	0.06212256
124	0x3d980402	0.074226394
125	0xbe854b3c	-0.26033962
126	0xbe4ca8a1	-0.19986202
127	0xbdacf2a3	-0.08444717
128	0x3e9c741e	0.3055734
129	0x3e8a1fd4	0.26977408
130	0xbe850854	-0.25982916
131	0xbe6cf285	-0.23139389
132	0x3db3b5d0	0.08774912
133	0xbe91601d	-0.2839364
134	0x3d5c5f7a	0.05380199
135	0x3ae3f69c	0.0017392221
136	0x3e24e136	0.16101536
137	0x3b226468	0.0024779085
138	0xbc6a2268	-0.01429043
139	0x3d917286	0.07101922
140	0x3e13c82d	0.1443183
141	0xbdeb81ee	-0.114993915
142	0xbea53729	-0.32268646
143	0x3be67278	0.0070326887
144	0xbdd10bdc	-0.1020734
145	0xbdbb9c60	-0.091606855
146	0x3e9af282	0.30263144
147	0xbde4f1e6	-0.11178951
148	0x3e7f8fce	0.24957201
149	0xbdd47dc1	-0.10375548
150	0x3d3d3ff3	0.046203565
151	0xbd58b86f	-0.052910265
152	0x3e4a05d0	0.1972878
153	0xbc37ad5b	-0.011210765
154	0x3e845731	0.25847772
155	0x3e397715	0.18111832
156	0x3e0436a4	0.12911469
157	0x3ebc9920	0.36835575
158	0x3d678a95	0.056528646
159	0xbe0cccfa	-0.13750067
160	0x3e456dc5	0.19280155
161	0xbe629f0d	-0.22130986
162	0xbd2f66ad	-0.04282253
163	0x3e80fdd2	0.2519365
164	0xbd214507	-0.03937247
165	0xbe40474e	-0.187772
166	0x3e2d88ac	0.16946667
167	0x3e4fc457	0.20289741
168	0xba8162a6	-0.0009871318
169	0xbe4f4fb1	-0.20245244
170	0x3d481db9	0.04885647
171	0xbd893e24	-0.067013055
172	0xbe6e92b1	-0.23298146
173	0x3e80c01d	0.2514657
174	0x3e703869	0.23459019
175	0xbdbb581c	-0.09147665
176	0xbdc2c9b2	-0.095111266
177	0xbe68db26	-0.22739848
178	0x3d12ade8	0.03581038
179	0xbcd7052d	-0.026247585
180	0xbe7c5810	-0.24642968
181	0xbd1b4042	-0.037903078
182	0xbd9db4a5	-0.07700471
183	0x3d1e9d7a	0.0387244
184	0xbe78baf5	-0.24290068
185	0xbe590b9a	-0.21195832
186	0x3e6277cb	0.2211601
187	0xbda0b490	-0.078469396
188	0x3e650a75	0.2236727
189	0xbe015715	-0.12630875
190	0xbdc1b99e	-0.09459232
191	0xbda65c8a	-0.08123119
192	0xbbcea4e5	-0.006306278
193	0x3dc64d34	0.09682694
194	0xbe9cb74c	-0.30608594
195	0x3e2a7957	0.1664785
196	0x3e02f459	0.12788524
197	0x3ca00b35	0.019536594
198	0x3e9c9256	0.30580395
199	0x3dc13720	0.094343424
200	0xbeb53ada	-0.35396463
201	0x3cdcd2fb	0.026956072
202	0x3e0cc37a	0.13746443
203	0xbdc5033b	-0.09619757
204	0xbcedc415	-0.029024163
205	0xbeae5bfc	-0.34054554
206	0xbca0f954	-0.019650139
207	0x3d8b5bf6	0.068046495
208	0xbda19876	-0.07890408
209	0xbe50749e	-0.20356986
210	0xbe36b089	-0.1784078
211	0x3e390ba6	0.1807085
212	0x3d59d746	0.053183816
213	0x3eb1edf4	0.34751856
214	0xbe276b2f	-0.16349481
215	0x3db2d82e	0.08732639
216	0xbb850eca	-0.004060601
217	0xbe97e256	-0.29664868
218	0x3e530943	0.20609002
219	0xbdeb6173	-0.11493196
220	0xbde18639	-0.11011929
221	0x3e236dbf	0.15959834
222	0x3d0bf7d5	0.034171898
223	0x3dc1b317	0.09457987
224	0xbddbf766	-0.10740547
225	0x3e6355f4	0.22200757
226	0x3caff071	0.021476956
227	0x3e5f0bd3	0.21781854
228	0x3e4c6d42	0.19963554
229	0xbd9dfa30	-0.07713735
230	0xbe0e47e2	-0.13894609
231	0x3e61fcec	0.22069138
232	0xbd6e0415	-0.05810936
233	0xbde21a5e	-0.110401854
234	0x3e8835b3	0.2660347
235	0x3e04b72d	0.12960501
236	0x3e9a2f73	0.30114326
237	0xbea5ecd3	-0.32407245
238	0x3dbf48e5	0.093400754
239	0xbe22c09a	-0.15893784
240	0x3e480fa5	0.19537218
241	0x3d932ccc	0.07186279
242	0x3d437941	0.04772306
243	0x3e71bceb	0.23607223
244	0xbe848c16	-0.25888127
245	0x3e4f12ef	0.20222066
246	0x3da50622	0.0805781
247	0xbebb469d	-0.3657731
248	0x3dbc505e	0.09195016
249	0x3dae8459	0.08521337
250	0x3bbf0f3d	0.005830674
251	0xbdc12111	-0.09430135
252	0xbe8cec8d	-0.27524224
253	0xbdc9e8ae	-0.09858833
254	0xbdae53bc	-0.08512065
255	0xbd3b8508	-0.045781165

bias f4 [32]
0	0xbe008ef7	-0.12554537
1	0xbc53cdc8	-0.01292748
2	0x3e1f6ecb	0.15569608
3	0x3d846a24	0.06465557
4	0xbe385ed8	-0.1800493
5	0x3d567167	0.052354243
6	0x3daa5f86	0.08319001
7	0xbe2a8a18	-0.16654241
8	0x3d3c8641	0.046026472
9	0x3df03d30	0.117304206
10	0xbde7f898	-0.11326712
11	0xbe223070	-0.1583879
12	0xbdbf7ea5	-0.093503274
13	0x3cd7deef	0.02635142
14	0x3d2fbdd7	0.042905655
15	0xbcaebf4b	-0.02133145
16	0x3d6822f6	0.056673966
17	0xbde3e072	-0.11126794
18	0xbd6e817d	-0.05822896
19	0xbe2359b2	-0.15952185
20	0x3e3345da	0.17507115
21	0xbd872a6d	-0.06599889
22	0xbc94d708	-0.018168941
23	0x3e2c151d	0.16804929
24	0xbd42eea6	-0.047590874
25	0x3d4f7b9d	0.050654996
26	0xbda5dbcb	-0.08098563
27	0x3b999b4a	0.0046877014
28	0x3a5d30be	0.0008437744
29	0xbdc1bfb7	-0.09460395
30	0xbe2f5434	-0.17121965
31	0xbe1d32f7	-0.15351473

weight f4 [32]
0	0x3fa3f858	1.2810163
1	0x3f9abbf5	1.208861
2	0x3fa4bba2	1.2869761
3	0x3fb5c2cc	1.4200072
4	0x3fa061b5	1.2529818
5	0x3fb6f2ef	1.4292887
6	0x3f9843ae	1.1895654
7	0x3fa20484	1.2657628
8	0x3fb1c2b5	1.3887545
9	0x3f9f7494	1.2457452
10	0x3f988b35	1.1917483
11	0x3f979de3	1.1845058
12	0x3f8ab29e	1.083576
13	0x3fa088c7	1.2541741
14	0x3f92d031	1.1469785
15	0x3f8c37af	1.0954493
16	0x3fb654b4	1.4244599
17	0x3f9719ce	1.180475
18	0x3f995c88	1.1981363
19	0x3f9359b7	1.1511754
20	0x3fa109a6	1.258107
21	0x3fb3fccf	1.4061526
22	0x3f916c45	1.1361166
23	0x3fb23fc1	1.3925706
24	0x3f8a9b1b	1.0828584
25	0x3f8f6da4	1.1205335
26	0x3f9431d5	1.1577708
27	0x3fa6c8ec	1.3030066
28	0x3fa5f9af	1.2966822
29	0x3fb13867	1.3845338
30	0x3fad2664	1.3527341
31	0x3f91c1ab	1.1387228

bias f4 [32]
0	0x3e7fa9c1	0.249671
1	0x3da504dd	0.08057568
2	0x3e7105f9	0.23537435
3	0x3e830435	0.25589147
4	0xbd495aa3	-0.049158704
5	0xbdad5d1f	-0.08465027
6	0x3ad0014b	0.0015869526
7	0x3e5675ae	0.20943329
8	0x3e90aa98	0.28255153
9	0x3e01b814	0.12667876
10	0x3e805d06	0.2507097
11	0x3e04b50a	0.12959686
12	0xbd1c944a	-0.038227357
13	0x3ebef42c	0.37295663
14	0x3db5c474	0.08875361
15	0xbd293e7a	-0.041319348
16	0x3ee4e6e0	0.44707394
17	0x3e8fc6c2	0.28081328
18	0xbc56196b	-0.013067584
19	0xbd1ec233	-0.03875942
20	0x3e9f8bf8	0.31161475
21	0x3dec4fcb	0.11538657
22	0xbcfe8f49	-0.031074183
23	0x3e4e2caf	0.20134233
24	0xba36db1a	-0.00069753977
25	0x3ddf0c34	0.108909994
26	0x3d5c3147	0.053757932
27	0x3d71f15a	0.05906806
28	0x3e82afa3	0.25524625
29	0xbb8f912b	-0.004381319
30	0x3e1cf563	0.15327983
31	0x3ca8da4b	0.020611903

running_mean f4 [32]
0	0xbdfe11ae	-0.12405716
1	0x3eac86cf	0.336966
2	0x3cea6acf	0.028615383
3	0xbdd2ca90	-0.10292542
4	0x3e4ae148	0.198125
5	0xbe9585d8	-0.29203677
6	0x39891e47	0.00026153235
7	0x3d937b05	0.072011985
8	0xbed6be5b	-0.41942105
9	0x3e84a7c8	0.25909257
10	0x3f28552d	0.6575497
11	0xbf2b30c7	-0.66871303
12	0xbe68beae	-0.22728989
13	0xbd0e75c3	-0.034780275
14	0xbd5fc9e9	-0.054635916
15	0xbd6eb959	-0.05828223
16	0xbe75aac9	-0.2399093
17	0x3e5ec5fe	0.21755216
18	0xbf1af51f	-0.60530275
19	0xbedcd28a	-0.4312938
20	0xbe74e0d2	-0.23913887
21	0xbe942a02	-0.289383
22	0x3daafa22	0.0834849
23	0xbccda5bd	-0.025103444
24	0xbe53699f	-0.2064576
25	0xbe98a2ff	-0.29811856
26	0x3e544477	0.20729242
27	0xbda16edc	-0.07882473
28	0xbe2e08f5	-0.16995604
29	0x3e948645	0.2900869
30	0x3f00a3e1	0.5025006
31	0xbe0583fe	-0.13038632

running_var f4 [32]
0	0x3e5da584	0.2164517
1	0x3f04ae98	0.5182891
2	0x3f1b9d21	0.60786635
3	0x3eed754e	0.4637856
4	0x3f0a98a2	0.5413915
5	0x3eefd937	0.4684541
6	0x3ed229b4	0.41047442
7	0x3ededa71	0.43526033
8	0x3eb1d340	0.34731483
9	0x3e732fad	0.23748656
10	0x3f171e42	0.59030545
11	0x3eaf4f3d	0.34240142
12	0x3eee59c4	0.4655286
13	0x3e84b3b1	0.25918344
14	0x3f3d7ff6	0.7402338
15	0x3e8c614e	0.27417988
16	0x3ef5d176	0.4801137
17	0x3f186a64	0.5953734
18	0x3ea39617	0.31950447
19	0x3ed08a6d	0.4073061
20	0x3e243925	0.16037424
21	0x3e671258	0.22565591
22	0x3e641088	0.22271931
23	0x3ec5d417	0.38638374
24	0x3e3c06da	0.18361989
25	0x3f925755	1.1432902
26	0x3e65bde4	0.22435719
27	0x3efebcd4	0.4975344
28	0x3efecdd9	0.49766424
29	0x3ea97166	0.3309433
30	0x3ee1e603	0.44120798
31	0x3e89d5f2	0.2692104

weight f4 [5, 32]
0	0x3eac5abf	0.33662984
1	0xbe5b2f25	-0.21404703
2	0x3d583987	0.052789237
3	0x3e232511	0.15932108
4	0xbd0c2303	-0.034213077
5	0x3f040efe	0.51585376
6	0x3d029cbd	0.03188776
7	0x3e8b83be	0.2724895
8	0xbe726773	-0.23672275
9	0x3d861459	0.0654685
10	0x3dc71e80	0.09722614
11	0x3e9f821a	0.31153947
12	0xbe1452d4	-0.14484721
13	0x3e0b5304	0.13605887
14	0xbe714273	-0.23560505
15	0xbe454b74	-0.19267064
16	0x3d81a3fc	0.06330106
17	0x3ce5d0de	0.028053697
18	0xbd90fa8c	-0.07079038
19	0xbe901d46	-0.28147334
20	0x3e035315	0.12824662
21	0x3e2801b0	0.16406894
22	0xbe212169	-0.15735401
23	0x3e4e42f2	0.20142725
24	0xbe3f95f5	-0.18709548
25	0xbdf1443e	-0.11780594
26	0x3dbfa247	0.09357124
27	0xbe92fb22	-0.28707224
28	0x3de25d38	0.11052936
29	0xbeabe10f	-0.33570144
30	0x3ede1058	0.43371844
31	0xbe4269a6	-0.18985614
32	0x3bac65f3	0.0052611767
33	0x3e11b697	0.14229809
34	0xbed31c26	-0.41232413
35	0xbe3a834e	-0.18214151
36	0x3d4e8a33	0.050424766
37	0x3e435847	0.19076644
38	0xbe9afa6f	-0.3026919
39	0xbdca0ee6	-0.09866123
40	0x3e267245	0.16254528
41	0xbe3d18de	-0.18466517
42	0x3d2f5691	0.042807166
43	0xbda4a70a	-0.08039673
44	0x3df14828	0.11781341
45	0xbc3e7514	-0.011624593
46	0xbd9fd0bf	-0.07803487
47	0x3e12600b	0.1429445
48	0x3dba1c41	0.0908742
49	0xbdef40cc	-0.11682281
50	0x3e252585	0.16127594
51	0x3d82aefc	0.06381032
52	0xbe461354	-0.1934331
53	0xbeb3ab26	-0.35091513
54	0x3db57bef	0.08861529
55	0xbeb3b856	-0.35101575
56	0xbdc6a1f8	-0.09698862
57	0xbe7965df	-0.24355267
58	0xbeacf4b1	-0.33780435
59	0x3d8faa75	0.07014934
60	0xbe081295	-0.13288338
61	0x3de941c9	0.11389501
62	0xbeb9f963	-0.3632308
63	0x3e233088	0.15936482
64	0x3e1a48f6	0.15066895
65	0xbd8eee42	-0.06979038
66	0x3e917104	0.28406537
67	0x3dd0cc8d	0.10195265
68	0xbde3a1f6	-0.11114876
69	0xbea13b50	-0.31490564
70	0xbdeb5799	-0.11491317
71	0xbd4d2f9b	-0.05009423
72	0x3dfa9a62	0.122364774
73	0xbe9a638a	-0.30154067
74	0x3e8ac2f9	0.27101877
75	0xbdd2385c	-0.10264656
76	0xbe499044	-0.19683939
77	0x3d793f40	0.060851336
78	0x3e1a0096	0.15039286
79	0x3e93c1e5	0.28858867
80	0x3c236b63	0.009974333
81	0x3c120153	0.0089114485
82	0xbee15c4d	-0.44015732
83	0xbe1c9959	-0.15292872
84	0x3e06bfa1	0.13159038
85	0xbe8b03e0	-0.27151394
86	0xbd990004	-0.07470706
87	0xbc8c492f	-0.01712474
88	0xbea44aa6	-0.32088202
89	0x3d5a9241	0.053362135
90	0x3d92aac9	0.07161481
91	0x3e062653	0.13100557
92	0x3c9bb962	0.019009296
93	0xbe8d4abc	-0.2759608
94	0x3ce847b0	0.028354496
95	0x3e3c4c1e	0.18388411
96	0x3ce25f74	0.027633406
97	0x3e738a56	0.2378324
98	0xbdaf37ee	-0.085555896
99	0x3e4ad02d	0.19805975
100	0x3ebe63c6	0.37185496
101	0xbe6b72c9	-0.22993006
102	0x3e392bb7	0.18083082
103	0x3e1de370	0.15418792
104	0x3dfb0db6	0.122584745
105	0x3e8585c5	0.2607862
106	0x3d91c937	0.07118457
107	0xbe6728e2	-0.2257419
108	0x3de272b4	0.11057034
109	0xbd28328d	-0.041063834
110	0x3e649148	0.22321045
111	0xbd4229fc	-0.04740332
112	0xbdbce3be	-0.09223126
113	0x3e3bee29	0.1835257
114	0x3dfae1e1	0.12250114
115	0x3da8da73	0.08244791
116	0xbd9459c0	-0.07243681
117	0x3e789703	0.24276356
118	0x3e94932b	0.2901853
119	0x3de7b742	0.113142505
120	0x3e154d59	0.14580287
121	0x3d48bb5f	0.049006816
122	0x3acf43bc	0.0015813033
123	0x3cf6c33a	0.030122388
124	0x3ec22438	0.37918258
125	0x3d4ad368	0.04951802
126	0xbe03cca2	-0.1287103
127	0x3b0baf4b	0.00213142
128	0xbf466cc2	-0.775097
129	0xbe6f6816	-0.2337955
130	0xbf1155e5	-0.5677169
131	0xbf3fab41	-0.7487069
132	0xbebb0cc8	-0.3653319
133	0xbe2c6848	-0.16836655
134	0xbed93c5f	-0.42428872
135	0xbf3c3fe6	-0.73535
136	0xbf39bf61	-0.72557646
137	0xbee09e4e	-0.43870777
138	0xbf19d45f	-0.6008968
139	0xbeefd509	-0.4684222
140	0xbed414d3	-0.41422138
141	0xbf50fb8d	-0.81633836
142	0xbea569fa	-0.32307416
143	0xbed8c805	-0.42340103
144	0xbf90e06b	-1.1318487
145	0xbf22f225	-0.63650733
146	0xbeb33bc9	-0.3500655
147	0xbeb9f2c7	-0.36318037
148	0xbf29566c	-0.66147494
149	0xbea25119	-0.31702498
150	0xbdc663df	-0.09687018
151	0xbf25426a	-0.64554465
152	0xbe1d2baf	-0.15348695
153	0xbf19ad4e	-0.60030067
154	0xbe9c19a8	-0.30488324
155	0xbf21b572	-0.6316749
156	0xbf28db29	-0.6595941
157	0xbf18663f	-0.59531015
158	0xbeaa5995	-0.3327147
159	0xbece56e6	-0.40300673

bias f4 [5]
0	0x3e87d1ff	0.26527402
1	0x3df1a23a	0.117985204
2	0x3e16f742	0.14742759
3	0xbd259abd	-0.040430773
4	0xbf0d2338	-0.55131865
