models/mlpnet_90.pth (torch, 21725 bytes, 21 tensors)

weight f4 [3, 5]
-0.44527516 0.15821037 -0.8218248 -0.59110874 -0.22370929 -2.4935489 -0.2482515 -0.3621009
0.06140591 0.34675446 1.6545807 -2.184968 0.794528 -0.5175038 -0.52671725
00000000: 1bfb e3be e601 223e 1c63 52bf e752 17bf
00000010: 0c14 65be 4e96 1fc0 a435 7ebe 4a65 b9be
00000020: c384 7b3d cd89 b13e 4dc9 d33f 84d6 0bc0
00000030: 3066 4b3f 217b 04bf f1d6 06bf

weight f4 [3, 5]
-0.8827137 0.795974 1.431109 0.92338103 -0.06159871 -0.21833172 -0.17302664 -1.4523165
-0.5326399 -1.8137608 -0.44721353 1.636874 2.839003 -1.0386035 -0.047563996
00000000: 86f9 61bf f4c4 4b3f 942e b73f b362 6c3f
00000010: ee4e 7cbd 5a92 5fbe e52d 31be 82e5 b9bf
00000020: 175b 08bf 5029 e8bf 2cf9 e4be 1685 d13f
00000030: 3ab2 3540 f6f0 84bf 77d2 42bd

weight f4 [7, 9]
0.07951704 -1.3263417 -0.30123624 -0.49134102 -0.008173224 0.74728143 -0.48505384 -0.029438233
-1.0257572 0.78823155 -0.3156406 -0.4035878 -0.4478284 -0.26971406 0.44705892 1.0591388
-0.72986126 1.0987699 -0.7350086 1.2592866 0.7902474 -0.060592547 -0.06381279 1.2950387
0.6211551 0.6600601 -0.6367363 0.26597813 -0.49045274 -1.7268672 -0.520879 1.8524697
-1.5309441 0.39704984 -0.5846836 1.7018849 0.75987965 0.29520056 0.5045844 0.19080687
0.37525046 0.15426503 -0.9072234 -0.53481364 0.97727305 0.5079777 -0.99436975 0.8615496
-1.3110691 1.8991966 0.6459506 0.1946586 0.40180025 -1.6220964 -0.23775801 -0.8732179
-0.98943186 -0.0028487006 -0.69936734 0.44410163 -0.8327189 1.0839825 1.0416453
00000000: d4d9 a23d 91c5 a9bf a33b 9abe 0d91 fbbe
00000010: fce8 05bc d64d 3f3f fa58 f8be 7328 f1bc
00000020: 034c 83bf 8bc9 493f a59b a1be 0fa3 cebe
00000030: c449 e5be f617 8abe e8e4 e43e dc91 873f
00000040: 30d8 3abf 7ea4 8c3f 8629 3cbf 4e30 a13f
00000050: a74d 4a3f e42f 78bd 48b0 82bd d4c3 a53f
00000060: 0504 1f3f b3f9 283f 2601 23bf 492e 883e
00000070: 9f1c fbbe fc09 ddbf 5358 05bf ba1d ed3f
00000080: faf5 c3bf 1e4a cb3e d3ad 15bf 5dd7 d93f
00000090: 7987 423f 8724 973e 712c 013f e062 433e
000000a0: d420 c03e a7f7 1d3e cb3f 68bf 8ce9 08bf
000000b0: 912e 7a3f d40a 023f 048f 7ebf 848e 5c3f
000000c0: 1dd1 a7bf e018 f33f 055d 253f 9654 473e
000000d0: c3b8 cd3e dba0 cfbf d676 73be 358b 5fbf
000000e0: 684b 7dbf 44b1 3abb bd09 33bf 4a61 e33e
000000f0: 112d 55bf f0bf 8a3f a254 853f

weight f4 [40]
1.2025442 1.3795058 1.1399615 0.9738818 1.1325213 0.7778792 0.610738 0.7351653
0.74656224 0.77629644 0.9265649 0.9442353 0.7721725 1.0473552 0.732038 1.0654191
1.0246937 1.3985486 1.184594 0.9559492 0.95281047 0.97099936 0.79654795 0.9529039
0.82010716 0.83481234 1.0169506 0.9951722 0.9255835 1.096462 1.0554436 0.8980505
0.88665783 0.8394349 0.82654816 0.93816096 0.8585634 0.86908233 0.783747 0.7984908
00000000: f8ec 993f a593 b03f 42ea 913f 5150 793f
00000010: 75f6 903f 1723 473f 5359 1c3f cb33 3c3f
00000020: b41e 3f3f 5dbb 463f 5b33 6d3f 68b9 713f
00000030: 19ad 453f bc0f 863f d866 3b3f a75f 883f
00000040: 2a29 833f a403 b33f c7a0 973f 16b9 743f
00000050: 63eb 733f 6a93 783f 91ea 4b3f 83f1 733f
00000060: 8bf2 513f 43b6 553f 702b 823f 9bc3 7e3f
00000070: 0af3 6c3f de58 8c3f c718 873f a3e6 653f
00000080: 02fc 623f 35e5 563f a998 533f 512b 703f
00000090: d0ca 5b3f 2e7c 5e3f a5a3 483f e569 4c3f

bias f4 [40]
-0.0017318175 -0.029040705 0.02097752 -0.0058664097 0.007591003 -0.000185838 -0.016005907 0.005390642
-0.013178676 0.013951172 0.0013009474 -0.0076951184 0.014805439 0.019814624 0.012684162 0.0023239702
-0.008995928 -0.025795177 -0.01580772 0.003257739 -0.0021881699 0.009289176 -0.015465151 -0.013432111
-0.019458745 0.004976145 -0.0075600757 0.009338776 -0.022982143 -0.0004405497 0.021051554 7.25742e-05
0.025170749 0.0054684714 -3.703882e-05 -0.014695485 0.010287921 -0.005711676 -0.0076348535 0.016486876
00000000: 27fe e2ba c6e6 edbc 0cd9 ab3c 033b c0bb
00000010: f3bd f83b 82dd 42b9 d21e 83bc fca3 b03b
00000020: 60eb 57bc 7593 643c 8d84 aa3a 5527 fcbb
00000030: 8392 723c 4752 a23c 3bd1 4f3c c04d 183b
00000040: a863 13bc 6850 d3bc 317f 81bc ca7f 553b
00000050: 6667 0fbb a131 183c 8b61 7dbc 5b12 5cbc
00000060: f267 9fbc ee0e a33b 83ba f7bb aa01 193c
00000070: 0c45 bcbc 94f9 e6b9 4f74 ac3c fa32 9838
00000080: e332 ce3c dd30 b33b 215a 1bb8 55c5 70bc
00000090: ab8e 283c 0329 bbbb cb2d fabb 7c0f 873c

running_mean f4 [40]
0.57452095 8.047277 0.6959132 5.991785 0.08734673 0.5085417 0.03257109 0.24588391
0.20549232 0.83004946 0.39843976 0.41827285 0.043052506 2014.4056 15.946807 -0.009354628
-0.047836978 -0.71871394 0.026991736 0.031827938 -0.076103814 -1.3421459 -0.11184049 -0.5508732
-0.28049603 0.035481773 -0.6953628 0.5713513 0.72684634 0.4784128 -0.51759136 -0.22600946
-0.09612909 -0.098173015 -0.16672479 -0.10506339 0.711709 -0.17713183 0.6487782 0.1497177
00000000: ce13 133f a6c1 0041 5e27 323f b4bc bf40
00000010: d8e2 b23d ca2f 023f 4369 053d fec8 7b3e
00000020: 946c 523e 1f7e 543f 4c00 cc3e dc27 d63e
00000030: d357 303d fbcc fb44 1f26 7f41 2744 19bc
00000040: b5f0 43bd a3fd 37bf c61d dd3c 035e 023d
00000050: 51dc 9bbd 70cb abbf a00c e5bd 0706 0dbf
00000060: 2d9d 8fbe 5655 113d 4c03 32bf 1444 123f
00000070: 9a12 3a3f 86f2 f43e de80 04bf 066f 67be
00000080: 54df c4bd ef0e c9bd e7b9 2abe 7a2b d7bd
00000090: 9032 363f 0c62 35be 5416 263f 994f 193e

running_var f4 [40]
0.24622987 9.812419 0.21088704 2.1855302 0.017162161 0.2514141 0.0009842683 0.030062065
0.16411641 0.14201474 0.24003395 0.2429512 0.041503605 0.55778456 74.838165 0.48416927
0.5186734 0.10342131 0.38335148 0.55050606 0.4398006 1.3041699 0.18906824 0.11382876
0.103488654 0.08825052 0.08619763 0.21820869 1.7412745 0.48240194 0.5934927 0.23226044
1.0417131 0.74595046 0.1462044 0.57422715 0.24844301 0.49135587 0.2727518 0.992026
00000000: af23 7c3e abff 1c41 c6f2 573e badf 0b40
00000010: a997 8c3c 59b9 803e 9002 813a b844 f63c
00000020: 220e 283e 506c 113e 76cb 753e 33c8 783e
00000030: afff 293d f8ca 0e3f 24ad 9542 09e5 f73e
00000040: c8c7 043f 8dce d33d a546 c43e f7ed 0c3f
00000050: 8b2d e13e 0aef a63f 1b9b 413e 0e1f e93d
00000060: dcf1 d33d b0bc b43d 6288 b03d 1972 5f3e
00000070: 15e2 de3f 63fd f63e 23ef 173f aed5 6d3e
00000080: db56 853f 9cf6 3e3f 9bb6 153e 8d00 133f
00000090: d867 7e3e ff92 fb3e 20a6 8b3e 6af5 7d3f

weight f4 [32, 40]
0.05884852 -0.011310217 -0.13116297 0.062185317 0.19021893 0.11618202 0.095711194 0.047349747
0.2696647 0.06769003 -0.078642555 -0.21980968 0.048094623 -0.08723257 0.11904497 -0.09288859
0.11875151 0.60807097 -0.20337524 0.06761185 0.30376846 -0.25436124 -0.030824129 0.048509505
-0.13951051 -0.1344065 0.15051863 -0.03304146 0.14752379 -0.14437509 -0.10867102 -0.12569954
0.13713603 -0.12239903 0.10331955 -0.21711394 0.09507877 0.042267606 -0.1194359 0.2795977
-0.037148684 0.06476004 0.33063254 0.028491748 -0.14511675 -0.07723845 -0.03153654 -0.17605141
-0.1405707 -0.020281533 0.0069458955 0.32238215 0.22669527 -0.29128906 -0.31357566 0.21377747
-0.25782433 -0.09866028 -0.014621159 -0.075640954 0.2314124 0.020120498 0.03412287 0.1340974
-0.31667683 -0.10187462 -0.34369096 0.35210434 0.13804947 0.07249429 -0.04658384 0.19576581
-0.11329853 0.22172788 0.22923024 -0.33302996 0.052714292 0.2582873 0.055206757 -0.2245135
-0.07902244 0.51110935 -0.32665062 0.03472926 0.25039726 0.040264696 -0.09573998 -0.033300355
-0.09499485 -0.0983613 0.005351301 0.0014203382 -0.07747948 -0.26177865 -0.13905032 -0.033569433
0.13528109 -0.3579894 0.1119132 -0.061714243 0.006084899 -0.1565258 0.12466246 0.011459479
-0.00999699 -0.08776247 0.2178752 0.19826129 0.23146528 0.05532826 -0.22313403 -0.07950748
-0.1477152 0.061504535 -0.091151536 0.074366964 -0.052098684 0.17095251 0.21656464 0.031716786
-0.4440092 -0.05785413 0.22486708 -0.07186007 -0.43329757 -0.04987311 -0.18704648 -0.10846178
-0.12450705 0.023111528 -0.025008924 0.15544154 -0.012831966 -0.038615018 0.0031289132 -0.13186339
-0.14391303 -0.17368549 0.004833103 0.16076845 0.058977183 -0.098135985 -0.10942923 -0.26644313
-0.31397247 0.2518307 0.2584496 0.05749962 -0.103772596 0.19770251 -0.034634702 0.075873114
0.13608474 -0.13387957 -0.057623304 -0.18676375 0.04649781 0.07603444 -0.20263954 -0.11605473
0.22422828 -0.35176793 0.1518709 0.09786514 0.024067445 0.13818753 -0.06931689 -0.023231678
-0.27781886 -0.08917455 -0.1268921 0.12979242 -0.09535841 0.3132921 0.07232213 0.0383872
-0.063983314 -0.049198236 -0.1259089 0.07533208 -0.33970535 0.03341705 -0.07994149 -0.20050634
0.0008979482 0.16620809 -0.16582315 0.017236857 0.17244302 -0.0341092 -0.12241109 0.20315017
0.022615526 -0.10118875 0.17178822 0.25707337 0.05827651 0.09093035 0.2704678 0.23174554
0.2593951 0.20917387 -0.05059939 0.080534905 -0.02641793 0.16006021 0.13168167 0.12108157
-0.09857671 -0.027426424 -0.2851194 0.020649213 -0.03298305 -0.11540857 0.07494734 0.19405721
-0.20214337 -0.08603181 0.16245215 -0.05342835 0.21014874 0.18766408 -0.044305973 -0.17651565
0.0053166677 0.07766613 0.03730592 -0.26194978 -0.095426574 -0.13091573 -0.32166132 -0.26008457
-0.15022965 -0.10670038 -0.26476428 -0.011388791 -0.18670364 0.33915085 0.24286264 0.20264694
0.2575622 0.16107844 -0.050884444 0.08755033 -0.24726789 0.17039101 0.019638292 -0.15023674
-0.013281797 -0.091732845 -0.118813016 0.024863673 -0.0016727663 0.24876927 -0.099248745 0.17688392
00000000: 250b 713d 7d4e 39bc 964f 06be 08b6 7e3d
00000010: c0c8 423e d7f0 ed3d 3b04 c43d cff1 413d
00000020: 7e11 8a3e 12a1 8a3d 590f a1bd ca15 61be
00000030: defe 443d fda6 b2bd d9cd f33d 603c bebd
00000040: fe33 f33d 8aaa 1b3f 9941 50be 1578 8a3d
00000050: 8a87 9b3e a33b 82be e282 fcbc e7b1 463d
00000060: d8db 0ebe dca1 09be 8e21 1a3e 7b56 07bd
00000070: 7a10 173e 10d7 13be e98e debd 61b7 00be
00000080: 636d 0c3e 58ac fabd 3399 d33d 1e53 5ebe
00000090: a8b8 c23d cc20 2d3d cf9a f4bd 6e27 8f3e
000000a0: 3829 18bd e9a0 843d ab48 a93e 8767 e93c
000000b0: 7c99 14be 312f 9ebd 752c 01bd d246 34be
000000c0: c4f1 0fbe 7525 a6bc 659a e33b 460f a53e
000000d0: ce22 683e d723 95be fd8c a0be 7be8 5a3e
000000e0: 8d01 84be 670e cabd 968d 6fbc a5e9 9abd
000000f0: 5ff7 6c3e bed3 a43c 6cc4 0b3d d450 093e
00000100: 7723 a2be a4a3 d0bd 43f8 afbe 0547 b43e
00000110: d75c 0d3e e377 943d b2ce 3ebd d576 483e
00000120: 0f09 e8bd a20c 633e 55bb 6a3e e782 aabe
00000130: f1ea 573d 3c3e 843e 7b20 623d dee6 65be
00000140: 84d6 a1bd 10d8 023f c03e a7be 4540 0e3d
00000150: 1234 803e 98ec 243d 5313 c4bd f465 08bd
00000160: a98c c2bd a671 c9bd f759 af3b a42a ba3a
00000170: 90ad 9ebd da07 86be 3563 0ebe 1a80 09bd
00000180: 2087 0a3e 634a b7be bf32 e53d 13c8 7cbd
00000190: d563 c73b 4d48 20be 084f ff3d 8ac0 3b3c
000001a0: 6aca 23bc cfbc b3bd ad1a 5f3e 0205 4b3e
000001b0: 3c05 6d3e e39f 623d 3f7d 64be d1d4 a2bd
000001c0: a742 17be 2eec 7b3d a8ad babd b54d 983d
000001d0: 6e65 55bd 2d0e 2f3e 1fc3 5d3e 76e9 013d
000001e0: 2d55 e3be 74f8 6cbd 8e43 663e 5f2b 93bd
000001f0: 2ed9 ddbe bf47 4cbd 1d89 3fbe 3621 debd
00000200: 8dfd febd 6354 bd3c 84df ccbc 112c 1f3e
00000210: 2b3d 52bc c82a 1ebd 740e 4d3b 3207 07be
00000220: f05d 13be 9cda 31be 025f 9e3b 7ca0 243e
00000230: 0f92 713d 85fb c8bd 6f1c e0bd 3c6b 88be
00000240: 00c1 a0be f4ef 803e 8253 843e b984 6b3d
00000250: ba86 d4bd 8772 4a3e 1edd 0dbd 5d63 9b3d
00000260: cc59 0b3e ba17 09be 6a06 6cbd ff3e 3fbe
00000270: 7d74 3e3d f2b7 9b3d bd80 4fbe 1aae edbd
00000280: 199c 653e ed1a b4be 0c84 1b3e 856d c83d
00000290: 1729 c53c 0881 0d3e 03f6 8dbd 5c50 bebc
000002a0: 463e 8ebe 25a1 b6bd 01f0 01be 4ee8 043e
000002b0: 454b c3bd d267 a03e a01d 943d e63b 1d3d
000002c0: af09 83bd 1784 49bd 43ee 00be b547 9a3d
000002d0: dced adbe 51e0 083d 5db8 a3bd 8951 4dbe
000002e0: 4964 6b3a 7432 2a3e 8bcd 29be 4f34 8d3c
000002f0: e794 303e 17b6 0bbd aab2 fabd 9906 503e
00000300: 3244 b93c 0c3c cfbd 40e9 2f3e 1f9f 833e
00000310: 5ab3 6e3d b139 ba3d c17a 8a3e b44e 6d3e
00000320: 6fcf 843e ad31 563e 4e41 4fbd 7cef a43d
00000330: 6a6a d8bc d3e6 233e 8fd7 063e 9df9 f73d
00000340: 96e2 c9bd 61ad e0bc 2cfb 91be 8a28 a93c
00000350: 3c19 07bd 545b ecbd fe7d 993d efb6 463e
00000360: acfe 4ebe 7231 b0bd db59 263e afd7 5abd
00000370: 3b31 573e 032b 403e 2e7a 35bd 85c0 34be
00000380: 7137 ae3b 6c0f 9f3d 18ce 183d 481e 86be
00000390: 026f c3bd c60e 06be cbb0 a4be ce29 85be
000003a0: cdd5 19be bb85 dabd 2f8f 87be 0d98 3abc
000003b0: 3d2f 3fbe 2ea5 ad3e fcb0 783e ae82 4f3e
000003c0: 31df 833e bff1 243e 356c 50bd 964d b33d
000003d0: cb33 7dbe fb7a 2e3e 7ce0 a03c a9d7 19be
000003e0: e59b 59bc 6ede bbbd 3d54 f3bd e7ae cb3c
000003f0: b940 dbba 5fbd 7e3e ed42 cbbd 0f21 353e

bias f4 [32]
-0.060842417 -0.015189539 0.0555273 -0.011350773 -0.018535288 -0.0031046704 -0.12656237 -0.11342569
-0.10216988 0.1350403 -0.10963781 0.14641753 -0.013069269 0.14180762 -0.06554381 -0.11840911
0.057077844 0.11426364 0.1377293 0.15025672 -0.049738113 0.023193205 0.08750465 -0.045865055
-0.00067823124 0.07204199 0.09119224 -0.14545447 -0.13911185 0.1105506 -0.014549464 0.019317279
00000000: e635 79bd 8bdd 78bc 9870 633d 98f8 39bc
00000010: 51d7 97bc ba77 4bbb 9199 01be ba4b e8bd
00000020: 713e d1bd 0148 0a3e ca89 e0bd 7aee 153e
00000030: 7d20 56bc 0436 113e d53b 86bd 7a80 f2bd
00000040: 75ca 693d 0e03 ea3d e908 0d3e e6dc 193e
00000050: 31ba 4bbd adff bd3c a335 b33d ffdc 3bbd
00000060: 54cb 31ba c08a 933d ffc2 ba3d 04f2 14be
00000070: 5673 0ebe 5a68 e23d e060 6ebc 453f 9e3c

weight f4 [32]
0.8828848 1.0351216 1.1268518 0.9993874 0.9465321 0.974523 0.913497 1.0346448
0.9916589 1.0086436 0.93129086 0.9718746 0.9744224 1.0745448 0.9435798 0.9590139
0.9237907 0.8803132 1.0588534 0.84512305 1.1296337 0.8684258 0.9928443 0.9176159
0.9370425 1.0691876 0.95787644 1.0280207 1.0057333 1.1400933 1.002975 0.9429673
00000000: bd04 623f dd7e 843f ae3c 903f dad7 7f3f
00000010: ed4f 723f 577a 793f f0da 693f 3e6f 843f
00000020: 5cdd 7d3f 3c1b 813f 1469 6e3f c6cc 783f
00000030: bf73 793f af8a 893f 728e 713f ef81 753f
00000040: 8c7d 6c3f 355c 613f 8288 873f fc59 583f
00000050: d697 903f 2751 5e3f 0b2b 7e3f e0e8 6a3f
00000060: 04e2 6f3f 24db 883f 6437 753f 2f96 833f
00000070: debb 803f 94ee 913f 7c61 803f 4e66 713f

bias f4 [32]
-0.05003223 0.20274244 -0.25395545 0.28307375 0.0376842 -0.05571797 -0.0030206582 -0.17837732
-0.16437897 0.034514803 -0.05383773 -0.3325235 -0.13420531 0.019934228 0.1592986 -0.032055188
0.1721416 0.30704966 0.043929387 -0.15790024 -0.18179633 -0.058694053 -0.004950929 -0.14800638
0.0966929 -0.14126103 0.15229256 0.18673404 -0.2469085 0.040929515 -0.09906652 0.016663376
00000000: 98ee 4cbd b79b 4f3e 7306 82be 0bef 903e
00000010: bf5a 1a3d 8738 64bd 3cf6 45bb 8ba8 36be
00000020: f652 28be 655f 0d3d f484 5cbd 8540 aabe
00000030: 1e6d 09be 1b4d a33c 2c1f 233e 4d4c 03bd
00000040: e345 303e 9d35 9d3e 4def 333d 9ab0 21be
00000050: d128 3abe 2d69 70bd 673b a2bb fc8e 17be
00000060: ed06 c63d bba6 10be 95f2 1b3e 3537 3f3e
00000070: 95d5 7cbe b5a5 273d 63e3 cabd a281 883c

running_mean f4 [32]
-0.073713526 -0.010487891 0.014149771 0.018336264 0.0046187565 -0.0217102 -0.1343675 -0.08127456
-0.1163708 0.11944773 -0.1181299 0.15772022 0.002975165 0.1697852 -0.0755732 -0.11888892
0.036382362 0.10587014 0.15216398 0.17210007 -0.09471555 0.020967016 0.10062952 -0.018624298
-0.009552391 0.07078355 0.09466219 -0.17187822 -0.12979256 0.08434837 -0.03487525 0.034180157
00000000: 1ef7 96bd 67d5 2bbc 71d4 673c ef35 963c
00000010: f058 973b 97d9 b1bc a297 09be 4773 a6bd
00000020: d053 eebd 03a1 f43d 17ee f1bd 6981 213e
00000030: fcfa 423b 2cdc 2d3e 1fc6 9abd 097c f3bd
00000040: ac05 153d 72d2 d83d e0d0 1b3e 003b 303e
00000050: 3afa c1bd 05c3 ab3c da16 ce3d fc91 98bc
00000060: a281 1cbc f7f6 903d 40de c13d d800 30be
00000070: 57e8 04be d7be ac3d 5ad9 0ebd 7e00 0c3d

running_var f4 [32]
1.5137285 1.9361744 0.99113435 1.1395074 0.74132174 1.5415013 0.9227695 1.544957
0.81629837 0.8351131 0.7344803 1.5021881 2.0950696 1.6762862 0.7420329 1.181632
0.7777455 1.2055559 0.97247434 2.0435069 1.5640578 1.1628782 2.0541103 1.7507108
1.6113405 0.8503812 1.6560363 1.4980811 2.1183922 1.6606349 1.004063 1.6817576
00000000: dbc1 c13f 90d4 f73f fbba 7d3f 61db 913f
00000010: 43c7 3d3f ea4f c53f 9f3a 6c3f 27c1 c53f
00000020: eef8 503f f9c9 553f e706 3c3f b347 c03f
00000030: 9f15 0640 8c90 d63f def5 3d3f b83f 973f
00000040: 541a 473f a84f 9a3f 14f4 783f d1c8 0240
00000050: 0c33 c83f 31d9 943f 8b76 0340 4b17 e03f
00000060: 6840 ce3f 95b2 593f fff8 d33f 1fc1 bf3f
00000070: bd93 0740 af8f d43f 2385 803f d543 d73f

weight f4 [32, 32]
-0.10314989 0.23191942 0.12293284 0.16772333 -0.07251253 -0.16377918 0.29245874 -0.09195504
-0.104476996 0.20075503 -0.14653915 0.16600198 -0.032139033 0.18777113 0.089991465 -0.017852942
-0.2510821 -0.017610988 0.03928575 -0.011652611 -0.2529505 -0.080226876 -0.18181269 -0.09286458
-0.12689948 -0.26065224 0.13078958 0.18921472 0.122892916 0.2921277 0.3453809 -0.14519867
0.0984284 -0.09167216 0.019973136 0.2259632 0.28310695 0.19406123 0.08042037 0.033993725
-0.040144876 0.2062496 0.07380732 0.18270077 0.31799862 0.0802415 0.039799586 -0.20170777
0.19790617 -0.22545946 0.28611508 0.08997965 -0.037410624 0.051284675 -0.4150149 -0.3583884
0.016493918 0.28568524 -0.09348808 -0.16012524 -0.009246574 0.10165215 -0.026870057 -0.020647455
0.032842573 0.1525187 0.0691395 0.13608229 0.25580615 -0.07434818 0.15998062 0.36084646
0.06774918 -0.22979009 0.15270743 -0.18025163 -0.019582976 0.02582428 -0.37099412 0.08980269
-0.107580215 -0.12828161 -0.1925378 -0.25320965 0.10928503 -0.13770454 0.3362548 0.122172624
0.20448223 -0.110107765 -0.12034892 0.050029233 -0.15976934 -0.2226968 -0.17165503 -0.006879016
-0.07961549 0.013464081 -0.093607955 -0.30367872 0.24840325 0.21080974 0.08709268 0.19796745
0.20017026 -0.042421605 0.2426373 -0.2780361 -0.016863324 0.2324216 0.16320522 -0.06035815
0.16216095 0.10443895 -0.061136622 -0.26476142 -0.24576685 -0.17220306 -0.12083829 -0.25199658
-0.3243144 0.2636448 -0.0699402 0.12729973 0.09107796 -0.24727876 -0.13053533 0.030673986
0.30610484 0.25158307 -0.22484306 -0.2860514 0.085528456 -0.31501618 0.04213025 -0.00015251947
0.100717954 -0.026404783 0.03355217 0.04878473 0.21423501 -0.027886387 -0.2755585 0.043889288
0.0022258426 0.0038251537 0.34021255 -0.102692515 0.20958093 -0.087959066 0.101556465 -0.0261226
0.2174325 -0.09884313 0.31288058 0.19831054 0.082043 0.408966 0.018992847 -0.03736291
0.15334387 -0.25467312 0.02269876 0.2776781 -0.13202459 -0.15965246 0.23572795 0.1495629
0.07663176 -0.17335059 0.06056111 -0.08938677 -0.2564463 0.3219879 0.1883434 -0.08292843
-0.09097976 -0.17954805 0.029018229 -0.03143419 -0.25766394 -0.03817761 -0.093565024 0.051155575
-0.22391587 -0.18272035 0.24901354 -0.054138917 0.25190076 -0.08932431 -0.06259734 -0.09733317
-0.049426716 0.066734634 -0.3697828 0.091885574 0.08958583 0.052525874 0.33675897 0.0926747
-0.36428884 0.117076 0.1446359 -0.17074676 -0.06105223 -0.37761453 -0.00064707396 0.16064541
-0.018857054 -0.18226841 -0.10987686 0.16697483 0.044143707 0.32115772 -0.20153514 0.09688942
0.006267269 -0.27185512 0.13228145 -0.13020582 -0.12868518 0.15982287 0.032992374 0.046451736
-0.17000228 0.22561257 0.017755102 0.2036802 0.23396535 -0.025782516 -0.16158651 0.24744731
-0.06678993 -0.15871891 0.22249776 0.1785536 0.3687178 -0.42381436 0.074729286 -0.11831687
0.17983468 0.1221059 0.03174498 0.19541053 -0.04687988 0.25464433 0.049261436 -0.34597293
0.06982153 0.09446969 0.046207733 0.002601983 -0.18707097 -0.0784984 -0.14371035 0.041500133
00000000: 4040 d3bd 497c 6d3e 36c4 fb3d aabf 2b3e
00000010: 7381 94bd bbb5 27be 27bd 953e ed52 bcbd
00000020: 09f8 d5bd ba92 4d3e 5c0e 16be 6cfc 293e
00000030: 38a4 03bd 1347 403e 724d b83d 5540 92bc
00000040: d58d 80be eb44 90bc 18ea 203d 98ea 3ebc
00000050: ba82 81be fd4d a4bd 1b2d 3abe c92f bebd
00000060: f0f1 01be 3674 85be b4ed 053e 81c1 413e
00000070: 48af fb3d c391 953e c4d5 b03e f6ae 14be
00000080: d494 c93d 9dbe bbbd b49e a33c e662 673e
00000090: 65f3 903e fdb7 463e 6fb3 a43d 013d 0b3d
000000a0: f46e 24bd 1833 533e 4b28 973d e915 3b3e
000000b0: b7d0 a23e a855 a43d e404 233d 7b8c 4ebe
000000c0: eaa7 4a3e d8de 66be ad7d 923e 4047 b83d
000000d0: e23b 19bd e10f 523d d57c d4be af7e b7be
000000e0: 411e 873c 5645 923e ae76 bfbd dff7 23be
000000f0: f17e 17bc 012f d03d 981e dcbc da24 a9bc
00000100: ef85 063d dd2d 1c3e 0399 8d3d 2859 0b3e
00000110: 06f9 823e dc43 98bd f6d1 233e dec0 b83e
00000120: 15c0 8a3d 184e 6bbe 565f 1c3e e293 38be
00000130: 7a6c a0bc 718d d33c f1f2 bdbe 79ea b73d
00000140: 0453 dcbd 415c 03be a128 45be b2a4 81be
00000150: d4d0 df3d 6b02 0dbe 9729 ac3e a435 fa3d
00000160: ca63 513e 2e80 e1bd 7f79 f6bd 74eb 4c3d
00000170: 939a 23be a10a 64be 56c6 2fbe 5e69 e1bb
00000180: 720d a3bd 7398 5c3c 87b5 bfbd c77b 9bbe
00000190: 6c5d 7e3e 82de 573e a65d b23d fbb7 4a3e
000001a0: 6ff9 4c3e 47c2 2dbd ea75 783e bf5a 8ebe
000001b0: f424 8abc eeff 6d3e 451f 273e 1c3a 77bd
000001c0: 850d 263e 17e4 d53d 656a 7abd cf8e 87be
000001d0: 4eaa 7bbe 0056 30be 117a f7bd b205 81be
000001e0: 890c a6be 74fc 863e cf3c 8fbd dc5a 023e
000001f0: 1587 ba3d a536 7dbe 0eab 05be 0348 fb3c
00000200: c6b9 9c3e 7fcf 803e 423d 66be 5475 92be
00000210: 8b29 af3d cd49 a1be c590 2c3d a2ed 1fb9
00000220: 3745 ce3d d84e d8bc 006e 093d 7fd2 473d
00000230: 6c60 5b3e fe71 e4bc 0116 8dbe 41c5 333d
00000240: 71df 113b 6eaf 7a3b 5730 ae3e 7450 d2bd
00000250: 629c 563e e223 b4bd d6fc cf3d 10ff d5bc
00000260: a0a6 5e3e 446e cabd e231 a03e eb11 4b3e
00000270: 2906 a83d fe63 d13e e396 9b3c da09 19bd
00000280: 2d06 1d3e 8464 82be c0f2 b93c d32b 8e3e
00000290: 7431 07be ef7b 23be ab62 713e 0427 193e
000002a0: 1df1 9c3d d182 31be ed0e 783d 6910 b7bd
000002b0: ee4c 83be 99db a43e 18dd 403e 61d6 a9bd
000002c0: 9953 babd 72db 37be a3b7 ed3c 23c1 00bd
000002d0: 87ec 83be 2060 1cbd 059f bfbd 8288 513d
000002e0: 344a 65be 0b1b 3bbe 68fd 7e3e c5c0 5dbd
000002f0: 23f9 803e aaef b6bd 0933 80bd 9d56 c7bd
00000300: ab73 4abd 2bac 883d 2c54 bdbe 812e bc3d
00000310: c778 b73d 5f25 573d ac6b ac3e 3ccc bd3d
00000320: 1184 babe 8bc5 ef3d 6f1b 143e 3dd8 2ebe
00000330: e711 7abd b156 c1be 66a0 29ba 3b80 243e
00000340: 1c7a 9abc 92a4 3abe 1f07 e1bd 73fb 2a3e
00000350: 08d0 343d c96e a43e 3a5f 4ebe f66d c63d
00000360: aa5d cd3b 9830 8bbe ca74 073e ad54 05be
00000370: 0cc6 03be 9ba8 233e 0323 073d 2d44 3e3d
00000380: 1415 2ebe fb06 673e 2673 913c 8b91 503e
00000390: 9d94 6f3e db35 d3bc ef76 25be d462 7d3e
000003a0: 29c9 88bd 3687 22be 74d6 633e c1d6 363e
000003b0: 94c8 bc3e 32fe d8be ab0b 993d 1d50 f2bd
000003c0: 9526 383e a812 fa3d 0607 023d b319 483e
000003d0: 1e05 40bd be60 823e 5cc6 493d 5d23 b1be
000003e0: 97fe 8e3d 5379 c13d 5244 3d3d 0886 2a3b
000003f0: 888f 3fbe c5c3 a0bd ce28 13be 0bfc 293d

bias f4 [32]
-0.1428259 -0.021977251 0.16258693 0.06685825 -0.18641613 0.03921423 0.08075344 -0.16313516
0.035837233 0.11377485 -0.10613996 -0.17111956 -0.09849273 0.028206866 0.03437904 -0.03884241
0.049280915 -0.112171665 -0.046574887 -0.17531303 0.1940517 -0.045647733 -0.039678387 0.17004451
-0.05579357 0.06273321 -0.0599255 0.0047099646 0.009899684 -0.11064619 -0.19238095 -0.14518082
00000000: f440 12be a309 b4bc 307d 263e faec 883d
00000010: dfe3 3ebe 1a9f 203d 0f62 a53d e70c 27be
00000020: 10ca 123d ca02 e93d e85f d9bd f739 2fbe
00000030: 8eb6 c9bd 1612 e73c 09d1 0c3d 3819 1fbd
00000040: c9da 493d 42ba e5bd 4fc5 3ebd 4285 33be
00000050: 7db5 463e 1ef9 3abd ce85 22bd 2620 2e3e
00000060: cc87 64bd 457a 803d 7174 75bd 0c56 9a3b
00000070: 4932 223c 789a e2bd 83ff 44be 48aa 14be

weight f4 [32]
1.3604753 1.2398866 1.3321419 1.516675 1.2804617 1.5213425 1.2683392 1.3334007
1.5085372 1.2859418 1.2125448 1.2294931 1.1711375 1.3294624 1.2062316 1.1553422
1.5125183 1.2086732 1.2896491 1.1968977 1.3629789 1.516705 1.2124488 1.4795674
1.1969612 1.2064868 1.3737457 1.4401119 1.2849245 1.4872829 1.3671916 1.2620484
00000000: 0e24 ae3f 9bb4 9e3f a083 aa3f 6822 c23f
00000010: 2be6 a33f 5abb c23f f058 a23f e0ac aa3f
00000020: bf17 c13f be99 a43f ab34 9b3f 0860 9d3f
00000030: d5e7 953f d32b aa3f cc65 9a3f 41e2 933f
00000040: 339a c13f ceb5 9a3f 3913 a53f f233 993f
00000050: 1876 ae3f 6423 c23f 8631 9b3f 7762 bd3f
00000060: 0636 993f 296e 9a3f e6d6 af3f 9655 b83f
00000070: 6878 a43f 495f be3f 2200 af3f cd8a a13f

bias f4 [32]
0.26281953 0.106870376 0.24221067 0.21908334 -0.16676457 -0.11015463 -0.087742954 0.20818676
0.27094758 0.10137468 0.24377012 0.030287875 -0.13283505 0.4059861 0.110671796 -0.035725992
0.51206684 0.29853573 0.011404962 -0.09410724 0.35399988 0.07083598 -0.14140618 0.17965563
0.0059983646 0.09170239 0.15487368 -0.011387226 0.26243097 -0.09906068 0.16185708 0.018611403
00000000: 4890 863e dbde da3d 1306 783e 6257 603e
00000010: 55c4 2abe c098 e1bd 94b2 b3bd e92e 553e
00000020: a4b9 8a3e 879d cf3d e09e 793e 471e f83c
00000030: e905 08be 69dd cf3e e5a7 e23d 6b55 12bd
00000040: d016 033f add9 983e e1db 3a3c 4cbb c0bd
00000050: 793f b53e 7412 913d c8cc 10be a5f7 373e
00000060: ee8d c43b 76ce bb3d 3597 1e3e 7d91 3abc
00000070: 5a5d 863e 53e0 cabd ddbd 253e f176 983c

running_mean f4 [32]
0.12525858 0.33592105 0.101275735 -0.03799565 0.41132107 -0.14733307 0.004037723 0.19701244
-0.38549548 0.18520088 0.70677406 -0.4952068 -0.18168981 -0.05609046 -0.27323946 -0.0070797266
-0.30482745 0.124410786 -0.37801877 -0.3994677 -0.20066124 -0.360997 0.052876238 -0.14096464
-0.06357916 -0.28745168 0.046930127 -0.0532193 -0.18819837 0.2536443 0.34496576 -0.20177098
00000000: c943 003e d8fd ab3e a769 cf3d 54a1 1bbd
00000010: ad98 d23e 7bde 16be e04e 843b a1bd 493e
00000020: aa5f c5be 4da5 3d3e 25ef 343f bf8b fdbe
00000030: e50c 3abe 1cbf 65bd 0be6 8bbe 0dfd e7bb
00000040: 5812 9cbe 15cb fe3d ad8b c1be 0887 ccbe
00000050: 247a 4dbe 99d4 b8be c194 583d 0959 10be
00000060: ca35 82bd de2c 93be ce39 403d 7bfc 59bd
00000070: 13b7 40be aadd 813e 5a9f b03e 0d9d 4ebe

running_var f4 [32]
0.1591291 0.4164928 0.44158092 0.3476207 0.40078726 0.3119136 0.3208029 0.26324195
0.25498462 0.23105317 0.42618906 0.25592548 0.40930095 0.20839618 0.643044 0.1988963
0.438754 0.620065 0.23425709 0.25267756 0.11226638 0.17258683 0.1384875 0.42600608
0.19409716 0.99021095 0.14555411 0.4788335 0.39440563 0.28578183 0.39661637 0.25460976
00000000: bdf2 223e 8b3e d53e e516 e23e 57fb b13e
00000010: fd33 cd3e 24b3 9f3e 4740 a43e a6c7 863e
00000020: 588d 823e 3499 6c3e 7435 da3e aa08 833e
00000030: e58f d13e cf65 553e 889e 243f 79ab 4b3e
00000040: 5da4 e03e 94bc 1e3f 17e1 6f3e f45e 813e
00000050: eaeb e53d 9aba 303e abcf 0d3e 781d da3e
00000060: 68c1 463e 777e 7d3f 230c 153e aa29 f53e
00000070: 89ef c93e ff51 923e 4d11 cb3e 365c 823e

weight f4 [5, 32]
0.3960425 -0.22850794 0.041332014 0.1733821 -0.0914854 0.569859 -0.0044783247 0.308887
-0.33497128 0.08635957 0.07431534 0.3203408 -0.16434999 0.20138387 -0.32072625 -0.20261054
0.14280075 0.022977963 -0.1201159 -0.3238185 0.20169133 0.19211166 -0.23414695 0.2041063
-0.19845808 -0.14908071 0.15064615 -0.4355835 0.059042614 -0.36531162 0.45463136 -0.30940592
0.035151754 0.14970788 -0.43398368 -0.24572769 0.025950959 0.28003854 -0.38324878 -0.08234903
0.15514036 -0.23925799 0.0384584 -0.0032299375 0.19063015 -0.012084179 -0.07684645 0.18312699
0.117258504 -0.14366771 0.18221255 0.09450676 -0.21886732 -0.46935776 0.1286035 -0.4727585
-0.115813546 -0.33850724 -0.57336706 0.08495747 -0.0610542 0.16088651 -0.2989959 0.18115978
0.15358078 -0.113274924 0.32090792 0.06317159 -0.091769405 -0.47313455 -0.11503769 -0.12978142
0.20913081 -0.30683938 0.29647967 -0.07770101 -0.31720904 0.04563353 0.24471685 0.3386523
-0.013500164 -0.0024999962 -0.5115999 -0.19027115 0.15151499 -0.2885413 -0.13859248 -0.020790357
-0.46867758 0.084035665 0.111324795 0.14266828 0.03886966 -0.40305427 0.022228604 0.27458596
-0.0615028 0.2672353 -0.10820607 0.24810304 0.4126154 -0.27526054 0.26067212 0.16555977
0.13180226 0.28410903 0.06838872 -0.30446398 0.10635644 -0.106134616 0.21830226 -0.10907212
-0.16554941 0.2132073 0.16882263 0.097586766 -0.16299398 0.28640783 0.34295747 0.14796922
0.22928508 0.09152258 -0.037805457 0.06680229 0.39317235 0.070142895 -0.16733284 0.0024987722
-1.4930478 -0.47147986 -1.3990157 -1.2932168 -0.5600621 -0.3590071 -0.66101277 -1.150734
-1.1898609 -0.80113107 -1.3264228 -1.0410227 -0.93055046 -1.5653572 -0.66104734 -0.6405312
-2.2542753 -1.4986244 -0.97698075 -0.7131154 -1.0634542 -0.79370916 -0.14391968 -1.4546462
-0.4416337 -1.466005 -0.8673074 -1.0031129 -1.0922743 -0.91252935 -0.78120106 -0.7352151
00000000: 15c6 ca3e fcfd 69be c24b 293d 148b 313e
00000010: b35c bbbd 48e2 113f e9be 92bb 7026 9e3e
00000020: 5b81 abbe 49dd b03d a432 983d b603 a43e
00000030: 5d4b 28be 9337 4e3e 3b36 a4be 2379 4fbe
00000040: 5c3a 123e 483c bc3c 53ff f5bd 8acb a5be
00000050: 2c88 4e3e ebb8 443e 38c4 6fbe 3e01 513e
00000060: 9838 4bbe 9da8 18be fc42 1a3e cd04 dfbe
00000070: abd6 713d 200a bbbe 71c5 e83e 746a 9ebe
00000080: 49fb 0f3d 064d 193e 1c33 debe 0aa0 7bbe
00000090: 1b97 d43c 3661 8f3e 2f39 c4be 9ca6 a8bd
000000a0: 1ddd 1e3e 0c00 75be 8e86 1d3d 5cad 53bb
000000b0: 8d34 433e b8fc 45bc ac61 9dbd a485 3b3e
000000c0: 3a25 f03d a11d 13be ed95 3a3e c38c c13d
000000d0: c11e 60be a94f f0be a3b0 033e 670d f2be
000000e0: a72f edbd d250 adbe 2fc8 12bf 2ffe ad3d
000000f0: f813 7abd 6fbf 243e fe15 99be f381 393e
00000100: 4844 1d3e affc e7bd 0b4e a43e 1b60 813d
00000110: 99f1 bbbd b13e f2be e198 ebbd 6ce5 04be
00000120: 6326 563e 0d1a 9dbe 2fcc 973e b521 9fbd
00000130: 3969 a2be 39ea 3a3d 0e97 7a3e d663 ad3e
00000140: cb2f 5dbc fad6 23bb 36f8 02bf 71d6 42be
00000150: bf26 1b3e afbb 93be 30eb 0dbe 8a50 aabc
00000160: 82f6 efbe e41a ac3d 41fe e33d a217 123e
00000170: cb35 1f3d 215d cebe c318 b63c 8896 8c3e
00000180: 5cea 7bbd 11d3 883e 259b ddbd b90e 7e3e
00000190: 5342 d33e f3ee 8cbe d176 853e 8088 293e
000001a0: 2cf7 063e bd76 913e 630f 8c3d b4e2 9bbe
000001b0: 68d1 d93d 1b5d d9bd a18a 5f3e 3461 dfbd
000001c0: c985 29be 0453 5a3e d7df 2c3e 92db c73d
000001d0: e5e7 26be 0ca4 923e 1f98 af3e 3e85 173e
000001e0: b5c9 6a3e 3170 bb3d e5d9 1abd a4cf 883d
000001f0: e34d c93e 14a7 8f3d 4d59 2bbe 71c2 233b
00000200: 311c bfbf cf65 f1be f212 b3bf 2188 a5bf
00000210: 3b60 0fbf c7cf b7be 2238 29bf 404b 93bf
00000220: 5d4d 98bf ed16 4dbf 39c8 a9bf 3b40 85bf
00000230: 8e38 6ebf a05d c8bf 663a 29bf daf9 23bf
00000240: 0c46 10c0 edd2 bfbf 691b 7abf bb8e 36bf
00000250: 441f 88bf 8630 4bbf ae5f 13be d931 babf
00000260: d01d e2be 0da6 bbbf dc07 5ebf 0166 80bf
00000270: a5cf 8bbf 869b 69bf cbfc 47bf 0f37 3cbf

bias f4 [5]
0.28253382 0.15928793 0.14052777 -0.07559445 -1.2541398
00000000: 46a8 903e 601c 233e 83e6 0f3e 43d1 9abd
00000010: a787 a0bf
