models/mlpnet_60.pth (torch, 21725 bytes, 21 tensors)

weight f4 [3, 5]
0	0xbee1fbc5	-0.44137397
1	0x3deb2240	0.11481142
2	0xbf505a26	-0.81387556
3	0xbf1c498f	-0.6104974
4	0xbe70490a	-0.23465362
5	0xc01fd117	-2.4971368
6	0xbe51e202	-0.20496371
7	0xbebd2cfe	-0.3694839
8	0x3d0e04c5	0.034672517
9	0x3eb63cde	0.35593313
10	0x3fd33f26	1.6503646
11	0xc00e9031	-2.2275507
12	0x3f4ce8e6	0.80042875
13	0xbefe77ab	-0.49700674
14	0xbf03cd04	-0.51484704

weight f4 [3, 5]
0	0xbf5f2a81	-0.8717423
1	0x3f4a9ae0	0.7914257
2	0x3fb53511	1.415682
3	0x3f6a88c3	0.9161493
4	0xbd935a79	-0.07194991
5	0xbe586623	-0.21132712
6	0xbe2bc558	-0.167745
7	0xbfb7e20f	-1.4365863
8	0xbf06d59d	-0.526697
9	0xbfe1b30d	-1.7632767
10	0xbee94e9e	-0.45567793
11	0x3fd204cb	1.6407713
12	0x4036ac88	2.8542805
13	0xbf85a4e9	-1.0440952
14	0xbd1a327f	-0.037645813

weight f4 [7, 9]
0	0x3d9c4027	0.076294236
1	0xbfae18a1	-1.3601266
2	0xbeb4dfab	-0.35326895
3	0xbef5e7de	-0.48028463
4	0x3d788c88	0.060680896
5	0x3f3c7865	0.7362121
6	0xbef50c27	-0.47860834
7	0x3cb2a0b5	0.021805147
8	0xbf796df6	-0.9743341
9	0x3f5d63c0	0.8648033
10	0xbeaf1416	-0.34195012
11	0xbedf937b	-0.43667206
12	0xbef0517e	-0.46937174
13	0xbe6c8dfe	-0.2310104
14	0x3eb40740	0.3516178
15	0x3f8af573	1.0856155
16	0xbf4b5f3c	-0.7944219
17	0x3f88c2e9	1.0684482
18	0xbf373d5e	-0.71578014
19	0x3fa04327	1.2520493
20	0x3f4bb738	0.79576445
21	0xbd65a3db	-0.056064468
22	0xbdbf5146	-0.093416736
23	0x3fa29004	1.27002
24	0x3f206bb5	0.6266435
25	0x3f2c6203	0.67337054
26	0xbf27d322	-0.6555654
27	0x3e85c0c9	0.26123646
28	0xbeddd4d5	-0.4332644
29	0xbfd7c0f1	-1.6855756
30	0xbef133a9	-0.47109726
31	0x3fee0277	1.8594502
32	0xbfc5d883	-1.5456699
33	0x3ece7b99	0.40328673
34	0xbf0e9ba6	-0.5570625
35	0x3fdc939f	1.723255
36	0x3f3d3540	0.7390938
37	0x3e90956b	0.28238997
38	0x3ef3e65a	0.47636682
39	0x3e4b5360	0.19856024
40	0x3ebdca9b	0.37068638
41	0x3e15b9cf	0.14621662
42	0xbf5f9487	-0.8733601
43	0xbf02ce6c	-0.51096225
44	0x3f77b060	0.967535
45	0x3ef8dd33	0.48606262
46	0xbf7f8e9a	-0.9982697
47	0x3f6922db	0.9106881
48	0xbfa981b2	-1.3242705
49	0x3ff08518	1.8790617
50	0x3f2a2e83	0.6647722
51	0x3e204763	0.15652232
52	0x3eb22297	0.34792015
53	0xbfd20b27	-1.6409653
54	0xbe7f02a4	-0.24903351
55	0xbf58ec68	-0.8473573
56	0xbf77e815	-0.96838504
57	0xbc9b712e	-0.018974867
58	0xbf36ff04	-0.7148287
59	0x3efbfa6c	0.49214494
60	0xbf59720a	-0.84939635
61	0x3f8a2936	1.0793827
62	0x3f86041a	1.0470002

weight f4 [40]
0	0x3f96553b	1.174476
1	0x3fad9c03	1.3563236
2	0x3f936045	1.1513754
3	0x3f68e671	0.90976626
4	0x3f913d3c	1.1346812
5	0x3f45fbd1	0.77337366
6	0x3f2359a0	0.6380863
7	0x3f43b5b5	0.7644914
8	0x3f3f1101	0.7463532
9	0x3f473a7b	0.7782361
10	0x3f707f84	0.93944573
11	0x3f73a69a	0.9517609
12	0x3f4d408c	0.80176616
13	0x3f8035d1	1.0016423
14	0x3f35a9f3	0.70962447
15	0x3f864c99	1.0492126
16	0x3f81e80b	1.0148939
17	0x3faf5add	1.3699604
18	0x3f97186d	1.1804329
19	0x3f6765a7	0.90389484
20	0x3f660d89	0.89864403
21	0x3f763481	0.96173865
22	0x3f56cfa3	0.8391058
23	0x3f74dc57	0.9564871
24	0x3f5c1921	0.85975844
25	0x3f5c1ed4	0.8598454
26	0x3f83e0b2	1.0302947
27	0x3f80977f	1.0046233
28	0x3f73488e	0.95032585
29	0x3f8e2ac5	1.1106802
30	0x3f8880bd	1.0664288
31	0x3f67bf35	0.90526134
32	0x3f6978a8	0.9119973
33	0x3f5ade92	0.85495865
34	0x3f61d90b	0.88221806
35	0x3f78c01d	0.9716814
36	0x3f5fe9f0	0.87466335
37	0x3f61ee0b	0.8825385
38	0x3f4a2aee	0.78971756
39	0x3f51956d	0.8186863

bias f4 [40]
0	0x3b897b6a	0.0041956203
1	0xbc11a5e5	-0.00888965
2	0x3c788efe	0.015170811
3	0x3ae66545	0.0017577788
4	0x3c2d301a	0.01057055
5	0x3a1a0f7b	0.00058769406
6	0xbb461453	-0.0030224517
7	0x3a930bf9	0.0011218778
8	0xbc40a914	-0.011759061
9	0x3bd94ecb	0.0066317073
10	0x3aa48fad	0.0012555026
11	0x3ace6d79	0.0015749178
12	0x3b99aa91	0.0046895226
13	0x3c748be2	0.014925929
14	0x3b34e181	0.002760023
15	0x3b522702	0.0032066707
16	0xbc97a6e9	-0.018512206
17	0xbc7230fd	-0.0147821875
18	0x3b5b4596	0.0033458224
19	0x3aa4a20d	0.0012560502
20	0xbac2e105	-0.0014868086
21	0x3b6f9f9c	0.003656364
22	0xbbfbf84a	-0.0076895105
23	0xbc030770	-0.007997379
24	0xbc036421	-0.008019478
25	0xba40344b	-0.0007332011
26	0xbc5d7c49	-0.013518401
27	0x3c0e6e80	0.008693337
28	0xbc788a6e	-0.015169723
29	0x3b11240b	0.0022146727
30	0x3c8f38b0	0.017483085
31	0x3c054e71	0.008136378
32	0x3c9a4404	0.01883126
33	0x3b3895a6	0.002816537
34	0x3a42b63d	0.00074276683
35	0xbc26a07f	-0.010170101
36	0x3be32238	0.0069315694
37	0xbb3e40e8	-0.0029030386
38	0xbb036a87	-0.002005251
39	0x3c3e27c0	0.011606157

running_mean f4 [40]
0	0x3f18482d	0.5948513
1	0x4104e5bd	8.306088
2	0x3f34f0a9	0.7067972
3	0x40bef3e0	5.96727
4	0x3dac757b	0.08420845
5	0x3effc848	0.4995749
6	0x3d18b7bd	0.0372846
7	0x3e8308ee	0.2559275
8	0x3e35bbb5	0.17747386
9	0x3f586a08	0.8453679
10	0x3ec10212	0.37696892
11	0x3ecdc58e	0.40189785
12	0x3d0dc5f6	0.03461262
13	0x44fbcda9	2014.4269
14	0x41723c27	15.139686
15	0x3d3fad04	0.04679586
16	0xbd911e70	-0.070858836
17	0xbf36c57e	-0.713951
18	0x3ca2ff1b	0.019897034
19	0x3cef5177	0.02921365
20	0xbe0086ab	-0.12551372
21	0xbfb2804a	-1.3945401
22	0xbe13f6a4	-0.14449555
23	0xbf0595a4	-0.5218146
24	0xbe8ee5d2	-0.27909714
25	0x3d573159	0.052537296
26	0xbf2b79cd	-0.6698273
27	0x3f0f0a6c	0.5587528
28	0x3f2daf33	0.6784546
29	0x3edcfe9c	0.43163002
30	0xbf0b0763	-0.54308146
31	0xbe5c292c	-0.21500081
32	0xbe06db3f	-0.13169573
33	0xbe136baa	-0.1439654
34	0xbe23f2a8	-0.16010535
35	0xbe162db7	-0.14665876
36	0x3f32123e	0.69559085
37	0xbe586a7a	-0.21134368
38	0x3f24018f	0.6406488
39	0x3e4ed91a	0.20200005

running_var f4 [40]
0	0x3e76c45d	0.24098344
1	0x412236ed	10.13841
2	0x3e557b48	0.2084781
3	0x4015591b	2.3335636
4	0x3c8b087a	0.016971815
5	0x3e801aac	0.2502035
6	0x3a98f50b	0.0011669708
7	0x3cfe491b	0.031040719
8	0x3e142102	0.14465716
9	0x3e05c130	0.13061976
10	0x3e70fb36	0.2353333
11	0x3e77c379	0.2419566
12	0x3d07e9ff	0.03318214
13	0x3f0e43ed	0.55572397
14	0x42974731	75.639046
15	0x3ef15ff2	0.47143513
16	0x3f055c5b	0.5209405
17	0x3e01582d	0.12631293
18	0x3eb97565	0.36222377
19	0x3f09563e	0.5364722
20	0x3ee396de	0.4445104
21	0x3fb4fcb7	1.4139622
22	0x3e590358	0.21192682
23	0x3dfb1861	0.12260509
24	0x3dcfcd3c	0.10146567
25	0x3dc78d16	0.09743707
26	0x3db50a00	0.08839798
27	0x3e6de3e4	0.23231465
28	0x3fe7e6bc	1.811729
29	0x3f0208ca	0.5079466
30	0x3f13aef4	0.5768883
31	0x3e610dce	0.21977922
32	0x3f7ec65c	0.9952142
33	0x3f3ccc21	0.73748976
34	0x3e03b4c8	0.12861931
35	0x3f09316d	0.5359104
36	0x3e7fad5d	0.24968477
37	0x3eff57d5	0.49871698
38	0x3e944c41	0.28964427
39	0x3f7c436f	0.98540395

weight f4 [32, 40]
0	0x3db1094e	0.08644353
1	0xbca438b4	-0.02004657
2	0xbe1cf92e	-0.1532943
3	0x3d9c37b6	0.076278135
4	0x3e5a75ac	0.21333951
5	0x3dd30004	0.10302737
6	0x3e07bcec	0.13255662
7	0x3db1def5	0.08685104
8	0x3e864c5b	0.2623013
9	0x3d7ef370	0.06224388
10	0xbdc9e45b	-0.098580085
11	0xbe5da646	-0.2164546
12	0x3a964570	0.0011464786
13	0xbd954700	-0.07288933
14	0x3dbc8707	0.09205442
15	0xbe0b7a0c	-0.13620776
16	0x3de3df0e	0.11126529
17	0x3f1300a6	0.57422864
18	0xbe566550	-0.20937085
19	0x3d2ed4d2	0.04268343
20	0x3e94ca0e	0.29060405
21	0xbe8536a3	-0.26018247
22	0xbbfd073d	-0.00772181
23	0x3d0caf6c	0.034346983
24	0xbe0d7f47	-0.13818084
25	0xbe05c20f	-0.13062309
26	0x3e13bec7	0.14428245
27	0xbd12376b	-0.035697382
28	0x3e17307f	0.14764594
29	0xbe0b9064	-0.136293
30	0xbdd87097	-0.1056835
31	0xbddd7a39	-0.10814328
32	0x3df4227d	0.119206406
33	0xbdf57db2	-0.11986865
34	0x3e1354fb	0.14387886
35	0xbe6bb1e7	-0.23017083
36	0x3dde604c	0.10858211
37	0xbc4e4bcb	-0.012591313
38	0xbe1113ab	-0.14167659
39	0x3e849c62	0.2590056
40	0x3cf2b5f4	0.029627778
41	0x3d288be3	0.04114903
42	0x3eb6c074	0.35693705
43	0xbb405bf9	-0.0029351695
44	0xbe30fab9	-0.17283143
45	0xbd15df3e	-0.036589853
46	0xbd0b8441	-0.034061674
47	0xbe2f4ac7	-0.17118369
48	0xbe4612fb	-0.19343178
49	0xbd3fd223	-0.04683126
50	0xbccb32cc	-0.024804495
51	0x3ea32f43	0.31871995
52	0x3e5ee431	0.21766736
53	0xbe8fc1fb	-0.28077683
54	0xbe9bd5ab	-0.30436453
55	0x3e58f1f8	0.21186054
56	0xbe3fa8db	-0.18716757
57	0xbd1c136b	-0.038104456
58	0xbcdd50b1	-0.027016016
59	0xbdc7e593	-0.09760585
60	0x3e7774cd	0.2416565
61	0x3c5c7e4c	0.013457846
62	0x3cc8f8ab	0.024532637
63	0x3e18cacb	0.1492111
64	0xbe9c4d9d	-0.30527964
65	0xbdbe3e9b	-0.09289285
66	0xbeabd0cb	-0.33557734
67	0x3eb742a1	0.3579302
68	0x3e100f96	0.14068446
69	0x3d8013a0	0.06253743
70	0xbd4a7371	-0.0494265
71	0x3e2c6e89	0.16839041
72	0xbdaba889	-0.08381755
73	0x3e7e90ee	0.24859974
74	0x3e88673d	0.26641265
75	0xbea1c3ec	-0.3159479
76	0x3d3731e1	0.044725303
77	0x3e7cb1af	0.24677156
78	0x3db2f9fb	0.08739086
79	0xbe68410a	-0.2268106
80	0xbdf35959	-0.11882276
81	0x3efddfb8	0.49584746
82	0xbea0c2a9	-0.31398514
83	0x3d36de10	0.04464537
84	0x3e72bd97	0.23705135
85	0x3d4edb69	0.050502215
86	0xbd3922af	-0.045199092
87	0xbce552b0	-0.02799353
88	0xbd62d6a1	-0.055380467
89	0xbe039952	-0.12851456
90	0xbd17e56d	-0.03708403
91	0xbc833731	-0.016017528
92	0xbd9dc71d	-0.077039935
93	0xbe742f5d	-0.23846193
94	0xbe136da7	-0.14397298
95	0xbd85a278	-0.06525129
96	0x3e149d7e	0.14513204
97	0xbeb567d5	-0.3543078
98	0x3dbcc944	0.09218076
99	0xbdd2b6b2	-0.102887526
100	0x3ca064af	0.01957926
101	0xbe1b76ba	-0.1518201
102	0x3de2fcbc	0.110833615
103	0x3cced1d2	0.025246534
104	0xbc91e55b	-0.01780956
105	0xbdc3f7d8	-0.09568757
106	0x3e6aa79d	0.22915502
107	0x3e4dfd26	0.201161
108	0x3e6bfde1	0.23046066
109	0x3d42fd1a	0.047604658
110	0xbe6b986d	-0.23007365
111	0xbdb85cf0	-0.090021014
112	0xbe0c051c	-0.13673824
113	0x3d7ebbbc	0.062190756
114	0xbdb21e6a	-0.08697207
115	0x3dbb4b71	0.09145249
116	0xbd9fb0bc	-0.07797381
117	0x3e1ba502	0.15199664
118	0x3e59a0ab	0.21252696
119	0x3d1f37d4	0.0388716
120	0xbecffca0	-0.40622425
121	0xbd19f883	-0.037590515
122	0x3e5a0d01	0.21294023
123	0xbd448fe9	-0.047988806
124	0xbed5e5c0	-0.41776848
125	0xbd8152eb	-0.063146435
126	0xbe292e24	-0.16521508
127	0xbe0e9043	-0.13922219
128	0xbe156e89	-0.14592947
129	0x3d3c2b30	0.045939624
130	0xbc840163	-0.016113942
131	0x3e265f2f	0.16247247
132	0xbd241972	-0.04006333
133	0xbd4674af	-0.048451122
134	0xbc7c90a1	-0.015415342
135	0xbe1167d9	-0.14199771
136	0xbe1bd50d	-0.15217991
137	0xbe2e91ae	-0.1704776
138	0x3c65199f	0.013983159
139	0x3e08407b	0.13305847
140	0x3d8be2a8	0.068303406
141	0xbda07ade	-0.07835935
142	0xbdf19753	-0.11796441
143	0xbe8923fd	-0.2678527
144	0xbea7dd83	-0.32786188
145	0x3e70694b	0.23477666
146	0x3e889abc	0.26680553
147	0x3d7c3a11	0.061578814
148	0xbdd494a8	-0.103799164
149	0x3e407388	0.18794072
150	0xbd1f0e88	-0.038832217
151	0x3da3daa6	0.08000688
152	0x3e16808a	0.14697471
153	0xbdd7c887	-0.105362944
154	0xbd60d1ef	-0.05488771
155	0xbe5d1ecd	-0.21593781
156	0x3dc8b8aa	0.09800847
157	0x3d9617b3	0.07328739
158	0xbe456596	-0.19277033
159	0xbe0c0bb9	-0.13676347
160	0x3e39df59	0.18151607
161	0xbeae99e8	-0.34101796
162	0x3e324c1c	0.17411846
163	0x3da0d41b	0.07852956
164	0x3b993640	0.0046756566
165	0x3e25ab4b	0.16178624
166	0xbdbc227d	-0.091862656
167	0xbd320bb7	-0.043468203
168	0xbe8858b9	-0.2663019
169	0xbd908686	-0.07056908
170	0xbdecbd3d	-0.11559532
171	0x3e144c9d	0.1448235
172	0xbdcb9395	-0.099402584
173	0x3e9d0135	0.30664983
174	0x3e01d71f	0.12679718
175	0x3d8dc4ec	0.069223255
176	0xbdaaf7f2	-0.08348073
177	0xbd10acf1	-0.03532118
178	0xbe021fe1	-0.12707473
179	0x3cef529f	0.029214201
180	0xbea54a0a	-0.3228305
181	0x3d2ba95d	0.041909564
182	0xbdbd1f8c	-0.09234533
183	0xbe3d1134	-0.18463594
184	0x3a5e11ff	0.00084713096
185	0x3e252337	0.16126715
186	0xbe2bd1bf	-0.1677923
187	0x3ce01a20	0.027356207
188	0x3e3b0591	0.18263842
189	0xbd2f793a	-0.04284022
190	0xbdea0a5b	-0.114277564
191	0x3e5b3d7a	0.2141017
192	0x3c2a6f98	0.010402583
193	0xbdf15564	-0.11783865
194	0x3e3a473b	0.18191235
195	0x3e763088	0.2404195
196	0x3d8f4cab	0.06997045
197	0x3dcc3b54	0.099722534
198	0x3e82b39c	0.25527656
199	0x3e69a5b6	0.2281712
200	0x3e5964e4	0.21229893
201	0x3e0dfe52	0.13866547
202	0xbd741ce2	-0.059597857
203	0x3da7b58a	0.08188923
204	0xbc81cc78	-0.015844569
205	0x3e51f569	0.20503773
206	0x3e1cf16c	0.1532647
207	0x3de4cbc4	0.11171678
208	0xbe141d38	-0.14464271
209	0x3c708e2b	0.014682333
210	0xbe96df89	-0.2946742
211	0x3cbe629f	0.023240386
212	0xbb8a7ca8	-0.004226286
213	0xbded97e9	-0.1160124
214	0x3c27af4e	0.010234667
215	0x3e2a8bee	0.16654941
216	0xbe7e7e9f	-0.2485299
217	0xbdf2da8b	-0.1185809
218	0x3e4fa9a0	0.2027955
219	0xbda8961b	-0.08231755
220	0x3e56cec5	0.20977314
221	0x3e531835	0.20614703
222	0xbcede959	-0.029041933
223	0xbe37bf86	-0.17944154
224	0x3c0d077a	0.00860774
225	0x3d8da047	0.06915336
226	0x3d0b2ef4	0.033980325
227	0xbe7e5287	-0.24836169
228	0xbda8b13b	-0.08236929
229	0xbe0e29d9	-0.13883151
230	0xbe9f486d	-0.31109944
231	0xbe61d336	-0.22053227
232	0xbe43a847	-0.19107161
233	0xbdebadd7	-0.11507767
234	0xbe8589f9	-0.26081827
235	0xbd153e7f	-0.036436554
236	0xbe3748bc	-0.1789884
237	0x3e9cd03d	0.30627623
238	0x3e6e122e	0.23249123
239	0x3e525e0e	0.20543692
240	0x3e873586	0.26408023
241	0x3e09cf0f	0.13457893
242	0xbd9b8f6e	-0.075957164
243	0x3dc1604b	0.094421946
244	0xbe66d260	-0.22541189
245	0x3e28c2ed	0.16480608
246	0x3ce66208	0.028122917
247	0xbe2acc1e	-0.16679427
248	0xbc845f2c	-0.016158663
249	0xbdc4547b	-0.09586426
250	0xbe081474	-0.13289052
251	0x3c078c85	0.008273249
252	0x3d075003	0.03303529
253	0x3e5432b4	0.20722467
254	0xbd2c0dd2	-0.042005368
255	0x3e3f28cd	0.18667908

bias f4 [32]
0	0xbd83bfaa	-0.064330414
1	0xbc538eac	-0.012912434
2	0x3d736d2c	0.059430286
3	0xbc14bdd1	-0.009078459
4	0xbce995b8	-0.028513774
5	0xba91f7dd	-0.0011136491
6	0xbde81531	-0.11332167
7	0xbdecad1e	-0.11556457
8	0xbdc5b845	-0.09654287
9	0x3e195432	0.14973524
10	0xbdda6274	-0.1066331
11	0x3e13e701	0.1444359
12	0xbc4a7486	-0.012356883
13	0x3e16cbcb	0.14726178
14	0xbd84267c	-0.06452653
15	0xbddf0412	-0.10889448
16	0x3d75d0d0	0.060013592
17	0x3de8a44c	0.11359462
18	0x3e0c1482	0.13679698
19	0x3e1bbc46	0.1520854
20	0xbd658a93	-0.056040358
21	0x3cdc9754	0.026927628
22	0x3dbaa40d	0.091133215
23	0xbd255942	-0.040368326
24	0x3ba9a0d9	0.0051766452
25	0x3d975b15	0.073904194
26	0x3dc36dfa	0.09542461
27	0xbe139e22	-0.14415792
28	0xbe11b3c6	-0.14228734
29	0x3df47adb	0.11937495
30	0xbbf17f8e	-0.007369942
31	0x3c85768d	0.016291881

weight f4 [32]
0	0x3f62837b	0.88481873
1	0x3f85862c	1.0431571
2	0x3f8ee6be	1.1164167
3	0x3f7eca1a	0.9952713
4	0x3f715fea	0.9428698
5	0x3f76f094	0.96460843
6	0x3f68c8a8	0.9093118
7	0x3f82990e	1.0202959
8	0x3f7bb7a0	0.98327065
9	0x3f8256bd	1.018272
10	0x3f6ec546	0.93269765
11	0x3f757aab	0.958903
12	0x3f71add0	0.9440584
13	0x3f84185c	1.0319934
14	0x3f7917d7	0.97302
15	0x3f7fb84d	0.99890596
16	0x3f7333d8	0.9500098
17	0x3f6c70b4	0.9235947
18	0x3f83bdca	1.0292294
19	0x3f5d26ed	0.8638752
20	0x3f920920	1.1409035
21	0x3f64a137	0.89308494
22	0x3f7a3a62	0.97745335
23	0x3f6c907c	0.92407966
24	0x3f750093	0.95704
25	0x3f8aa638	1.0831976
26	0x3f72350c	0.94612193
27	0x3f8883d2	1.0665228
28	0x3f80b2c2	1.0054553
29	0x3f9148ef	1.1350383
30	0x3f7da65a	0.9908196
31	0x3f6f54e9	0.9348894

bias f4 [32]
0	0xbdbb1a3e	-0.09135865
1	0x3e2c9ba8	0.16856253
2	0xbe283ec6	-0.16430196
3	0x3e6a9c2b	0.22911136
4	0x3d365f97	0.044524755
5	0xbd4d06e1	-0.05005539
6	0xbd5ce598	-0.053929895
7	0xbdd8287e	-0.10554598
8	0xbdedb037	-0.11605876
9	0x3d8d70e3	0.06906297
10	0xbd4a5d17	-0.049405184
11	0xbe840ed8	-0.25792575
12	0xbe063df9	-0.13109578
13	0x3cb0e98e	0.021595743
14	0x3e24e0f3	0.16101436
15	0x3c92a308	0.017900005
16	0x3e66aa3f	0.22525881
17	0x3e9fdeb7	0.31224605
18	0x3d999b0f	0.07500278
19	0xbdcd9451	-0.10038055
20	0xbe493c4a	-0.19651905
21	0xbccf73ee	-0.025323834
22	0x3c543727	0.0129526025
23	0xbe18ebb8	-0.1493367
24	0x3daaa32f	0.08331906
25	0xbda975c9	-0.08274419
26	0x3e11a73d	0.14223953
27	0x3e3e6bde	0.18595836
28	0xbe2a093b	-0.16605084
29	0x3d47af03	0.04875089
30	0xbdd3ccd5	-0.10341803
31	0x3cb11d19	0.02162032

running_mean f4 [32]
0	0xbda237c7	-0.07920795
1	0xb98d8a44	-0.00026996632
2	0x3d0e4bf3	0.0347404
3	0x3b5b043a	0.0033419267
4	0xbc2cb8c4	-0.010542098
5	0xbbd13641	-0.0063846414
6	0xbde736b5	-0.112897314
7	0xbdd27e07	-0.10277944
8	0xbdc2075a	-0.094740584
9	0x3e10ac1b	0.14128153
10	0xbdea41f0	-0.11438358
11	0x3e1c889f	0.15286492
12	0x3ac609e8	0.0015109153
13	0x3e1e0b88	0.15434086
14	0xbd98b297	-0.07455938
15	0xbdf6456e	-0.120249614
16	0x3d421081	0.04737902
17	0x3dda68a2	0.106644884
18	0x3e17fc77	0.14842401
19	0x3e2ac961	0.16678382
20	0xbdad55df	-0.08463644
21	0x3ca732c3	0.020409947
22	0x3dd5c4c8	0.10437924
23	0xbcb2974a	-0.021800656
24	0xbbbca062	-0.005756424
25	0x3d9dbb82	0.0770178
26	0x3db73224	0.089451104
27	0xbe25f839	-0.1620797
28	0xbe1971de	-0.14984843
29	0x3dd5ab0c	0.10433015
30	0xbc743c7d	-0.014907
31	0x3d001c5c	0.031277046

running_var f4 [32]
0	0x3fd4d503	1.6627506
1	0x3fee6091	1.862322
2	0x3f7c5f68	0.9858308
3	0x3f8e0664	1.10957
4	0x3f2eace8	0.68232584
5	0x3fc32d86	1.5248268
6	0x3f7b5512	0.9817668
7	0x3fa06ab4	1.2532563
8	0x3f5087ba	0.814571
9	0x3f59d68e	0.8509301
10	0x3f5c590f	0.8607339
11	0x3fbce6e1	1.4757959
12	0x3fdbf6c2	1.718468
13	0x3fc45539	1.5338508
14	0x3f152fdc	0.5827615
15	0x3fa158cc	1.2605224
16	0x3f3cbb3e	0.7372321
17	0x3f8c89e7	1.0979584
18	0x3f821ebd	1.016563
19	0x3fe84bbf	1.8148116
20	0x3fcbc3e1	1.5919152
21	0x3f8f4a92	1.1194632
22	0x40007b41	2.0075228
23	0x400837c4	2.1284037
24	0x3fc9339e	1.5718877
25	0x3f59b79b	0.85045785
26	0x3fe13414	1.7594018
27	0x3fb94af7	1.4476002
28	0x40101168	2.2510624
29	0x3fc5f4b6	1.5465305
30	0x3f81ce5c	1.0141101
31	0x3fcb76ac	1.5895591

weight f4 [32, 32]
0	0xbe099ed4	-0.13439494
1	0x3e65598e	0.22397444
2	0x3d9a5872	0.07536401
3	0x3e3b4d32	0.18291166
4	0xbdc06689	-0.09394557
5	0xbe21f93a	-0.15817729
6	0x3e8349d6	0.2564227
7	0xbdab9931	-0.08378828
8	0xbdca7853	-0.09886231
9	0x3e50b0da	0.20379964
10	0xbe213754	-0.15743762
11	0x3dbec058	0.093140304
12	0xbd55073a	-0.052008845
13	0x3e414cc8	0.18876946
14	0x3d37e6bb	0.044897776
15	0xbd0c6eb5	-0.034285266
16	0xbe8cf038	-0.27527022
17	0xbc3acb20	-0.011400968
18	0x3c98bc80	0.018644571
19	0xbd0fbddb	-0.03509317
20	0xbe636775	-0.22207434
21	0xbdc8643a	-0.09784742
22	0xbe261eb1	-0.16222645
23	0xbda4d095	-0.08047596
24	0xbe016f8b	-0.12640207
25	0xbe91cf89	-0.2847865
26	0x3dd627e7	0.104568295
27	0x3e4ca273	0.19983844
28	0x3dde5638	0.10856289
29	0x3e9f9d6a	0.31174785
30	0x3ea8eac6	0.32991618
31	0xbe0a0a75	-0.13480552
32	0x3e00050a	0.12501922
33	0xbd69ae19	-0.057050798
34	0x3d275021	0.0408479
35	0x3e4afc8a	0.19822899
36	0x3e938ac9	0.28816822
37	0x3e46ff54	0.19433337
38	0x3d66cc49	0.056347165
39	0x3cce0c5f	0.025152383
40	0xbd9a57e2	-0.075362936
41	0x3e44a168	0.19202197
42	0x3d88176c	0.06645092
43	0x3e5429f9	0.20719136
44	0x3e9b491e	0.3032922
45	0x3d41d361	0.047320727
46	0x3d2ce30b	0.042208713
47	0xbe381002	-0.17974856
48	0x3e6efd6b	0.23338859
49	0xbe4caed3	-0.19988565
50	0x3e89be83	0.2690316
51	0x3df4147b	0.11917969
52	0xbd10fe4a	-0.03539876
53	0x3c682be5	0.0141706215
54	0xbeda611a	-0.42652208
55	0xbeb31c30	-0.34982443
56	0xbd286b48	-0.041117936
57	0x3e88c325	0.26711383
58	0xbddf2539	-0.108957715
59	0xbe281bc0	-0.16416836
60	0xbc97f4c7	-0.018549336
61	0x3de578e6	0.112047
62	0xbdded50b	-0.108804785
63	0xbba29989	-0.0049621505
64	0x3d5d814d	0.05407839
65	0x3e46a34d	0.19398232
66	0x3ca03dc4	0.019560702
67	0x3ddc3f0a	0.10754211
68	0x3e81f501	0.25382236
69	0xbd50be83	-0.050962936
70	0x3e34b6b2	0.17647818
71	0x3ea7060f	0.3262181
72	0x3d65f6aa	0.05614344
73	0xbe843554	-0.25821936
74	0x3e2b532a	0.16730943
75	0xbe0ea9ba	-0.13931933
76	0xbca4890d	-0.020084882
77	0xb9e2ed9e	-0.00043283118
78	0xbeb0867f	-0.34477612
79	0x3dc8ae34	0.097988516
80	0xbe209101	-0.15680315
81	0xbe047a64	-0.12937313
82	0xbe3e39e6	-0.18576774
83	0xbe5408a0	-0.20706415
84	0x3d5d62d5	0.05404933
85	0xbdd8262e	-0.10554157
86	0x3e9cf982	0.3065911
87	0x3dfe925e	0.12430261
88	0x3e6fd832	0.23422316
89	0xbe310866	-0.1728836
90	0xbe0082ce	-0.12549898
91	0x3d223db9	0.039609645
92	0xbde86b8a	-0.113486364
93	0xbe81ece7	-0.25376055
94	0xbe2e58f0	-0.17026114
95	0x3bb2819f	0.005447581
96	0xbd31f39f	-0.043445226
97	0xbceba11c	-0.028763346
98	0xbd796561	-0.060887698
99	0xbe8807dc	-0.26568496
100	0x3e840111	0.25782064
101	0x3e39d482	0.18147472
102	0x3daab510	0.08335316
103	0x3e36bc3d	0.17845245
104	0x3e3237a5	0.17404039
105	0xbc43ea92	-0.011957781
106	0x3e7f4828	0.24929869
107	0xbe917394	-0.28408492
108	0x3c19542f	0.00935845
109	0x3e4fd1de	0.20294902
110	0x3e12e176	0.14343819
111	0xbdf6de6b	-0.120541416
112	0x3e0cae73	0.13738422
113	0x3e1ad380	0.15119743
114	0xbca0fef2	-0.019652817
115	0xbe698e10	-0.22808099
116	0xbe73b8ce	-0.23800966
117	0xbe7abc9a	-0.24486008
118	0xbe00ecfc	-0.12590402
119	0xbe721144	-0.23639399
120	0xbea0796a	-0.31342632
121	0x3ea4a189	0.32154492
122	0xbd554d22	-0.052075513
123	0x3dce51fe	0.100742325
124	0x3da54677	0.08070081
125	0xbe8e1e19	-0.27757338
126	0xbe28b637	-0.1647576
127	0xbd190f9c	-0.037368402
128	0x3e9598fc	0.2921828
129	0x3e8838c7	0.26605818
130	0xbe80f2f7	-0.25185367
131	0xbe7cc03a	-0.24682704
132	0x3dccdc12	0.100029126
133	0xbe9c7cd9	-0.30564
134	0x3d331ad9	0.043726776
135	0x3a49b4be	0.0007694474
136	0x3e0b30ed	0.13592882
137	0xbbab21f7	-0.005222555
138	0x3cda2468	0.026628688
139	0x3d61337b	0.054980736
140	0x3e46f9b0	0.19431186
141	0xbdbb113d	-0.09134147
142	0xbe9e4175	-0.30909315
143	0x3c9285ac	0.017886005
144	0xbcef4c99	-0.02921133
145	0xbd3b6127	-0.04574695
146	0x3ea9d92f	0.3317351
147	0xbdcb4108	-0.09924513
148	0x3e65961f	0.22420548
149	0xbda040ec	-0.07824883
150	0x3dc135aa	0.09434064
151	0xbccc8ed9	-0.024970459
152	0x3e5518d8	0.20810258
153	0xbd326583	-0.04355384
154	0x3e90a941	0.2825413
155	0x3e3eeba9	0.18644585
156	0x3dc7bac1	0.09752417
157	0x3eca1ba3	0.3947421
158	0x3d32d616	0.0436612
159	0xbdd6c38e	-0.10486518
160	0x3e370e5d	0.17876573
161	0xbe70282b	-0.23452823
162	0x3a883a0b	0.0010393275
163	0x3e866116	0.26245946
164	0xbd9d2e29	-0.0767482
165	0xbe33b508	-0.17549527
166	0x3e5384de	0.20656154
167	0x3e303388	0.17207158
168	0x3cb37f0e	0.02191117
169	0xbe47244b	-0.19447438
170	0x3d41ce6b	0.047315996
171	0xbd9227d7	-0.07136505
172	0xbe81c718	-0.2534721
173	0x3e928b6f	0.28622004
174	0x3e54a775	0.20767005
175	0xbdb245b2	-0.087046996
176	0xbdcc70c1	-0.099824436
177	0xbe60ad93	-0.21941213
178	0x3ca94f4f	0.0206677
179	0xbc299cb1	-0.0103523
180	0xbe83f8f2	-0.25775868
181	0xbd1197fd	-0.035545338
182	0xbdbcb2eb	-0.092138134
183	0x3d0eb099	0.034836385
184	0xbe735f08	-0.2376672
185	0xbe4fc789	-0.2029096
186	0x3e66ab2a	0.22526231
187	0xbd89755e	-0.06711839
188	0x3e798dfc	0.24370569
189	0xbdf15565	-0.11783866
190	0xbd9d0ab5	-0.07668058
191	0xbda034ad	-0.07822547
192	0xbca19ac4	-0.019727118
193	0x3da3920f	0.07986843
194	0xbea2492d	-0.31696454
195	0x3e060bc5	0.13090427
196	0x3dd765c9	0.10517461
197	0x3d3fa33d	0.046786536
198	0x3eacee2f	0.3377547
199	0x3dc19a0b	0.094532095
200	0xbeb9a08a	-0.36255294
201	0x3dbb4151	0.091433175
202	0x3e17826c	0.14795846
203	0xbe0b190d	-0.13583775
204	0xbd2e8cea	-0.042614855
205	0xbeb69865	-0.35663143
206	0xbc4c2879	-0.012460821
207	0x3e0117f4	0.12606794
208	0xbd285123	-0.041093003
209	0xbe3a21bf	-0.18176936
210	0xbe134000	-0.14379883
211	0x3e37f62d	0.17965002
212	0x3d5d675a	0.05405364
213	0x3eb34237	0.35011455
214	0xbe3470cc	-0.17621154
215	0x3dcd67ea	0.10029586
216	0x3c3cdb65	0.011526917
217	0xbe8afbff	-0.27145383
218	0x3e2a0df4	0.16606885
219	0xbde2b83b	-0.110702954
220	0xbdfe4bf7	-0.12416833
221	0x3e246d3a	0.16057292
222	0x3d1cbddd	0.038267005
223	0x3d803ff7	0.062622
224	0xbdfcc67c	-0.123425454
225	0x3e6569e3	0.22403674
226	0x3bbf34c3	0.005835147
227	0x3e63f519	0.22261466
228	0x3e5680ab	0.2094752
229	0xbd5b22f9	-0.05350015
230	0xbe1f2cc1	-0.15544416
231	0x3e63b010	0.22235131
232	0xbd937195	-0.071993984
233	0xbe12c53c	-0.14333051
234	0x3e839f35	0.25707403
235	0x3e21cbc7	0.15800391
236	0x3ea0fe71	0.31444123
237	0xbeb7dc4e	-0.35910267
238	0x3db24447	0.08704429
239	0xbe103de3	-0.14086108
240	0x3e4a4da7	0.19756185
241	0x3df17c1b	0.11791249
242	0x3d3437e0	0.0439986
243	0x3e6b055e	0.22951266
244	0xbe3e7118	-0.1859783
245	0x3e661068	0.22467196
246	0x3d84a124	0.06476048
247	0xbec0a5ba	-0.3762644
248	0x3d9abde7	0.07555752
249	0x3dbb7501	0.09153176
250	0x3ca2dc22	0.019880358
251	0xbd0d66be	-0.03452181
252	0xbe6f845c	-0.23390335
253	0xbda5a184	-0.08087447
254	0xbdde9284	-0.108677894
255	0xbc73e663	-0.014886471

bias f4 [32]
0	0xbe0501d2	-0.12988976
1	0xbc6d6ec3	-0.01449174
2	0x3e25e99d	0.16202398
3	0x3d8725fe	0.06599043
4	0xbe3770e3	-0.17914157
5	0x3d391a40	0.04519105
6	0x3daccd97	0.08437651
7	0xbe250341	-0.16114523
8	0x3d1c7c04	0.038204208
9	0x3df6f735	0.1205887
10	0xbde48e4b	-0.11159953
11	0xbe2f3658	-0.17110574
12	0xbdc2d4ff	-0.09513282
13	0x3d00ec35	0.031475265
14	0x3d3bb349	0.045825277
15	0xbce542fc	-0.027986042
16	0x3d6577aa	0.056022324
17	0xbde32c54	-0.11092439
18	0xbd76cceb	-0.06025402
19	0xbe265b72	-0.16245821
20	0x3e3a54e7	0.1819645
21	0xbd5c756e	-0.053822927
22	0xbc96bf7a	-0.01840185
23	0x3e311455	0.17292912
24	0xbd505c38	-0.050869197
25	0x3d644093	0.055725645
26	0xbd97f1ed	-0.074191906
27	0x3c120578	0.008912437
28	0x3c07ba07	0.0082840985
29	0xbdc01a83	-0.09380057
30	0xbe35d8c2	-0.17758468
31	0xbe121187	-0.14264499

weight f4 [32]
0	0x3fa90b00	1.3206482
1	0x3f9c7141	1.2222062
2	0x3fa777a2	1.3083384
3	0x3fbac15b	1.4590257
4	0x3fa23089	1.2671062
5	0x3fbe4fd6	1.4868114
6	0x3f9cdcb9	1.2254859
7	0x3fa545f6	1.2911975
8	0x3fb885ef	1.4415873
9	0x3fa2046f	1.2657603
10	0x3f994f15	1.1977259
11	0x3f993383	1.1968845
12	0x3f8dc690	1.1076221
13	0x3fa50715	1.2892786
14	0x3f9495dc	1.1608233
15	0x3f8f384b	1.1189054
16	0x3fbb7e7d	1.4647976
17	0x3f9759c5	1.182427
18	0x3f9e734c	1.2378936
19	0x3f94d192	1.1626456
20	0x3fa615ae	1.2975366
21	0x3fbbe01d	1.4677769
22	0x3f93d4b7	1.154929
23	0x3fb94543	1.4474262
24	0x3f90612a	1.1279652
25	0x3f93d65d	1.1549793
26	0x3fa1bed1	1.2636358
27	0x3faf22af	1.368246
28	0x3fa36b81	1.2767183
29	0x3fb8109e	1.4380071
30	0x3faec915	1.3655115
31	0x3f9a0b58	1.2034712

bias f4 [32]
0	0x3e7c67eb	0.24649017
1	0x3dc05131	0.09390486
2	0x3e77621b	0.24158518
3	0x3e7d3c86	0.24730119
4	0xbdc5caaa	-0.09657796
5	0xbdcc9f44	-0.09991315
6	0xbd2e46a1	-0.042547826
7	0x3e51a95a	0.20474759
8	0x3e8ff971	0.28119996
9	0x3dfd652f	0.12372815
10	0x3e733d7b	0.23753922
11	0x3dbfd5d0	0.093669534
12	0xbd9f9b0c	-0.07793245
13	0x3ec72132	0.38892514
14	0x3dd19d91	0.102351315
15	0xbd4a136a	-0.04933492
16	0x3eeb9efb	0.4601973
17	0x3e95a124	0.29224503
18	0xbc1b950e	-0.009495987
19	0xbd9331c3	-0.07187226
20	0x3ea9d2fd	0.33168784
21	0x3db82344	0.089911014
22	0xbd98306c	-0.07431111
23	0x3e437e77	0.19091211
24	0xbbc9b91b	-0.0061560995
25	0x3dd92a44	0.10603765
26	0x3dd8bb6e	0.105826244
27	0x3cb43d9e	0.022002038
28	0x3e84dab0	0.25948095
29	0xbd7e781c	-0.062126264
30	0x3e270c51	0.16313292
31	0x3c7d704e	0.01546867

running_mean f4 [32]
0	0x3b41686c	0.0029511703
1	0x3e9c1178	0.30482078
2	0x3cffda5b	0.03123205
3	0xbd811ec0	-0.06304693
4	0x3ead0331	0.33791497
5	0xbe7ce01e	-0.24694869
6	0x3d9529d5	0.072833695
7	0x3e1bdc29	0.15220703
8	0xbecd2785	-0.40069214
9	0x3e591ddf	0.21202801
10	0x3f2ed794	0.68297696
11	0xbf1559b8	-0.58340025
12	0xbe210ece	-0.15728304
13	0xbcacc3f1	-0.021089526
14	0xbe039e0c	-0.12853259
15	0xbd4b87ea	-0.049690165
16	0xbe85b964	-0.26118004
17	0x3e265d88	0.16246617
18	0xbf02bbf1	-0.51068026
19	0xbec7f9f6	-0.39057893
20	0xbe651723	-0.22372107
21	0xbeacba71	-0.33735994
22	0x3d524011	0.05133063
23	0xbdc25001	-0.09487916
24	0xbe207e33	-0.15673141
25	0xbe9dae01	-0.30796817
26	0x3e12b079	0.14325131
27	0xbc2984ee	-0.010346634
28	0xbe4503db	-0.19239752
29	0x3e866971	0.2625232
30	0x3ee18f83	0.44054803
31	0xbe29a03f	-0.16565035

running_var f4 [32]
0	0x3e2df860	0.16989279
1	0x3ee476c2	0.44621855
2	0x3f09b100	0.53785706
3	0x3ee14b7f	0.4400291
4	0x3eccb6d6	0.39983243
5	0x3ec56f26	0.38561362
6	0x3ea68fc7	0.32531568
7	0x3eb84d83	0.35996637
8	0x3e87fd8d	0.2656063
9	0x3e69cca8	0.22831976
10	0x3f00eb0c	0.50358653
11	0x3eaeae4d	0.34117356
12	0x3edeef74	0.43542063
13	0x3e6ec3f1	0.23316933
14	0x3f2ba725	0.6705192
15	0x3e8e8892	0.2783857
16	0x3ef330ef	0.4749827
17	0x3f139414	0.57647824
18	0x3e9109b9	0.2832773
19	0x3e9c0707	0.3047411
20	0x3e09cde9	0.13457455
21	0x3e4cfb33	0.200177
22	0x3e345cde	0.17613551
23	0x3ecb1b4f	0.39669272
24	0x3e3b04dd	0.18263574
25	0x3f867dc1	1.0507127
26	0x3e29e842	0.16592506
27	0x3eed0a63	0.46296987
28	0x3eec4f02	0.46154028
29	0x3e9f55d4	0.3112017
30	0x3ee1a201	0.44068912
31	0x3e6c5899	0.23080672

weight f4 [5, 32]
0	0x3eba6da2	0.36411768
1	0xbe606253	-0.21912508
2	0x3d3e1cbf	0.046414133
3	0x3e2bf556	0.16792807
4	0xbd882e00	-0.06649399
5	0x3f0e4a47	0.5558209
6	0x3c440a5b	0.01196536
7	0x3e92381b	0.2855843
8	0xbe90277d	-0.28155127
9	0x3d98b51c	0.07456419
10	0x3dbf9783	0.093550704
11	0x3e9e3c24	0.3090526
12	0xbe227f9e	-0.15868995
13	0x3e288e0b	0.16460435
14	0xbe86bc5f	-0.2631559
15	0xbe4d80bf	-0.20068644
16	0x3dc4efc6	0.09616046
17	0x3cdb65b1	0.026781889
18	0xbdbd012c	-0.09228739
19	0xbe965137	-0.29358837
20	0x3e22d3aa	0.15901056
21	0x3e332350	0.1749394
22	0xbe319472	-0.17341784
23	0x3e563c46	0.2092143
24	0xbe4a9d2a	-0.19786516
25	0xbe06ab2c	-0.13151234
26	0x3df1a759	0.11799497
27	0xbeb4b233	-0.35292205
28	0x3db84bab	0.089988075
29	0xbeb82430	-0.3596511
30	0x3ee5e94f	0.44904563
31	0xbe80e688	-0.2517588
32	0x3c93fcc7	0.01806487
33	0x3e199a76	0.15000328
34	0xbedf6199	-0.4362915
35	0xbe57ac05	-0.21061714
36	0x3d282f5b	0.041060787
37	0x3e707ace	0.23484346
38	0xbeab86ca	-0.33501273
39	0xbdcd66c4	-0.100293666
40	0x3e25ddae	0.16197845
41	0xbe54e90f	-0.2079203
42	0x3d07956c	0.033101484
43	0xbd2fef9e	-0.042953126
44	0x3e15aa1e	0.14615676
45	0xbcb0d8de	-0.021587785
46	0xbd9be525	-0.07612065
47	0x3e2242b6	0.1584576
48	0x3dd1e227	0.10248213
49	0xbdfeb4d9	-0.12436838
50	0x3e2cee17	0.16887699
51	0x3d90de0b	0.07073601
52	0xbe55ad77	-0.20866953
53	0xbed4c91d	-0.41559687
54	0x3dcdf27f	0.10056018
55	0xbed72de6	-0.42027205
56	0xbdc4f552	-0.09617104
57	0xbe8f9ca4	-0.28049195
58	0xbee9feec	-0.45702302
59	0x3d9c4062	0.076294675
60	0xbdb69b7a	-0.089163736
61	0x3e0e05b0	0.13869357
62	0xbeadc9e9	-0.33943108
63	0x3e2b261a	0.16713753
64	0x3e1dda55	0.15415318
65	0xbdbd1186	-0.09231858
66	0x3e9893f9	0.29800394
67	0x3db2e705	0.0873547
68	0xbdc6c7d5	-0.09706084
69	0xbed1faa1	-0.41011527
70	0xbdf1f56e	-0.1181439
71	0xbd9c1e05	-0.07622913
72	0x3e1d2c91	0.15349032
73	0xbe9eca48	-0.31013703
74	0x3e8d8b09	0.27645138
75	0xbdb374e1	-0.08762527
76	0xbe639a71	-0.22226883
77	0x3d6f2feb	0.058395308
78	0x3e38d78e	0.18050978
79	0x3e9da81a	0.30792314
80	0xbb2cee4f	-0.002638716
81	0x3c087949	0.008329698
82	0xbef1a9b9	-0.471998
83	0xbe27fe2b	-0.16405551
84	0x3e0c7291	0.13715579
85	0xbe8f506d	-0.27991048
86	0xbdd03a58	-0.10167378
87	0xbcc982e1	-0.02459854
88	0xbec1e004	-0.37866223
89	0x3d809d71	0.062800296
90	0x3db32a81	0.08748341
91	0x3e13b25d	0.14423509
92	0x3d0100d6	0.031494938
93	0xbea8aa2b	-0.32942328
94	0x3cce877c	0.025211088
95	0x3e711c2c	0.23545903
96	0xbc7e4a83	-0.015520695
97	0x3e7eb571	0.24873902
98	0xbdac9657	-0.084271125
99	0x3e5bd7dd	0.21469064
100	0x3ec7c748	0.39019227
101	0xbe838bd9	-0.25692633
102	0x3e604f76	0.21905312
103	0x3e22ec9d	0.15910573
104	0x3e04e1cb	0.12976758
105	0x3e8bcf7f	0.27306744
106	0x3d97c935	0.07411424
107	0xbe842168	-0.25806737
108	0x3dd456c9	0.103681155
109	0xbd8fa465	-0.07013778
110	0x3e6154c4	0.22004992
111	0xbd8dc4e4	-0.069223195
112	0xbdf7292a	-0.12068398
113	0x3e41b432	0.18916395
114	0x3e1261ad	0.14295073
115	0x3db43a74	0.088002115
116	0xbdd882ad	-0.105717994
117	0x3e8a17c4	0.26971257
118	0x3e9b0886	0.3027994
119	0x3e056bb6	0.1302937
120	0x3e36d72b	0.17855518
121	0x3d8f3e46	0.069942996
122	0xbc19ec14	-0.009394664
123	0x3d2c153e	0.042012446
124	0x3ec0fc62	0.37692553
125	0x3d6fc724	0.058539525
126	0xbe1af9e2	-0.15134385
127	0x3a9ef565	0.0012127577
128	0xbf8982ef	-1.0743083
129	0xbea4d246	-0.32191676
130	0xbf627fb3	-0.88476104
131	0xbf74fc9a	-0.9569794
132	0xbee3b8f4	-0.44477046
133	0xbe79c1ff	-0.2439041
134	0xbf0325cd	-0.51229554
135	0xbf6cea00	-0.92544556
136	0xbf6cc6d2	-0.92490876
137	0xbf1445de	-0.5791911
138	0xbf5fd35a	-0.8743187
139	0xbf33e429	-0.7027002
140	0xbf28e3bf	-0.6597251
141	0xbf8e0d7e	-1.1097867
142	0xbee54fd2	-0.4478746
143	0xbf0de487	-0.5542683
144	0xbfd00717	-1.6252164
145	0xbf7c1c3c	-0.9848058
146	0xbf19ef36	-0.6013063
147	0xbf014508	-0.5049596
148	0xbf5a2e62	-0.85227025
149	0xbf03be29	-0.51462036
150	0xbe0e69a2	-0.13907483
151	0xbf799fbd	-0.97509366
152	0xbe7e14d3	-0.24812631
153	0xbf6567b4	-0.89611363
154	0xbf031391	-0.5120173
155	0xbf4b0a23	-0.7931234
156	0xbf57c2b0	-0.84281445
157	0xbf3a6b1c	-0.72819686
158	0xbf067c4a	-0.525334
159	0xbf087b9e	-0.53313625

bias f4 [5]
0	0x3e8c8c16	0.27450627
1	0x3e06f368	0.1317879
2	0x3e135b30	0.14390254
3	0xbd6058cc	-0.054772183
4	0xbf4cc398	-0.7998595
