models/mlpnet_20.pth (torch, 21725 bytes, 21 tensors)

weight f4 [3, 5]
0	0xbed3802a	-0.4130872
1	0x3d1ce756	0.038306557
2	0xbf4c324c	-0.79764247
3	0xbf1e7210	-0.61892796
4	0xbe7d7e61	-0.24755241
5	0xc0219bec	-2.5251417
6	0xbe0384ec	-0.12843674
7	0xbec52603	-0.38505563
8	0x3c93ccf0	0.018042058
9	0x3ebb82fd	0.36623374
10	0x3fcf9780	1.6218109
11	0xc0137775	-2.304166
12	0x3f506db0	0.8141737
13	0xbef94b34	-0.48690188
14	0xbf002f63	-0.50072306

weight f4 [3, 5]
0	0xbf5841ef	-0.84475607
1	0x3f3fe695	0.74961215
2	0x3fb3f073	1.4057754
3	0x3f6cdd83	0.925255
4	0xbd2e29b4	-0.04252024
5	0xbe401e15	-0.18761475
6	0xbe0066a2	-0.12539151
7	0xbfb68982	-1.4260714
8	0xbf099fb9	-0.5375934
9	0xbfdbf427	-1.7183884
10	0xbef615c8	-0.48063493
11	0x3fd74fe0	1.6821251
12	0x403749dc	2.863883
13	0xbf842b24	-1.0325665
14	0xbd8a3d0f	-0.06749927

weight f4 [7, 9]
0	0x3dad77c5	0.0847011
1	0xbfb23082	-1.3921053
2	0xbeda2a39	-0.42610338
3	0xbef4dce5	-0.4782478
4	0x3dc97b9d	0.098380305
5	0x3f41dce0	0.75727654
6	0xbecd8b62	-0.40145403
7	0x3d175f54	0.036956146
8	0xbf6bc25b	-0.9209344
9	0x3f82f3a8	1.0230608
10	0xbedaab23	-0.42708692
11	0xbedff23b	-0.43739495
12	0xbeeb9e96	-0.4601943
13	0xbdf18191	-0.11792291
14	0x3e281ac5	0.16416462
15	0x3f996471	1.1983777
16	0xbf5a62ed	-0.853072
17	0x3f6b2daa	0.9186655
18	0xbf29f873	-0.6639473
19	0x3f9a525b	1.2056383
20	0x3f44642c	0.7671535
21	0xbd840f31	-0.0644821
22	0xbe09bdc7	-0.134513
23	0x3f98d12a	1.1938832
24	0x3f0faf38	0.5612674
25	0x3f249d9b	0.64302987
26	0xbf2cfa77	-0.6756968
27	0x3e1cae63	0.15300898
28	0xbebb8ac9	-0.36629322
29	0xbfd27d65	-1.6444517
30	0xbeee49a9	-0.46540573
31	0x3fec3a29	1.8455249
32	0xbfca6936	-1.5813358
33	0x3ec7b241	0.39003184
34	0xbf0dbb8e	-0.5536431
35	0x3fd7d7f2	1.6862776
36	0x3f3ad292	0.72977555
37	0x3ea63aa6	0.3246662
38	0x3ed8817f	0.42286298
39	0x3e3dd552	0.18538406
40	0x3ec4909f	0.38391587
41	0x3e2c60f0	0.16833854
42	0xbf6881c1	-0.9082299
43	0xbee4f3e4	-0.44717324
44	0x3f86d57d	1.0533901
45	0x3edf7040	0.43640327
46	0xbf822b1e	-1.0169408
47	0x3f81f8d2	1.0154059
48	0xbfaa075f	-1.32835
49	0x3feea321	1.8643533
50	0x3f2e31c2	0.68044674
51	0x3ddd3667	0.10801392
52	0x3eb5b4a2	0.35489374
53	0xbfd5106e	-1.6645639
54	0xbe8a3b50	-0.26998377
55	0xbf4f6768	-0.8101716
56	0xbf6cae96	-0.92453897
57	0xbc251d43	-0.010077777
58	0xbf3bbdaa	-0.7333628
59	0x3f1131a5	0.56716377
60	0xbf549921	-0.83046156
61	0x3f8c5354	1.096293
62	0x3f8a592f	1.0808467

weight f4 [40]
0	0x3f8ca01e	1.0986364
1	0x3fa3e4ec	1.2804236
2	0x3f91e8f3	1.1399215
3	0x3f55c364	0.8350127
4	0x3f900068	1.1250124
5	0x3f4dd42e	0.80401886
6	0x3f3cbd7e	0.7372664
7	0x3f5401a2	0.8281499
8	0x3f5dff63	0.86717814
9	0x3f5623f9	0.8364864
10	0x3f833518	1.0250578
11	0x3f74acae	0.9557599
12	0x3f647e51	0.89255244
13	0x3f6f8a6e	0.935706
14	0x3f3c8e36	0.73654497
15	0x3f687bc5	0.9081386
16	0x3f8044d2	1.0021002
17	0x3faae1bd	1.335014
18	0x3f8fb1fc	1.1226192
19	0x3f585c96	0.84516275
20	0x3f4957db	0.7864968
21	0x3f727fa3	0.9472601
22	0x3f620a45	0.8829692
23	0x3f7d5559	0.98958355
24	0x3f657653	0.89633673
25	0x3f68098c	0.9063957
26	0x3f8738a3	1.0564159
27	0x3f819c23	1.0125774
28	0x3f7bcb98	0.98357534
29	0x3f8e5ff7	1.1123036
30	0x3f8ba1da	1.0908768
31	0x3f75bd75	0.95992213
32	0x3f75d7cd	0.9603241
33	0x3f689ee0	0.90867424
34	0x3f6ac7a9	0.9171091
35	0x3f7adea0	0.9799595
36	0x3f6fd3e6	0.93682706
37	0x3f75e4db	0.9605233
38	0x3f55e45a	0.8355156
39	0x3f5ef71a	0.870958

bias f4 [40]
0	0x3bba5685	0.0056865835
1	0xbb80bac5	-0.0039285147
2	0x3c3dcd11	0.011584536
3	0xbb49c242	-0.0030785953
4	0x3b9f3d26	0.0048595844
5	0xba61d8bf	-0.00086153665
6	0xbb1afe4a	-0.0023650103
7	0xb96ba76c	-0.00022473716
8	0xba2f4b69	-0.0006686957
9	0xbb0da285	-0.0021611762
10	0xbb3491d0	-0.0027552731
11	0x3aea7d04	0.0017890041
12	0x3b9f1708	0.0048550405
13	0x39b04d51	0.0003362694
14	0x3a3029b7	0.0006720083
15	0x3a15c83b	0.00057137356
16	0xbbf104cc	-0.007355308
17	0xbb3d3e56	-0.0028876266
18	0xbbc50dbe	-0.006013601
19	0xba0186a1	-0.0004941021
20	0xb9ce6ec8	-0.0003937392
21	0xba7602f3	-0.0009384595
22	0x3b104494	0.0022013532
23	0xbb8da57f	-0.004322707
24	0xb9c7a0e3	-0.00038076108
25	0x3b4b5df7	0.003103135
26	0xbc18811b	-0.009308125
27	0x3a968e4f	0.0011486503
28	0xbb9f649f	-0.00486429
29	0xbb051eb2	-0.0020312485
30	0x3c23637c	0.009972449
31	0xb9f99c1b	-0.0004760929
32	0x3bb6de93	0.005580732
33	0x3b795827	0.0038046928
34	0xbab2b9e3	-0.0013635721
35	0xbb521422	-0.0032055457
36	0x39af595d	0.00033445182
37	0xbba874f3	-0.0051408946
38	0x398a8104	0.00026417535
39	0x3b0a64d0	0.0021117218

running_mean f4 [40]
0	0x3f112c40	0.56708145
1	0x410368dc	8.2131
2	0x3f374dac	0.7160289
3	0x40c16e3d	6.044707
4	0x3da7233f	0.081610195
5	0x3efdaf5e	0.49547857
6	0x3d0f454d	0.0349782
7	0x3e7c28a2	0.24624875
8	0x3e59b7da	0.2126154
9	0x3f575f1a	0.8412949
10	0x3ece9f81	0.40356067
11	0x3ee641c8	0.44972062
12	0x3d14c4c6	0.03632047
13	0x44fbcd05	2014.4069
14	0x417ed62f	15.927291
15	0x3d2f37fc	0.042778
16	0xbd6af44e	-0.057361893
17	0xbf36a33e	-0.7134284
18	0x3c754730	0.014970586
19	0x3d5f7611	0.054555956
20	0xbd98d798	-0.07462996
21	0xbfb9d78a	-1.4518902
22	0xbe090245	-0.13379772
23	0xbf05bc64	-0.52240586
24	0xbe8eefb5	-0.27917257
25	0x3d883ec5	0.06652597
26	0xbf2a0825	-0.6641868
27	0x3f0f6a89	0.56021935
28	0x3f3cd9aa	0.7376963
29	0x3ef7249b	0.48270115
30	0xbef0e641	-0.4705067
31	0xbe7c79cd	-0.24655838
32	0xbdc8b7bb	-0.09800669
33	0xbe0405e2	-0.12892869
34	0xbe1d263f	-0.15346621
35	0xbe4ea909	-0.2018167
36	0x3f3c7563	0.7361662
37	0xbe39646c	-0.18104714
38	0x3f29c2b1	0.663127
39	0x3e339391	0.17536761

running_var f4 [40]
0	0x3e7d08b1	0.24710347
1	0x411691c2	9.410585
2	0x3e508909	0.20364775
3	0x4017c33f	2.3712919
4	0x3c87c4f6	0.01657341
5	0x3e805f9b	0.2507294
6	0x3a886528	0.0010406123
7	0x3cf915bf	0.030405877
8	0x3e2aa434	0.16664201
9	0x3e09842c	0.13429326
10	0x3e77861d	0.24172254
11	0x3e7bd3de	0.2459254
12	0x3d105c95	0.035244543
13	0x3f0346e4	0.51280046
14	0x42a0f402	80.47658
15	0x3ef83493	0.4847761
16	0x3f04614d	0.5171097
17	0x3de4e08b	0.11175641
18	0x3ec3c02c	0.38232553
19	0x3f08a299	0.53373104
20	0x3eebe5de	0.46073812
21	0x3fb4fe79	1.4140159
22	0x3e3ab7d2	0.18234184
23	0x3ddc3761	0.1075275
24	0x3dc9cc76	0.09853451
25	0x3dd0b99e	0.10191654
26	0x3da8449d	0.08216212
27	0x3e41d1e6	0.18927726
28	0x3fd54cd8	1.6664076
29	0x3ef99b81	0.48751453
30	0x3f08138f	0.53154844
31	0x3e43b6cd	0.19112702
32	0x3f7d2a0a	0.9889227
33	0x3f2f71a7	0.68532795
34	0x3de1b43b	0.11020704
35	0x3eecb1e3	0.46229467
36	0x3e4e38e6	0.20138893
37	0x3ef1bdd1	0.4721513
38	0x3e887639	0.26652697
39	0x3f7ac368	0.97954416

weight f4 [32, 40]
0	0x3de15c18	0.110038936
1	0xbcb285c0	-0.021792293
2	0xbe3ca01e	-0.18420455
3	0x3e0fea50	0.14054227
4	0x3e7bbff7	0.24584948
5	0x3d80ac81	0.062829025
6	0x3e5e81d8	0.21729219
7	0x3d5252c3	0.05134846
8	0x3e7712ac	0.24128217
9	0x3e068437	0.13136373
10	0xbe265259	-0.1624235
11	0xbe4202b3	-0.18946342
12	0xbd61e175	-0.055146653
13	0x3a595ba5	0.0008291549
14	0xbcf85289	-0.030312793
15	0xbe295df7	-0.16539751
16	0x3dc68eb3	0.096951865
17	0x3ef254e8	0.47330403
18	0xbe4cbe90	-0.19994569
19	0x3dbd5588	0.092448294
20	0x3e640870	0.22268844
21	0xbe70c2f2	-0.23511866
22	0xbc8abd8e	-0.01693609
23	0x3d1ddf95	0.038543303
24	0xbe26cbc6	-0.16288671
25	0xbe206cbe	-0.15666482
26	0x3e32e6e7	0.17470895
27	0xbd7b3b75	-0.061336
28	0x3df5d1f4	0.12002936
29	0xbe2fc59f	-0.1716523
30	0xbe094f9e	-0.13409278
31	0xbe05491d	-0.13016172
32	0x3d90185a	0.07035895
33	0xbe17e81d	-0.14834638
34	0x3e5d242c	0.2159583
35	0xbe8f4798	-0.2798431
36	0x3e212706	0.15737543
37	0xbdee39cf	-0.1163212
38	0xbe029610	-0.12752557
39	0x3e664470	0.22487044
40	0x3de23915	0.11046044
41	0x3bd154a7	0.006388265
42	0x3ea5e556	0.32401532
43	0xbb597623	-0.0033181987
44	0xbe105bcc	-0.14097518
45	0x3cd4f919	0.025997685
46	0xbdb3d63a	-0.08781095
47	0xbe2d650f	-0.16933082
48	0xbe559441	-0.20857336
49	0xbdae7520	-0.085184336
50	0xbdc38052	-0.095459595
51	0x3e9c041a	0.3047188
52	0x3e622608	0.2208482
53	0xbe8fa7c8	-0.28057694
54	0xbe8d4dfb	-0.27598557
55	0x3e477ad9	0.19480456
56	0xbe140e2e	-0.14458534
57	0xbda27866	-0.079331204
58	0xbe10004b	-0.14062612
59	0xbd9ed624	-0.07755688
60	0x3e75f7bd	0.24020286
61	0x3cb2b138	0.02181302
62	0xbc1e073b	-0.009645279
63	0x3e33ae34	0.17546922
64	0xbe991a1b	-0.2990273
65	0xbdc06c78	-0.09395689
66	0xbe9c5671	-0.305347
67	0x3eb9941a	0.36245805
68	0x3e0a7df1	0.13524605
69	0x3cc4e50e	0.024035003
70	0xbd89f1d6	-0.0673558
71	0x3e157b83	0.14597897
72	0xbdccc009	-0.09997565
73	0x3e8e3793	0.27776775
74	0x3e7edb72	0.24888399
75	0xbe88c04f	-0.2670922
76	0x3c406d78	0.011744849
77	0x3e5232e7	0.2052723
78	0x3e307b93	0.1723464
79	0xbe81986f	-0.2531161
80	0xbe2d5a41	-0.1692896
81	0x3ee925ca	0.45536643
82	0xbe889f7b	-0.26684174
83	0xbbbd761a	-0.005781901
84	0x3e40bef0	0.18822837
85	0x3ddecf38	0.108793676
86	0x3c967f42	0.018371228
87	0xbcfe0eb0	-0.031012863
88	0x3d2de594	0.04245527
89	0xbe196f5c	-0.14983886
90	0xbdef9884	-0.11699012
91	0xbd618e53	-0.05506737
92	0xbcc63396	-0.02419452
93	0xbe3184ad	-0.17335768
94	0xbdd1514d	-0.10220585
95	0xbdc8e88c	-0.0980998
96	0x3e386fc3	0.18011384
97	0xbeb4da8e	-0.35322994
98	0x3dd701de	0.10498403
99	0xbe0f3b5f	-0.13987492
100	0x3d76f77e	0.06029462
101	0xbe1931d0	-0.14960408
102	0x3dbbed13	0.09176078
103	0x3d630588	0.055425197
104	0xbc9c0621	-0.019045891
105	0xbdcf9af4	-0.10136977
106	0x3e84f213	0.25965938
107	0x3e502cac	0.20329541
108	0x3e66fee4	0.2255817
109	0x3c8cc2ad	0.017182672
110	0xbe7d986d	-0.24765177
111	0xbe061083	-0.13092236
112	0xbe103493	-0.14082555
113	0x3d37b87c	0.044853672
114	0xbdb40a06	-0.08790974
115	0x3dcd9cf8	0.10039705
116	0xbdc245cc	-0.09485969
117	0x3e10185b	0.14071791
118	0x3e65b0f1	0.22430779
119	0x3d07448d	0.03302436
120	0xbea20386	-0.31643313
121	0xbdb9e537	-0.090769224
122	0x3e2e48ee	0.17020008
123	0xbd74d59f	-0.059774037
124	0xbebdf505	-0.37100998
125	0xbc29d778	-0.010366313
126	0xbe20fa0b	-0.15720384
127	0xbe2d63f4	-0.1693266
128	0xbe4a4ded	-0.19756289
129	0x3d61c4f7	0.05511948
130	0x392de63e	0.00016584338
131	0x3e5e5ec1	0.21715833
132	0xbd21a92c	-0.039467975
133	0xbd00d344	-0.03145148
134	0x3c82dbaf	0.015973894
135	0xbe1bc483	-0.15211682
136	0xbe3ea3d3	-0.18617181
137	0xbe324beb	-0.17411773
138	0x3c85a9f5	0.016316393
139	0x3e123820	0.14279222
140	0x3de6d8b4	0.112718016
141	0xbd730042	-0.059326418
142	0xbe34a35a	-0.17640439
143	0xbe7906d2	-0.24319008
144	0xbea6dd8f	-0.3259091
145	0x3e6703f3	0.225601
146	0x3e87d02c	0.2652601
147	0x3dc100ae	0.09423958
148	0xbda5988d	-0.080857374
149	0x3e38e018	0.18054235
150	0xbcd5864c	-0.026065014
151	0x3d7e3151	0.06205875
152	0x3e0636f4	0.131069
153	0xbddf5dc8	-0.10906559
154	0xbd874728	-0.06605369
155	0xbe6a0d4c	-0.22856635
156	0x3e1b1cdb	0.15147726
157	0x3d5fee74	0.054670766
158	0xbe36c84e	-0.17849848
159	0xbe318cc7	-0.17338859
160	0x3dbd53dc	0.092445105
161	0xbe858f40	-0.26085854
162	0x3e4a3fe6	0.19750938
163	0x3d96c0b8	0.07360977
164	0xbc5c13fa	-0.013432497
165	0x3e3569e0	0.1771617
166	0xbe2d7727	-0.16939984
167	0xbdd0cf96	-0.10195844
168	0xbe4c1c76	-0.19932732
169	0xbb4b6ece	-0.0031041387
170	0xbde77e57	-0.11303394
171	0x3da70850	0.08155882
172	0xbe1ab554	-0.15108234
173	0x3ea43485	0.3207132
174	0x3e595fc3	0.21227936
175	0x3de42928	0.111406624
176	0xbe026748	-0.12734711
177	0x3c771d3d	0.015082655
178	0xbe209545	-0.15681942
179	0xbd8035aa	-0.062602356
180	0xbe876813	-0.2644659
181	0x3d4510ca	0.048111714
182	0xbdfe188d	-0.124070264
183	0xbe133787	-0.14376651
184	0x3cb7dd6b	0.022444448
185	0x3e2be7e2	0.16787675
186	0xbe21d715	-0.15804704
187	0x3d2ebfd9	0.04266343
188	0x3e44383d	0.19162078
189	0xbd893f97	-0.06701582
190	0xbde85b9b	-0.11345597
191	0x3e94c6fa	0.29058057
192	0xbd24443b	-0.040104132
193	0xbe16f4be	-0.14741799
194	0x3e3bbf32	0.18334654
195	0x3e58b04e	0.21161005
196	0x3d9ae1a3	0.07562568
197	0x3db23510	0.08701527
198	0x3e53bc7c	0.2067737
199	0x3e6c2e2e	0.23064491
200	0x3db40ade	0.08791135
201	0x3da90728	0.08253318
202	0xbca96d4a	-0.020681996
203	0x3db118fb	0.08647343
204	0xbd5c7da3	-0.053830754
205	0x3e4592df	0.19294308
206	0x3e0e9018	0.13922155
207	0x3dcd8e14	0.10036865
208	0xbe44213f	-0.19153307
209	0x3d557d7e	0.05212163
210	0xbeadc065	-0.33935848
211	0x3da96776	0.08271687
212	0xbd16468c	-0.036688372
213	0xbe46fe49	-0.1943294
214	0xbcea4f87	-0.028602375
215	0x3c931bff	0.017957686
216	0xbe7c7281	-0.24653055
217	0xbded5521	-0.11588503
218	0x3e5537c0	0.20822048
219	0xbe2d1d6a	-0.16905752
220	0x3e0b1568	0.13582385
221	0x3e322a0f	0.17398857
222	0xbda2ef33	-0.0795578
223	0xbdc5e66a	-0.096630886
224	0x3dab2cb2	0.08358134
225	0x3df85803	0.12126162
226	0x3d039dcd	0.032132912
227	0xbe5e2eb6	-0.21697506
228	0xbd6af7a9	-0.057365093
229	0xbe1fb81e	-0.15597579
230	0xbe9741d8	-0.29542422
231	0xbe3d5d72	-0.18492678
232	0xbe92bb4b	-0.28658518
233	0xbe2b7a5b	-0.16745894
234	0xbe7fb0c7	-0.24969779
235	0xbd954ed4	-0.07290426
236	0xbe4b6ca3	-0.1986566
237	0x3e69bdd4	0.2282632
238	0x3e7d6ff4	0.24749738
239	0x3e673fc1	0.22582914
240	0x3e883a97	0.266072
241	0x3e19d915	0.15024216
242	0xbdf5dea1	-0.12005354
243	0xbc10dee2	-0.008842202
244	0xbe3d91da	-0.18512669
245	0x3e0796eb	0.13241164
246	0x3d87e905	0.06636242
247	0xbe2e29b6	-0.17008099
248	0xbd4ac5b1	-0.04950494
249	0xbda52266	-0.080632016
250	0xbe06822c	-0.13135594
251	0x3ba0113c	0.004884867
252	0x3dcabb09	0.098989554
253	0x3da63358	0.08115262
254	0xbd53b173	-0.0516829
255	0x3e2880ba	0.16455355

bias f4 [32]
0	0xbd78c67e	-0.060736172
1	0xbbdf98ba	-0.0068236263
2	0x3d7faa05	0.062418003
3	0xbc725de7	-0.014792896
4	0xbd27f982	-0.041009434
5	0x3b765b40	0.003759101
6	0xbde2ada6	-0.11068277
7	0xbe00c2f8	-0.12574375
8	0xbdbd259b	-0.09235688
9	0x3e19efc9	0.15032877
10	0xbdd49073	-0.10379114
11	0x3e123eaa	0.14281717
12	0xbc18957c	-0.009312984
13	0x3e14588b	0.14486901
14	0xbd6c70c0	-0.057724714
15	0xbdd47ba8	-0.10375148
16	0x3d8e1944	0.06938413
17	0x3de59ff4	0.11212149
18	0x3e0742a2	0.13209012
19	0x3e1cebc2	0.1532431
20	0xbd44e933	-0.04807396
21	0x3cf43eea	0.029815156
22	0x3db2e749	0.087355204
23	0xbd216078	-0.03939864
24	0x3bc461d0	0.0059931055
25	0x3d9736b0	0.07383478
26	0x3db9f94a	0.09080751
27	0xbe0b616f	-0.13611387
28	0xbe0910ba	-0.13385287
29	0x3df43ae9	0.11925299
30	0xbc281982	-0.010259988
31	0x3c725d4c	0.0147927515

weight f4 [32]
0	0x3f6932bb	0.91093034
1	0x3f83b35c	1.0289111
2	0x3f920988	1.1409159
3	0x3f7b7259	0.98221356
4	0x3f7810b4	0.96900487
5	0x3f787e31	0.9706755
6	0x3f670e78	0.9025645
7	0x3f72f4a3	0.94904536
8	0x3f7478b5	0.95496684
9	0x3f832d19	1.0248138
10	0x3f7d175e	0.9886378
11	0x3f75abb0	0.959651
12	0x3f648767	0.8926911
13	0x3f7fdf96	0.9995054
14	0x3f816046	1.0107505
15	0x3f84f95a	1.0388596
16	0x3f7fede2	0.99972355
17	0x3f820bc1	1.0159837
18	0x3f7edaf1	0.9955283
19	0x3f562701	0.83653265
20	0x3f94984f	1.1608981
21	0x3f6ab2d1	0.916791
22	0x3f75e366	0.9605011
23	0x3f671f58	0.902822
24	0x3f6fa66a	0.936133
25	0x3f8d7116	1.1050136
26	0x3f7a567d	0.9778822
27	0x3f920141	1.1406633
28	0x3f7fdcd3	0.99946326
29	0x3f836d4e	1.0267732
30	0x3f721e87	0.9457783
31	0x3f6c6139	0.9233585

bias f4 [32]
0	0xbdf54ec0	-0.11977911
1	0x3dbafda8	0.09130412
2	0x3d67983a	0.05654166
3	0x3e037400	0.12837219
4	0x3d449d72	0.048001714
5	0x3cf4b40d	0.029871011
6	0xbd38a138	-0.045075625
7	0x3ca3f70f	0.020015268
8	0xbcee597c	-0.029095404
9	0x3e0f44e3	0.13991122
10	0x3d62184a	0.055198945
11	0xbdab5a51	-0.08366836
12	0xbdc57524	-0.096414834
13	0xbc1ec69d	-0.009690908
14	0x3d63df5e	0.05563294
15	0x3dcbfad7	0.09959953
16	0x3e3836de	0.1798968
17	0x3e399dd2	0.1812661
18	0x3d8b857c	0.068125695
19	0xbdc41052	-0.09573425
20	0xbd19146b	-0.037372988
21	0xbb79e36d	-0.003812994
22	0x3da37aa4	0.07982376
23	0xbd92c2e7	-0.07166081
24	0x3d0e123b	0.034685355
25	0x3d5d6721	0.05405343
26	0x3da15689	0.078778334
27	0x3e440657	0.19143043
28	0xbd5160a4	-0.051117554
29	0x3d1ff3dd	0.039050926
30	0xbd899a80	-0.06718922
31	0x3d5f1135	0.05445977

running_mean f4 [32]
0	0xbd85fef9	-0.06542773
1	0x3aa5b17c	0.0012641395
2	0x3d4a37ad	0.049369503
3	0xbc6dcae8	-0.014513709
4	0xbd153cb3	-0.03643484
5	0xb979a897	-0.00023809295
6	0xbde084fe	-0.10962866
7	0xbdfe654e	-0.12421666
8	0xbdbd35e5	-0.09238795
9	0x3e14425f	0.14478444
10	0xbdd1b645	-0.10239843
11	0x3e13248d	0.14369412
12	0xbbf5ddee	-0.0075032627
13	0x3e1d5f3b	0.15368359
14	0xbd6d63f0	-0.057956636
15	0xbdce41ed	-0.10071168
16	0x3d8a81cc	0.06763038
17	0x3deae5cf	0.11469614
18	0x3e08fd1a	0.133778
19	0x3e1c50ae	0.15265152
20	0xbd7ba81c	-0.06143962
21	0x3cceca64	0.025242992
22	0x3db3dcf6	0.08782379
23	0xbcea6f58	-0.028617546
24	0x3badf020	0.005308166
25	0x3d931f11	0.0718366
26	0x3dbeac24	0.09310177
27	0xbe0e3156	-0.13886008
28	0xbe104ca4	-0.14091736
29	0x3de60c79	0.11232848
30	0xbc2ff7ee	-0.010740263
31	0x3cbf9810	0.023387939

running_var f4 [32]
0	0x3fe5d526	1.7955673
1	0x3fdcc47d	1.7247463
2	0x3f48f1ce	0.78493965
3	0x3f656727	0.89610523
4	0x3f4b1ba0	0.7933903
5	0x3fba4c84	1.4554601
6	0x3f55c62b	0.83505505
7	0x3f85fa20	1.0466957
8	0x3f4c1456	0.7971853
9	0x3f4ffdc4	0.8124659
10	0x3f872538	1.0558233
11	0x3feb40e7	1.8379182
12	0x3fbed387	1.4908303
13	0x3fac4ee2	1.3461573
14	0x3f069965	0.5257781
15	0x3fa79323	1.3091778
16	0x3f3b4efa	0.73167384
17	0x3f995c88	1.1981363
18	0x3f44d60a	0.768891
19	0x401203fd	2.2814934
20	0x3fd5eaa6	1.6712234
21	0x3facce86	1.3500526
22	0x403433fc	2.8156729
23	0x407bf16f	3.936611
24	0x3fdbe3d6	1.7178905
25	0x3f39f949	0.72646004
26	0x3fb698b9	1.4265357
27	0x3f97e53b	1.186683
28	0x402ae11c	2.6699896
29	0x400957dd	2.1459877
30	0x3f8e6e7b	1.1127466
31	0x3fd3f255	1.6558329

weight f4 [32, 32]
0	0xbe8b1e73	-0.27171668
1	0x3e3320ac	0.17492932
2	0x3c3ad9e0	0.0114044845
3	0x3e6abd35	0.22923739
4	0xbde24a6a	-0.110493496
5	0xbe0af18c	-0.13568705
6	0x3e060b28	0.13090193
7	0xbd9cb86e	-0.07652365
8	0xbd64ee00	-0.055891037
9	0x3e683d80	0.2267971
10	0xbe142e61	-0.14470817
11	0xbd00891f	-0.03138077
12	0xbc541eaf	-0.012946769
13	0x3e370aed	0.17875262
14	0xbd96794b	-0.073473535
15	0xbd72b9a4	-0.059259072
16	0xbe85c64b	-0.26127848
17	0x3d0facf5	0.035077054
18	0x3d552f29	0.05204693
19	0x3c8d5136	0.017250638
20	0xbe884393	-0.26614055
21	0xbe0c53b0	-0.13703799
22	0xbe02ffa2	-0.12792829
23	0xbd259eca	-0.040434636
24	0xbdcda6c0	-0.10041571
25	0xbea49a97	-0.32149193
26	0x3d1a7a34	0.0377142
27	0x3e404364	0.18775707
28	0x3cf55575	0.029947976
29	0x3e9320fd	0.28736106
30	0x3e95d0df	0.29260918
31	0xbdf580ae	-0.11987434
32	0x3dbaa7bd	0.09114025
33	0xbbf98ee9	-0.007615913
34	0x3dff9ca4	0.12481049
35	0x3e1d9776	0.15389809
36	0x3e8f7da5	0.28025547
37	0x3e7cb433	0.24678116
38	0xbbaed382	-0.0053352723
39	0x3d19d4dc	0.037556514
40	0xbdf147d5	-0.11781279
41	0x3e5d2c0c	0.21598834
42	0x3d6f3ea7	0.05840936
43	0x3e876115	0.26441255
44	0x3e5b1308	0.21393979
45	0x3c27266f	0.010202034
46	0x3d1a1775	0.037620027
47	0xbe04d8e5	-0.12973364
48	0x3e8b20be	0.27173418
49	0xbdfc19b3	-0.12309589
50	0x3e880fff	0.26574704
51	0x3e45f196	0.19330439
52	0xbba22d6d	-0.004949263
53	0x3c00e8a0	0.007867962
54	0xbe9cd637	-0.30632183
55	0xbe8e07ba	-0.2774027
56	0xbe095af2	-0.13413599
57	0x3e820551	0.2539468
58	0xbe1cc456	-0.15309271
59	0xbe2c534b	-0.16828649
60	0xbd09d3a4	-0.0336491
61	0x3e232d24	0.15935189
62	0xbe1eba79	-0.15500821
63	0x3b12027e	0.0022279317
64	0x3d7915de	0.06081187
65	0x3e5c6452	0.21522644
66	0xbc7555f7	-0.014974109
67	0x3de39f75	0.111143984
68	0x3e7481cc	0.23877639
69	0x3b597737	0.003318263
70	0x3e53d094	0.20685035
71	0x3e792910	0.2433207
72	0x3d5b4609	0.053533588
73	0xbe9faca2	-0.31186396
74	0x3e2f5a26	0.17124233
75	0xbdde3004	-0.10849002
76	0x3d1c1dd9	0.038114402
77	0x3d1285b4	0.03577204
78	0xbe90f720	-0.2831354
79	0x3def8485	0.11695198
80	0xbe2c8c80	-0.16850471
81	0xbe12d65e	-0.14339587
82	0xbdd5a141	-0.10431147
83	0xbe101920	-0.14072084
84	0xbd3e5c45	-0.046474714
85	0xbde12feb	-0.10995468
86	0x3e8ce2a5	0.27516666
87	0x3e050864	0.12991482
88	0x3e92258a	0.28544265
89	0xbe6720c2	-0.2257109
90	0xbdde8048	-0.108643115
91	0xbce162d0	-0.027512938
92	0xbd6659fa	-0.056238152
93	0xbe910a09	-0.2832797
94	0xbe0f46ef	-0.13991903
95	0xbd080a73	-0.03321309
96	0x3d146248	0.03622654
97	0xbe0c439c	-0.13697666
98	0xbd7e490d	-0.062081385
99	0xbe5420e3	-0.2071567
100	0x3e67caaa	0.22635904
101	0x3e0bfcac	0.13670605
102	0x3d6d29b2	0.057901092
103	0x3dd65275	0.10464946
104	0x3dfcc46f	0.12342154
105	0x3c5c530c	0.013447534
106	0x3e88f1d9	0.26747015
107	0xbebffdd3	-0.3749834
108	0xbd972c5a	-0.07381506
109	0x3e22e2da	0.1590685
110	0x3e3784a7	0.17921697
111	0xbe3e4305	-0.18580253
112	0x3df84e7a	0.12124343
113	0x3e333cf5	0.17503722
114	0x3c2be6c7	0.010492033
115	0xbe16b9cd	-0.14719315
116	0xbe413a21	-0.1886983
117	0xbeac05eb	-0.33598265
118	0xbe050c7e	-0.12993047
119	0xbe5be32b	-0.21473376
120	0xbe93890e	-0.28815502
121	0x3eaa3998	0.33247066
122	0x3cb0ff6e	0.021606173
123	0x3d551703	0.0520239
124	0x3d18bf91	0.037292067
125	0xbe51964d	-0.20467491
126	0xbe8129d2	-0.2522722
127	0xbdfcd485	-0.123452224
128	0x3eb3ad9a	0.35093385
129	0x3e6307bc	0.22170919
130	0xbe9040fd	-0.28174582
131	0xbe6d8317	-0.23194538
132	0x3d6fbe1d	0.058530916
133	0xbe7d8366	-0.24757156
134	0x3dff832c	0.12476191
135	0xbd1f8df5	-0.03895374
136	0x3e3bccfd	0.18339916
137	0xbd0b5106	-0.034012817
138	0xbdccad2e	-0.09993969
139	0x3dae9e44	0.085262805
140	0x3c9bbc9a	0.01901083
141	0xbe23901f	-0.15972947
142	0xbe927926	-0.28608054
143	0xbcae8ad9	-0.021306442
144	0xbe515521	-0.2044263
145	0xbe448db7	-0.19194685
146	0x3e6d00ee	0.23144886
147	0xbe06809f	-0.13135003
148	0x3e8f0979	0.27936915
149	0xbe09afa4	-0.13445908
150	0x3ba11390	0.004915662
151	0xbdea066e	-0.114270076
152	0x3e1e4616	0.15456423
153	0xbb64c8a3	-0.0034909628
154	0x3e696f4d	0.22796364
155	0x3e1b4a33	0.15165024
156	0x3e382fe3	0.17987017
157	0x3e9af428	0.302644
158	0x3da6ed90	0.0815078
159	0xbe07516b	-0.13214652
160	0x3e5d9a91	0.21640994
161	0xbe69d1e7	-0.22833978
162	0xbddd4489	-0.10804088
163	0x3e66cb1b	0.22538416
164	0xbcff1456	-0.031137627
165	0xbe311d87	-0.1729642
166	0x3de82049	0.11334283
167	0x3e6c7743	0.2309237
168	0x3acd4be1	0.0015662872
169	0xbe690230	-0.2275474
170	0x3d7db8cf	0.061943825
171	0xbdae2261	-0.08502651
172	0xbe779244	-0.2417689
173	0x3e5826e9	0.21108593
174	0x3e827bb6	0.2548501
175	0xbded22b7	-0.11578887
176	0xbced7d3d	-0.028990382
177	0xbe58d4cf	-0.2117493
178	0x3cd41e39	0.025893318
179	0xbda4c866	-0.080460355
180	0xbe72aef8	-0.23699558
181	0xbd588f68	-0.052871138
182	0xbd1d605f	-0.038421985
183	0x3d6c4f3f	0.057692762
184	0xbe7812fe	-0.24225995
185	0xbe7b37bc	-0.2453298
186	0x3e31455e	0.17311618
187	0xbdda8b2b	-0.106710754
188	0x3e2aec03	0.16691594
189	0xbe168dd5	-0.14702542
190	0xbdb4cec8	-0.08828503
191	0xbd9f58e4	-0.077806264
192	0xbc15e3fb	-0.009148593
193	0x3dd0d476	0.10196774
194	0xbe984a4d	-0.29744187
195	0x3e46eb26	0.1942564
196	0x3e2887b2	0.16458014
197	0x3c7a218f	0.01526679
198	0x3e96d718	0.29460979
199	0x3d9e487a	0.077286676
200	0xbea91d0b	-0.3302997
201	0xbd9e3d00	-0.077264786
202	0x3ddc2f6f	0.10751235
203	0xbd81ce9a	-0.06338234
204	0xbcd755b9	-0.026285993
205	0xbe9d179a	-0.3068207
206	0xbc1e7621	-0.009671719
207	0xbcaccd2f	-0.021093933
208	0xbe1a10fa	-0.15045539
209	0xbe6a31a2	-0.22870496
210	0xbe78e330	-0.24305415
211	0x3e13b0cd	0.14422913
212	0x3d0b2eda	0.033980228
213	0x3e9bf4e8	0.30460286
214	0xbe355989	-0.17709936
215	0x3dcc0249	0.09961373
216	0xbd4951e3	-0.04915036
217	0xbe90173c	-0.28142726
218	0x3e6b3638	0.22969902
219	0xbdfae9a1	-0.122515924
220	0xbdcc2106	-0.09967236
221	0x3e13e27b	0.14441864
222	0x3d52e99d	0.051492322
223	0x3e01e678	0.12685573
224	0xbdfd7e7e	-0.12377642
225	0x3e3ef793	0.1864913
226	0x3d30d790	0.043174326
227	0x3e51113e	0.20416734
228	0x3e5b62dd	0.21424432
229	0xbdb65d40	-0.08904505
230	0xbe0dce6a	-0.13848272
231	0x3e62c7e2	0.22146562
232	0xbdb2c5af	-0.087291114
233	0xbdac48e7	-0.084123425
234	0x3e837aca	0.25679618
235	0x3dec807b	0.11547943
236	0x3e9aaabd	0.30208388
237	0xbe813777	-0.2523763
238	0x3dfa92d5	0.12235037
239	0xbe289a0d	-0.16465016
240	0x3e4ee770	0.20205474
241	0x3cc21f6f	0.02369663
242	0x3d3bf1fe	0.04588508
243	0x3e550855	0.2080396
244	0xbea01c21	-0.3127146
245	0x3e5016bc	0.20321172
246	0x3dd67b61	0.104727514
247	0xbea36f3b	-0.319208
248	0x3de103b4	0.109870344
249	0x3d372114	0.04470928
250	0xbbe28322	-0.006912605
251	0xbe289568	-0.16463244
252	0xbea3614b	-0.31910166
253	0xbde0d703	-0.1097851
254	0xbd2d0b9c	-0.0422474
255	0xbda52552	-0.08063759

bias f4 [32]
0	0xbe049cb5	-0.12950404
1	0xbbdbc40a	-0.0067067193
2	0x3e1aebcc	0.15129012
3	0x3d758141	0.05993772
4	0xbe2eed10	-0.1708262
5	0x3d3e6f82	0.04649306
6	0x3d9bbe93	0.076047085
7	0xbe28b99a	-0.16477051
8	0x3d41e822	0.04734052
9	0x3df2c1a6	0.11853342
10	0xbdf7a929	-0.120928116
11	0xbe264c6a	-0.16240087
12	0xbdb8ec6e	-0.090294704
13	0x3cf039fb	0.029324522
14	0x3d4e67d8	0.050392002
15	0xbc525d15	-0.012839575
16	0x3d7e7956	0.062127434
17	0xbddc4ca8	-0.107568085
18	0xbd6dd0e8	-0.058060557
19	0xbe22820c	-0.15869921
20	0x3e3249f6	0.17411026
21	0xbd86ea5c	-0.06587669
22	0xbc037885	-0.00802434
23	0x3e309b97	0.17246853
24	0xbd4ce63d	-0.05002426
25	0x3d57303f	0.052536245
26	0xbdb810ad	-0.08987556
27	0x3bf03d59	0.007331532
28	0x3b083801	0.0020785334
29	0xbdc18b9c	-0.094504565
30	0xbe1ec8c4	-0.15506274
31	0xbe1a254d	-0.15053292

weight f4 [32]
0	0x3fa0858c	1.2540755
1	0x3f98142e	1.1881158
2	0x3f9fc2af	1.2481288
3	0x3facc6b4	1.3498139
4	0x3f9c1d8a	1.2196515
5	0x3fa8a7af	1.3176173
6	0x3f94180d	1.156984
7	0x3f9e4b97	1.2366818
8	0x3fa79ef1	1.309538
9	0x3f99fdcb	1.2030576
10	0x3f9823fb	1.188598
11	0x3f9745d9	1.1818191
12	0x3f88840f	1.0665301
13	0x3f9da800	1.2316895
14	0x3f8ea532	1.1144164
15	0x3f854834	1.041266
16	0x3fa8ad15	1.317782
17	0x3f96c5b4	1.1779084
18	0x3f926817	1.1438016
19	0x3f906d44	1.1283345
20	0x3f9cafd3	1.2241157
21	0x3fa7344b	1.3062834
22	0x3f8d0c6b	1.1019415
23	0x3fa98a70	1.3245373
24	0x3f831a00	1.024231
25	0x3f89faae	1.0779626
26	0x3f84d993	1.0378898
27	0x3f9cc088	1.2246256
28	0x3fa573d5	1.2925974
29	0x3fa81416	1.313113
30	0x3fa764ef	1.3077677
31	0x3f88ce77	1.0688008

bias f4 [32]
0	0x3e84cc16	0.25936955
1	0x3d8bcb1b	0.06825849
2	0x3e4b2fea	0.19842497
3	0x3e9243c7	0.28567335
4	0x3d6747ff	0.056465145
5	0xbc41bf0d	-0.011825335
6	0x3dc5011c	0.09619352
7	0x3e688c99	0.22709884
8	0x3e861690	0.2618909
9	0x3e061b33	0.13096313
10	0x3e82038e	0.25393337
11	0x3e15f0e5	0.14642675
12	0xbca01d04	-0.019545086
13	0x3eb19f91	0.34692052
14	0x3db7e1e4	0.08978632
15	0xbd002948	-0.03128937
16	0x3ede82a6	0.43459052
17	0x3e80d780	0.25164413
18	0xbbc1d739	-0.005915549
19	0xbc0b6c12	-0.008509653
20	0x3e842d60	0.25815868
21	0x3e1cb22d	0.15302344
22	0xbc7b65a3	-0.015344056
23	0x3e6148aa	0.22000375
24	0xbcbc6e96	-0.02300195
25	0x3da667f0	0.08125293
26	0x3d2bf6d3	0.041983437
27	0x3db7781d	0.08958457
28	0x3e7b8a94	0.24564582
29	0x3d9f2a28	0.077717125
30	0x3e10e6e7	0.14150582
31	0x3cf77a3a	0.03020965

running_mean f4 [32]
0	0xbe8d4ed4	-0.27599204
1	0x3ee79680	0.4523201
2	0x3d4443e2	0.0479163
3	0xbe3b5443	-0.18293862
4	0xbdcf02f9	-0.10107989
5	0xbedae135	-0.42749944
6	0xbe3bd787	-0.18343936
7	0xbd26b166	-0.040696524
8	0xbea184a4	-0.3154651
9	0x3e667d26	0.22508678
10	0x3f13424f	0.57523054
11	0xbf485426	-0.782534
12	0xbe980b9c	-0.29696357
13	0xbd7a0321	-0.06103814
14	0xbbdc438b	-0.006721919
15	0xbdc7414c	-0.09729251
16	0xbdbdde41	-0.09270907
17	0x3e81f129	0.25379303
18	0xbf1f1595	-0.62142307
19	0xbecb89ae	-0.3975348
20	0xbe50e01b	-0.2039799
21	0xbe837c99	-0.25680998
22	0x3daaf8cc	0.083482355
23	0xbc62f8a3	-0.013853225
24	0xbe9e18bf	-0.30878255
25	0xbe7c234f	-0.24622844
26	0x3e2b4069	0.1672379
27	0xbda9758e	-0.08274375
28	0xbd60d0d6	-0.05488666
29	0x3e913cf5	0.2836682
30	0x3ed2b9a7	0.41157266
31	0xbc604696	-0.013688704

running_var f4 [32]
0	0x3e5b93d8	0.21443117
1	0x3edc4858	0.43023944
2	0x3f123108	0.57106066
3	0x3ef63a76	0.48091477
4	0x3f4b1550	0.79329395
5	0x3efacba5	0.48983493
6	0x3f0bb734	0.5457642
7	0x3f009038	0.5022006
8	0x3f0f3fb9	0.5595661
9	0x3e8b77c4	0.2723981
10	0x3f10fc81	0.5663529
11	0x3eb3242e	0.3498854
12	0x3f07aa23	0.52993983
13	0x3effd0e3	0.49964055
14	0x3f323dae	0.69625366
15	0x3ea18186	0.3154413
16	0x3efd3c83	0.4946023
17	0x3f03fcf0	0.51557827
18	0x3ea72d90	0.3265195
19	0x3f1237eb	0.57116574
20	0x3e6cda32	0.2313011
21	0x3e70bd44	0.23509699
22	0x3e798745	0.24368007
23	0x3ec66f96	0.38757008
24	0x3e4c6f47	0.19964324
25	0x3fa6c506	1.3028877
26	0x3e821f34	0.2541443
27	0x3f34f1bd	0.70681363
28	0x3ee5bda3	0.44871244
29	0x3ed2a300	0.41139984
30	0x3ef29b5d	0.47384158
31	0x3ea78bf3	0.3272396

weight f4 [5, 32]
0	0x3ea4c52c	0.3218168
1	0xbe4949b9	-0.19657029
2	0x3d879bb3	0.06621494
3	0x3e1df26f	0.15424512
4	0x3c4f84b8	0.01266592
5	0x3edb39bc	0.42817485
6	0x3d480df7	0.048841443
7	0x3e8409d4	0.25788748
8	0xbe2ff5cd	-0.1718361
9	0x3d683f30	0.056700885
10	0x3de4f664	0.11179808
11	0x3ea1d232	0.3160568
12	0xbde63d12	-0.11242117
13	0x3e0164ed	0.12636156
14	0xbe37d0e1	-0.17950775
15	0xbe18791f	-0.14889954
16	0x3d1578fb	0.03649233
17	0x3cf5d96a	0.030010898
18	0xbd9d7ce9	-0.0768984
19	0xbe7dac2b	-0.24772708
20	0x3db427f7	0.08796685
21	0x3e2dc893	0.16971044
22	0xbdf940fd	-0.12170599
23	0x3e38a1f5	0.18030532
24	0xbe0c1c5a	-0.1368269
25	0xbdb80847	-0.08985954
26	0x3d82f97b	0.06395241
27	0xbe609d93	-0.2193511
28	0x3e12985b	0.14315931
29	0xbe95dd8a	-0.29270583
30	0x3ecc3ecd	0.39891663
31	0xbdfc231b	-0.12311383
32	0xbcb7bf1b	-0.022429993
33	0x3e0970f1	0.1342199
34	0xbeb761f1	-0.3581691
35	0xbe14870b	-0.1450464
36	0x3dadab9a	0.08479996
37	0x3df3e7b4	0.11909428
38	0xbe8cc8b7	-0.27496883
39	0xbde05d3f	-0.10955285
40	0x3e18e40c	0.14930743
41	0xbe17a086	-0.14807329
42	0x3d42416d	0.047425676
43	0xbe003006	-0.1251832
44	0x3dd8b62c	0.105816215
45	0xbbff11e1	-0.0077841138
46	0xbd9d56ca	-0.07682569
47	0x3e002ed3	0.12517862
48	0x3d041cf6	0.03225418
49	0xbdea5986	-0.114428565
50	0x3e252e35	0.16130908
51	0x3d86a2f6	0.06574051
52	0xbe318594	-0.17336112
53	0xbe88a1b0	-0.26685858
54	0x3dd366dd	0.10322354
55	0xbe93db85	-0.28878418
56	0xbddd612c	-0.1080955
57	0xbe58c74c	-0.21169776
58	0xbe5e881d	-0.2173161
59	0x3d8ea81b	0.06965657
60	0xbe26f9df	-0.16306256
61	0x3dbe7600	0.092998505
62	0xbeaa3f47	-0.33251402
63	0x3e0dd3df	0.13850354
64	0x3e0df7f7	0.13864122
65	0xbd673fb7	-0.056457248
66	0x3e840fd5	0.2579333
67	0x3df365d6	0.11884658
68	0xbe1b345d	-0.15156694
69	0xbe4660e2	-0.19372895
70	0xbdfcb7a8	-0.12339717
71	0xbcd8fab0	-0.026486725
72	0x3dd55020	0.10415673
73	0xbe8f1725	-0.27947345
74	0x3e88a386	0.26687258
75	0xbddb4740	-0.10706949
76	0xbe5248a4	-0.20535523
77	0x3d455237	0.04817411
78	0x3dc6a78c	0.09699926
79	0x3e7de59d	0.24794622
80	0x3cf6b789	0.030116813
81	0x3c54d089	0.012989172
82	0xbec062a8	-0.3757527
83	0xbe23da87	-0.1600133
84	0x3e07d459	0.13264598
85	0xbe79125a	-0.24323407
86	0xbd9b2641	-0.07575656
87	0xbbcf6333	-0.006328964
88	0xbe92c47c	-0.2866553
89	0x3d4f089d	0.050545324
90	0x3d712ade	0.058878772
91	0x3dd4550f	0.10367786
92	0x3c57bb80	0.013167262
93	0xbe6e47b8	-0.23269546
94	0x3c8506e6	0.016238641
95	0x3e114522	0.14186528
96	0x3d8c8224	0.0686076
97	0x3e656583	0.22402005
98	0xbdc41504	-0.09574321
99	0x3e2ebe78	0.17064846
100	0x3eaa74c2	0.33292204
101	0xbe1fe96d	-0.15616389
102	0x3e1c14bb	0.15242283
103	0x3e1edd74	0.15514165
104	0x3ddefe14	0.10888305
105	0x3e6e6278	0.2327975
106	0x3d5e0724	0.05420603
107	0xbe51beb2	-0.204829
108	0x3dd9d108	0.10635573
109	0xbc8ca0a0	-0.017166436
110	0x3e60948d	0.21931668
111	0xbced31ff	-0.028954504
112	0xbd41d823	-0.047325265
113	0x3e337c95	0.17527993
114	0x3dcbf86f	0.09959494
115	0x3d899ea9	0.06719715
116	0xbd26e7ab	-0.04074828
117	0x3e3ac5c6	0.18239507
118	0x3e845b00	0.25850677
119	0x3ddd4fde	0.10806249
120	0x3dc39f6a	0.0955189
121	0x3bbed4b7	0.0058236974
122	0x3c47b939	0.012190157
123	0x3c8a225c	0.016862087
124	0x3eb861ac	0.36012018
125	0x3d0231b4	0.03178568
126	0xbdb771e5	-0.089572705
127	0x3bf99821	0.007617012
128	0xbf02b00f	-0.51049894
129	0xbe080b99	-0.13285674
130	0xbeac5c5a	-0.3366421
131	0xbf08f544	-0.53499246
132	0xbe93487d	-0.28766242
133	0xbdb20a60	-0.08693385
134	0xbea790a1	-0.3272753
135	0xbf0a9f68	-0.54149485
136	0xbf0283da	-0.5098244
137	0xbea08a5f	-0.3135557
138	0xbeb9762f	-0.3622298
139	0xbe9124d1	-0.283484
140	0xbe6128ae	-0.21988174
141	0xbf0d108f	-0.5510339
142	0xbe5f0396	-0.21778712
143	0xbe85d963	-0.26142415
144	0xbf298afc	-0.662277
145	0xbec09474	-0.3761326
146	0xbe20665c	-0.15664047
147	0xbe7225f4	-0.2364729
148	0xbed7f9d1	-0.42182782
149	0xbe395a21	-0.18100788
150	0xbd5ce1a3	-0.05392612
151	0xbecb3041	-0.39685252
152	0xbda2ffed	-0.0795897
153	0xbec6cc15	-0.38827577
154	0xbe1fd8ad	-0.15609999
155	0xbeee6c3c	-0.4656695
156	0xbef969d5	-0.48713556
157	0xbee4a216	-0.44654912
158	0xbe3c6493	-0.18397741
159	0xbe8db68b	-0.27678332

bias f4 [5]
0	0x3e891a38	0.26777816
1	0x3dc771ab	0.09738477
2	0x3e0fdf2e	0.1404998
3	0xbcedb080	-0.029014826
4	0xbebc0f9d	-0.36730662
