models/mlpnet_30.pth (torch, 21725 bytes, 21 tensors)

weight f4 [3, 5]
0	0xbed3cc01	-0.4136658
1	0x3d6b61a4	0.057466164
2	0xbf4d40a8	-0.8017678
3	0xbf1d1f3b	-0.6137578
4	0xbe750b36	-0.23930058
5	0xc02193c4	-2.524644
6	0xbe172279	-0.14759244
7	0xbec31add	-0.38106433
8	0x3ccebc2d	0.025236214
9	0x3eb78708	0.35845208
10	0x3fcfad1b	1.6224703
11	0xc0123e30	-2.2850456
12	0x3f4f820e	0.8105782
13	0xbefc2727	-0.4924862
14	0xbf0259bc	-0.50918174

weight f4 [3, 5]
0	0xbf5bb01c	-0.85815597
1	0x3f46e991	0.77700144
2	0x3fb45a55	1.4090067
3	0x3f6b5b33	0.91936034
4	0xbd3ec33e	-0.046572916
5	0xbe4d9090	-0.20074677
6	0xbe1c4bb0	-0.15263247
7	0xbfb6f7e0	-1.4294395
8	0xbf0803fe	-0.5313109
9	0xbfdde205	-1.7334601
10	0xbeef4b48	-0.46737123
11	0x3fd3c962	1.6545832
12	0x40371602	2.8607183
13	0xbf84fd65	-1.038983
14	0xbd81a578	-0.06330389

weight f4 [7, 9]
0	0x3dae35db	0.08506366
1	0xbfb1253e	-1.383949
2	0xbecdb7dc	-0.40179336
3	0xbee85d81	-0.45383838
4	0x3dc79f62	0.09747197
5	0x3f3f1a41	0.74649435
6	0xbedbb69f	-0.42912766
7	0x3d2000fd	0.039063442
8	0xbf6b3f9c	-0.91893935
9	0x3f77aa2f	0.96744055
10	0xbecc98bd	-0.3996028
11	0xbee5918c	-0.44837606
12	0xbeeaa38d	-0.45827904
13	0xbe1e2707	-0.15444575
14	0x3e4f4d64	0.20244366
15	0x3f92ddff	1.1473998
16	0xbf58ece7	-0.84736484
17	0x3f758626	0.9590782
18	0xbf2e98ed	-0.68202096
19	0x3f9b4d67	1.2132996
20	0x3f493a24	0.7860434
21	0xbd84954d	-0.06473789
22	0xbe029bf1	-0.127548
23	0x3f9b877a	1.2150719
24	0x3f16fa5a	0.58975756
25	0x3f261442	0.6487466
26	0xbf2e9e0b	-0.68209904
27	0x3e356d95	0.17717583
28	0xbebe2d7b	-0.37144074
29	0xbfd2f005	-1.6479498
30	0xbeef7493	-0.46768627
31	0x3fed3fc4	1.8535085
32	0xbfc92e7f	-1.5717314
33	0x3ecc6da4	0.399274
34	0xbf0b6d45	-0.5446361
35	0x3fd817a7	1.6882218
36	0x3f3c07a7	0.73449177
37	0x3ea160bb	0.31519112
38	0x3ee090ec	0.43860567
39	0x3e531af4	0.2061575
40	0x3ec02b6a	0.37533122
41	0x3e286d1d	0.16447873
42	0xbf664d2a	-0.89961493
43	0xbeec5242	-0.46156508
44	0x3f812e13	1.0092186
45	0x3eeabfa4	0.45849335
46	0xbf829177	-1.0200642
47	0x3f79b1bc	0.97536826
48	0xbfabeb4e	-1.3431184
49	0x3fef2d7b	1.8685755
50	0x3f2e8f10	0.68187046
51	0x3e03e8f6	0.12881836
52	0x3eb26b57	0.3484752
53	0xbfd47b1b	-1.6600069
54	0xbe86f06b	-0.263553
55	0xbf51998b	-0.8187491
56	0xbf7193cb	-0.9436614
57	0xbcde29e9	-0.027119594
58	0xbf39d900	-0.7259674
59	0x3f0cde41	0.5502663
60	0xbf568a2d	-0.8380459
61	0x3f8c1361	1.0943414
62	0x3f8bacf4	1.0912156

weight f4 [40]
0	0x3f901199	1.125537
1	0x3fa7524a	1.3071988
2	0x3f93478c	1.1506209
3	0x3f5313ff	0.82452387
4	0x3f908131	1.1289426
5	0x3f4b9142	0.7951852
6	0x3f35561b	0.7083451
7	0x3f4d25f4	0.80136037
8	0x3f520a3f	0.82046884
9	0x3f4fd7f2	0.8118888
10	0x3f80eced	1.0072304
11	0x3f771996	0.96523416
12	0x3f5c6993	0.86098593
13	0x3f76317f	0.96169275
14	0x3f356457	0.7085623
15	0x3f734db8	0.95040464
16	0x3f801f34	1.0009522
17	0x3fac0015	1.3437525
18	0x3f932001	1.1494142
19	0x3f5bcd4c	0.85860133
20	0x3f4a720a	0.7908026
21	0x3f731571	0.9495459
22	0x3f5d8bf6	0.8654169
23	0x3f7b0530	0.9805479
24	0x3f600346	0.87504995
25	0x3f65cd1c	0.897661
26	0x3f863ecf	1.0487918
27	0x3f83122d	1.0239922
28	0x3f7a651e	0.9781054
29	0x3f8f125f	1.1177481
30	0x3f8a3bce	1.0799501
31	0x3f6ef9e0	0.9335003
32	0x3f74b5c4	0.9558985
33	0x3f651d1a	0.8949753
34	0x3f69ffea	0.9140612
35	0x3f79f074	0.9763253
36	0x3f68b475	0.90900356
37	0x3f6c55c8	0.9231839
38	0x3f565a02	0.8373109
39	0x3f5a197c	0.85195136

bias f4 [40]
0	0x3bfb0ee3	0.0076616867
1	0xbb9c6384	-0.0047726054
2	0x3c9eb0b8	0.019371375
3	0xbb1c6fe0	-0.0023870394
4	0x3bd6f34b	0.0065597645
5	0xbb0d404e	-0.002155322
6	0xbbbc770b	-0.0057514957
7	0xbb15ea5d	-0.0022875287
8	0xbb92b504	-0.004477145
9	0xba544934	-0.00080980663
10	0xb9c91f10	-0.0003836085
11	0x3b02f06f	0.0019979735
12	0x3b5b6372	0.0033476022
13	0x3c0afa28	0.008482493
14	0x3985ef1e	0.00025545893
15	0x3a096ed7	0.00052426517
16	0xbc222dc1	-0.009898604
17	0xbbb93052	-0.005651512
18	0xbc060148	-0.008179016
19	0xbb4d415c	-0.0031319475
20	0xbb4b6378	-0.003103463
21	0xb8743a66	-5.822852e-05
22	0xbbe28877	-0.0069132405
23	0xbb5fca83	-0.0034147806
24	0xbb947113	-0.004530081
25	0x3bbbb319	0.005728137
26	0xbbde5406	-0.0067849187
27	0xbab30108	-0.0013656924
28	0xbc066c1c	-0.008204486
29	0xba8e1b43	-0.0010841865
30	0x3c700b00	0.01465106
31	0x3b707d58	0.0036695804
32	0x3c3b0d3e	0.011416731
33	0x3bb084dc	0.005386932
34	0xbae306b1	-0.001732072
35	0xbb96422f	-0.0045855264
36	0x3a8c42b9	0.0010701037
37	0xbbaa4e76	-0.0051973416
38	0x3aff7c7b	0.0019492054
39	0x3b06b97e	0.002055734

running_mean f4 [40]
0	0x3f17ef82	0.59349835
1	0x4102059f	8.126372
2	0x3f36c4f0	0.7139425
3	0x40bdb080	5.9277954
4	0x3da85a74	0.082203776
5	0x3f0ae240	0.5425148
6	0x3d18b07b	0.03727768
7	0x3e88afc9	0.26696613
8	0x3e46bf2f	0.19408868
9	0x3f4e098f	0.80483335
10	0x3ec0d8fe	0.37665552
11	0x3ed5e724	0.4177791
12	0x3c80bfbf	0.015716432
13	0x44fbce4c	2014.4468
14	0x417aca8c	15.67445
15	0xbc1d9dcf	-0.009620144
16	0xbd2c9bbc	-0.042140707
17	0xbf386e78	-0.7204356
18	0x3d4544b2	0.048161216
19	0x3d637559	0.055531833
20	0xbe10fabc	-0.14158148
21	0xbfae2229	-1.3604175
22	0xbdf48574	-0.11939517
23	0xbf0badb5	-0.5456193
24	0xbe9ade75	-0.30247846
25	0x3d1fdd30	0.0390293
26	0xbf27c566	-0.6553558
27	0x3f09d3f3	0.53839034
28	0x3f239813	0.6390392
29	0x3edf1ff6	0.43579072
30	0xbf089000	-0.53344727
31	0xbe64a53f	-0.22328661
32	0xbe08e7ef	-0.13369726
33	0xbe2aaf19	-0.16668357
34	0xbe2e54c2	-0.1702452
35	0xbe250720	-0.16115999
36	0x3f3042ff	0.6885223
37	0xbe418f3a	-0.18902293
38	0x3f25ca2e	0.64761627
39	0x3e6c3a4c	0.23069113

running_var f4 [40]
0	0x3e77ebfe	0.24211118
1	0x411d3815	9.826192
2	0x3e51bb0b	0.20481507
3	0x40102b4e	2.252643
4	0x3c888acf	0.016667752
5	0x3e7e7cd3	0.24852304
6	0x3a9d4947	0.0011999988
7	0x3cf83224	0.030297346
8	0x3e22124c	0.15827292
9	0x3e20398d	0.15646954
10	0x3e706f88	0.23480046
11	0x3e79cf1b	0.2439541
12	0x3c7c20bb	0.015388663
13	0x3f02bc19	0.51068264
14	0x429e4754	79.13931
15	0x3ef86fbe	0.48522753
16	0x3f02cfcb	0.51098317
17	0x3dd6bcce	0.104852304
18	0x3ebfefb2	0.3748756
19	0x3f06a05a	0.5258843
20	0x3ee27fce	0.44238132
21	0x3fb0b68f	1.3805712
22	0x3e2f047f	0.17091559
23	0x3dd78084	0.10522559
24	0x3dcb9600	0.099407196
25	0x3dc538fe	0.09630011
26	0x3db63033	0.08895912
27	0x3e5ea186	0.21741304
28	0x3fe62880	1.798111
29	0x3f00f1a2	0.503687
30	0x3f15805e	0.58399
31	0x3e5206e8	0.20510447
32	0x3f72f24e	0.9490098
33	0x3f3b967d	0.732765
34	0x3dfd5765	0.12370185
35	0x3f0fdb85	0.56194335
36	0x3e8a946a	0.27066356
37	0x3efbf06c	0.49206865
38	0x3e98b77b	0.29827484
39	0x3f83dceb	1.0301794

weight f4 [32, 40]
0	0x3dcb599d	0.09929202
1	0xbcb638c8	-0.022243872
2	0xbe3bccea	-0.18339887
3	0x3ddb3879	0.10704131
4	0x3e7a8215	0.24463685
5	0x3d970a5d	0.073750235
6	0x3e45dabf	0.19321726
7	0x3d7bce74	0.061476186
8	0x3e7ad2ec	0.24494523
9	0x3dd538a8	0.10411197
10	0xbe0b8521	-0.13625003
11	0xbe48d512	-0.1961253
12	0xbcf1d10c	-0.029518627
13	0xbc8a2498	-0.016863152
14	0x3c6e626c	0.014549833
15	0xbe208824	-0.15676934
16	0x3dcb1bfa	0.099174455
17	0x3f0327de	0.5123271
18	0xbe5bd361	-0.21467353
19	0x3d6c680a	0.057716407
20	0x3e82a315	0.25515047
21	0xbe7bad46	-0.24577817
22	0xbbb810ba	-0.0056172283
23	0x3d0274de	0.031849734
24	0xbe1deae6	-0.15421638
25	0xbe162c23	-0.14665274
26	0x3e1e51aa	0.1546084
27	0xbd4a343e	-0.04936623
28	0x3e0a16e8	0.134853
29	0xbe19728c	-0.14985102
30	0xbdee50a4	-0.11636475
31	0xbdccf593	-0.10007777
32	0x3da1e701	0.079053886
33	0xbe13d2e7	-0.14435922
34	0x3e4285d5	0.18996365
35	0xbe8aafe8	-0.2708733
36	0x3e08abe0	0.13346815
37	0xbda35452	-0.07975067
38	0xbe1f6a76	-0.15567955
39	0x3e76cdae	0.24101898
40	0x3dc58231	0.09643973
41	0x3cfec9e6	0.031102132
42	0x3eaf66ae	0.34258026
43	0xbbec6bf0	-0.0072150156
44	0xbe23498a	-0.15946022
45	0x39f41556	0.00046555203
46	0xbd6d55a8	-0.057943016
47	0xbe33b584	-0.17549711
48	0xbe592245	-0.21204479
49	0xbd55bdcb	-0.052182954
50	0xbdaa9eb7	-0.08331054
51	0x3ea04122	0.31299692
52	0x3e5b2431	0.21400525
53	0xbe8cc6f9	-0.27495554
54	0xbe9163aa	-0.2839635
55	0x3e4524b1	0.19252278
56	0xbe160659	-0.14650859
57	0xbd4ee496	-0.050510965
58	0xbdc4d559	-0.09611005
59	0xbddb98d4	-0.10722509
60	0x3e6d47bb	0.23171894
61	0x3ca82c19	0.02052884
62	0xbb6336d1	-0.0034670124
63	0x3e3322f4	0.17493802
64	0xbe994f87	-0.29943487
65	0xbdbff0a7	-0.09372073
66	0xbea3237d	-0.31863013
67	0x3ebe64b6	0.3718621
68	0x3e171275	0.14753135
69	0x3d121f50	0.035674393
70	0xbd5af5c1	-0.053457025
71	0x3e19e89e	0.15030143
72	0xbdbdcd3f	-0.09267663
73	0x3e8cf91c	0.27533805
74	0x3e857d8e	0.26072353
75	0xbe8d8896	-0.2764327
76	0x3ce58e0a	0.028021831
77	0x3e5bec6f	0.21476911
78	0x3e10405f	0.14087056
79	0xbe81da0e	-0.25361675
80	0xbe22c5a8	-0.15895712
81	0x3ef2809d	0.4736375
82	0xbe8f70b1	-0.28015664
83	0x3ca11a65	0.019665906
84	0x3e4ee4a0	0.20204401
85	0x3db3d8b4	0.08781567
86	0x3c6237bd	0.013807234
87	0xbd0b084b	-0.033943456
88	0x3c396ac0	0.011316955
89	0xbe206bc5	-0.15666111
90	0xbdca6289	-0.09882075
91	0xbd3e9167	-0.046525385
92	0xbd4c4dd3	-0.049878906
93	0xbe44d650	-0.19222379
94	0xbddadff8	-0.1068725
95	0xbdc98df1	-0.09841526
96	0x3e2a8b6c	0.16654748
97	0xbeb52996	-0.3538329
98	0x3db4cb61	0.08827854
99	0xbe061782	-0.13094905
100	0x3d221c3b	0.039577704
101	0xbe148fda	-0.14508
102	0x3dca1f81	0.0986929
103	0x3d2c0c98	0.042004198
104	0xbcc61ff8	-0.024185166
105	0xbdd71e94	-0.10503879
106	0x3e7ac8a5	0.24490602
107	0x3e56544b	0.20930593
108	0x3e6fafb3	0.23406868
109	0x3cffd3ac	0.031228863
110	0xbe714a5b	-0.2356352
111	0xbde9f95d	-0.114245154
112	0xbe0da37b	-0.13831894
113	0x3d4cb4eb	0.049977224
114	0xbdb20773	-0.08692827
115	0x3dcee2b7	0.10101836
116	0xbdc82221	-0.097721346
117	0x3e0a3ac6	0.13498983
118	0x3e62de88	0.22155201
119	0x3d22da77	0.039759126
120	0xbeb1db88	-0.34737802
121	0xbd88ad0d	-0.06673632
122	0x3e3f27eb	0.18667571
123	0xbd5df0a1	-0.05418456
124	0xbec6e738	-0.3884828
125	0xbd129837	-0.035789695
126	0xbe1e2247	-0.15442763
127	0xbe20ad81	-0.15691186
128	0xbe3437a6	-0.17599353
129	0x3d52a4cc	0.051426694
130	0x3b4bef47	0.0031117962
131	0x3e5084fc	0.2036323
132	0xbcd36692	-0.025805745
133	0xbd4fcc6f	-0.050732072
134	0x3c03be20	0.008040935
135	0xbe0be63a	-0.13662043
136	0xbe3db838	-0.18527305
137	0xbe36ffcf	-0.1787102
138	0x3c59bf82	0.013290288
139	0x3e061e9a	0.13097611
140	0x3dcdd11b	0.10049649
141	0xbd8119be	-0.06303738
142	0xbe1ba15e	-0.15198275
143	0xbe824831	-0.25445703
144	0xbea817bb	-0.32830605
145	0x3e67e8a6	0.22647342
146	0x3e897e74	0.2685429
147	0x3d9fff24	0.07812336
148	0xbdbcf384	-0.092261344
149	0x3e372b00	0.17887497
150	0xbd06c701	-0.03290463
151	0x3d94dcd4	0.07268682
152	0x3e107093	0.14105444
153	0xbdcf0e42	-0.10110141
154	0xbd7a2839	-0.061073516
155	0xbe630b22	-0.22172216
156	0x3e07997f	0.13242148
157	0x3d85cc40	0.06533098
158	0xbe427f8d	-0.1899397
159	0xbe2789e2	-0.16361192
160	0x3de3ddb7	0.11126273
161	0xbe913721	-0.28362373
162	0x3e4cea28	0.20011199
163	0x3d875d05	0.06609539
164	0xbc9106c0	-0.017703414
165	0x3e2d8f67	0.16949235
166	0xbe247085	-0.16058548
167	0xbdd1beb9	-0.102414556
168	0xbe5ac1ed	-0.2136304
169	0xbca0a854	-0.019611515
170	0xbde786a1	-0.11304975
171	0x3de73e94	0.11291233
172	0xbe171229	-0.14753021
173	0x3ea3cf58	0.31994128
174	0x3e417dd3	0.18895654
175	0x3de59f5e	0.112120375
176	0xbdf9d4d2	-0.121987954
177	0x3b85d777	0.0040845233
178	0xbe1726ed	-0.14760943
179	0xbcfae8dc	-0.030628614
180	0xbe90fde3	-0.283187
181	0x3d53f238	0.05174467
182	0xbddb744d	-0.10715542
183	0xbe26a594	-0.162741
184	0x3c154020	0.009109527
185	0x3e2362d3	0.15955667
186	0xbe2acc1e	-0.16679427
187	0x3d25926a	0.040422834
188	0x3e45a1c7	0.19299994
189	0xbd5e7881	-0.05431414
190	0xbdddcb45	-0.10829786
191	0x3e85ebc8	0.2615645
192	0xbd00f66e	-0.031485014
193	0xbe129403	-0.14314274
194	0x3e3ba678	0.18325222
195	0x3e5b5e06	0.21422586
196	0x3da31620	0.079632044
197	0x3db88b3b	0.09010931
198	0x3e699562	0.22810891
199	0x3e6bbb4d	0.23020668
200	0x3e0d5988	0.13803685
201	0x3da15e57	0.07879322
202	0xbd677481	-0.05650759
203	0x3da89c77	0.08232968
204	0xbc95bca0	-0.01827842
205	0x3e59ac26	0.21257076
206	0x3e1ed89b	0.15512316
207	0x3dd8f630	0.105938315
208	0xbe5546a1	-0.20827724
209	0x3d1a05c3	0.03760315
210	0xbeac3a3b	-0.33638176
211	0x3d615a1f	0.055017587
212	0xbcb00308	-0.02148582
213	0xbe2b75f4	-0.16744214
214	0xbc3ddb2c	-0.011587899
215	0x3d54aad2	0.05192072
216	0xbe914666	-0.28374022
217	0xbe00dcd0	-0.12584233
218	0x3e46a142	0.19397452
219	0xbe039a28	-0.12851775
220	0x3e258a10	0.16165948
221	0x3e3d7fed	0.18505831
222	0xbd89572d	-0.067060806
223	0xbdf22de0	-0.11825156
224	0x3d804b71	0.06264389
225	0x3dd7e0e5	0.10540942
226	0x3d03470b	0.032050174
227	0xbe647feb	-0.22314422
228	0xbd7d956a	-0.06191007
229	0xbe1b6c9e	-0.15178153
230	0xbe9888e6	-0.29791945
231	0xbe4241bb	-0.18970387
232	0xbe8a94f5	-0.2706677
233	0xbe146099	-0.14489974
234	0xbe833ce5	-0.25632396
235	0xbd84c3ca	-0.06482656
236	0xbe33500d	-0.17511006
237	0x3e7fc01a	0.24975625
238	0x3e7ee858	0.2489332
239	0x3e57bbc9	0.21067728
240	0x3e888898	0.26666713
241	0x3e0dea7b	0.13858978
242	0xbddd4a44	-0.10805181
243	0x3caf476c	0.021396361
244	0xbe48d939	-0.19614114
245	0x3e0de87e	0.1385822
246	0x3d32d3cf	0.043659028
247	0xbe33e6a7	-0.17568456
248	0xbd1f791c	-0.03893386
249	0xbd9d16ff	-0.07670402
250	0xbe0bfe7c	-0.13671297
251	0x3a30cbf2	0.00067442574
252	0x3dacf783	0.084456466
253	0x3e01fb05	0.12693413
254	0xbd30e8d5	-0.043190796
255	0x3e28a956	0.16470847

bias f4 [32]
0	0xbd7ee285	-0.062227745
1	0xbbfb9d2f	-0.00767865
2	0x3d7d64be	0.061863653
3	0xbc664c62	-0.014056297
4	0xbd13cf03	-0.036086094
5	0x3bceabc9	0.0063070995
6	0xbde216da	-0.11039515
7	0xbdfbf10e	-0.12301837
8	0xbdbc5429	-0.0919574
9	0x3e13c173	0.14429264
10	0xbdcfc50d	-0.10145006
11	0x3e113e48	0.14183915
12	0xbc3e1b85	-0.011603241
13	0x3e131ac4	0.14365679
14	0xbd80d57e	-0.062907204
15	0xbdc8a25a	-0.09796591
16	0x3d8a0b2d	0.06740413
17	0x3df0d588	0.11759478
18	0x3e0af772	0.13570955
19	0x3e1be22d	0.15222998
20	0xbd5b5d1e	-0.0535556
21	0x3ce6cf92	0.02817515
22	0x3db296be	0.08720158
23	0xbd270e19	-0.04078493
24	0x3bb2de35	0.005458618
25	0x3d9b61e6	0.07587032
26	0x3db73c43	0.08947041
27	0xbe0f28b9	-0.13980378
28	0xbe0895e3	-0.13338427
29	0x3df6d208	0.12051779
30	0xbc13f043	-0.009029451
31	0x3c8dc1b8	0.017304286

weight f4 [32]
0	0x3f6893f9	0.9085079
1	0x3f85492f	1.0412959
2	0x3f9017b4	1.1257234
3	0x3f7f31a8	0.99685144
4	0x3f76fcf3	0.9647972
5	0x3f77e558	0.96834326
6	0x3f615d9a	0.8803345
7	0x3f7aba91	0.9794093
8	0x3f73f842	0.95300686
9	0x3f82e434	1.0225892
10	0x3f79e9c4	0.97622323
11	0x3f7212bf	0.94559854
12	0x3f64cbe4	0.8937361
13	0x3f80c619	1.0060455
14	0x3f827bbb	1.019401
15	0x3f83a4b7	1.0284642
16	0x3f7b2e04	0.9811709
17	0x3f7d4d9c	0.9894655
18	0x3f801561	1.0006524
19	0x3f55085d	0.83215886
20	0x3f93f6bf	1.1559676
21	0x3f6a7f9e	0.9160098
22	0x3f775cac	0.9662578
23	0x3f678422	0.90435994
24	0x3f719cdb	0.9437997
25	0x3f8d5433	1.104132
26	0x3f799522	0.97493184
27	0x3f904873	1.127211
28	0x3f808284	1.003983
29	0x3f88cf7c	1.0688319
30	0x3f77f032	0.96850884
31	0x3f6d8f99	0.9279724

bias f4 [32]
0	0xbdf1d69a	-0.1180851
1	0x3df307ee	0.11866747
2	0xbc29eb8f	-0.010371103
3	0x3e2d89d0	0.16947103
4	0x3d41ac97	0.047283735
5	0x3c5ceb61	0.013483853
6	0xbd98bc8e	-0.07457839
7	0x3c3297b8	0.01090043
8	0xbd745b49	-0.05965737
9	0x3df33e8d	0.11877165
10	0x3cc98e33	0.024603939
11	0xbdf0ce98	-0.11758155
12	0xbdf01762	-0.1172321
13	0xbb923dd5	-0.0044629374
14	0x3dcdf96a	0.100573376
15	0x3da5157b	0.08060738
16	0x3e5d3d52	0.21605423
17	0x3e620155	0.2207082
18	0x3d9d623d	0.07684753
19	0xbdbe42ff	-0.09290122
20	0xbde380d6	-0.11108558
21	0x3c37fc68	0.011229612
22	0x3da877ad	0.08225951
23	0xbdb44a42	-0.08803226
24	0x3d51d564	0.051228896
25	0x3cf2d0c0	0.029640555
26	0x3dd4ffe8	0.10400373
27	0x3e443115	0.19159348
28	0xbda6b7ac	-0.081405014
29	0x3cff34a3	0.031153029
30	0xbd9df331	-0.07712401
31	0x3d79bfd9	0.060973976

running_mean f4 [32]
0	0xbd93d7be	-0.07218884
1	0x3ae3a450	0.0017367695
2	0x3d2826a4	0.041052476
3	0xbbe5968e	-0.007006473
4	0xbcc07d2d	-0.023497188
5	0xbac3c719	-0.0014936655
6	0xbdd7b6cd	-0.10532913
7	0xbdefb7d6	-0.11704986
8	0xbdbf7132	-0.09347762
9	0x3e0ad125	0.13556345
10	0xbdcd47d6	-0.10023467
11	0x3e12edf1	0.1434858
12	0xbc10efb0	-0.008846208
13	0x3e195a1a	0.14975777
14	0xbd84640f	-0.06464397
15	0xbdbb6f86	-0.09152131
16	0x3d8045d3	0.06263318
17	0x3defc47e	0.117074
18	0x3e0ca96c	0.13736504
19	0x3e1d0294	0.15333015
20	0xbd932493	-0.0718471
21	0x3ccc2e74	0.024924494
22	0x3db6a70b	0.0891858
23	0xbcd2526b	-0.025674066
24	0x3b054cb4	0.0020339908
25	0x3d991362	0.074744
26	0x3daf260e	0.0855218
27	0xbe12966f	-0.14315198
28	0xbe0ed9c0	-0.13950253
29	0x3ddbee9b	0.1073887
30	0xbc89598d	-0.016766334
31	0x3cd0457b	0.025423756

running_var f4 [32]
0	0x3fbfbb2c	1.4978995
1	0x3fded124	1.7407575
2	0x3f44923e	0.7678565
3	0x3f78a281	0.9712296
4	0x3f2b0c6e	0.6681584
5	0x3fd2537b	1.6431726
6	0x3f6f00a2	0.9336034
7	0x3f943722	1.1579325
8	0x3f4d37db	0.80163354
9	0x3f5b6e28	0.8571496
10	0x3f81713b	1.011268
11	0x3ff76ce9	1.9330112
12	0x3fb7f6fe	1.4372251
13	0x3facdf62	1.3505671
14	0x3f07e63f	0.530857
15	0x3fa57b19	1.2928191
16	0x3f3dff48	0.74217653
17	0x3f93bc7b	1.1541895
18	0x3f5118f2	0.8167869
19	0x400ce19c	2.20127
20	0x3fc68738	1.5510015
21	0x3f9fdbd6	1.2488964
22	0x4024b2cc	2.573413
23	0x40589a88	3.3844318
24	0x3fd71d12	1.6805747
25	0x3f3e54c5	0.743481
26	0x3fc640fe	1.5488584
27	0x3fa9127f	1.320877
28	0x40235225	2.5518887
29	0x3fd88120	1.6914406
30	0x3f85b494	1.0445733
31	0x3fc74ae5	1.5569731

weight f4 [32, 32]
0	0xbe6a71ec	-0.2289502
1	0x3e3e5a31	0.18589093
2	0x3ce8929d	0.028390223
3	0x3e6139b0	0.21994662
4	0xbdd582b8	-0.10425323
5	0xbe0f7e8f	-0.14013122
6	0x3e21eb94	0.15812522
7	0xbd8e972d	-0.06962428
8	0xbd8f15c2	-0.06986572
9	0x3e5e389b	0.21701281
10	0xbe1d5bad	-0.15367003
11	0x3c00858a	0.007844338
12	0xbcf5fffd	-0.030029291
13	0x3e410f99	0.18853606
14	0xbd7a9964	-0.06118144
15	0xbd59bc2f	-0.05315798
16	0xbe8ab32d	-0.27089825
17	0x3cd09d08	0.025465503
18	0x3cd0c79b	0.025485804
19	0xbc2ec31b	-0.010666634
20	0xbe75946b	-0.23982398
21	0xbdee29cb	-0.11629065
22	0xbe080ffd	-0.13287349
23	0xbd6580b6	-0.05603095
24	0xbdcc1c0c	-0.09966287
25	0xbea42233	-0.32057342
26	0x3d954d89	0.07290179
27	0x3e4ba18a	0.19885841
28	0x3da1e721	0.079054125
29	0x3e9903be	0.29885668
30	0x3e9d1f95	0.30688158
31	0xbdfee658	-0.12446278
32	0x3df46b89	0.11934573
33	0xbc7ec5c8	-0.015550084
34	0x3dbb3c4b	0.09142359
35	0x3e389cf7	0.18028627
36	0x3e9080df	0.2822332
37	0x3e6529cc	0.22379225
38	0x3c4937e6	0.012281394
39	0x3cb128e7	0.02162595
40	0xbdeb9796	-0.11503522
41	0x3e5f8ff0	0.21832252
42	0x3d55d4ef	0.052205022
43	0x3e822b21	0.2542353
44	0x3e742919	0.23843803
45	0x3c883aba	0.016629566
46	0x3cfc67d9	0.030811237
47	0xbe0c818b	-0.13721292
48	0x3e80c08a	0.25146896
49	0xbe1719ec	-0.14755982
50	0x3e845bc3	0.2585126
51	0x3e28c85b	0.1648268
52	0xbc14f2fa	-0.009091133
53	0x3cb446ed	0.022006476
54	0xbeb31b92	-0.34981972
55	0xbe9e0b9f	-0.3086824
56	0xbde857de	-0.11344884
57	0x3e81f80c	0.25384557
58	0xbe10b799	-0.14132537
59	0xbe2e3072	-0.17010668
60	0xbcdd3630	-0.027003378
61	0x3e1f406d	0.1555192
62	0xbe280f7d	-0.16412158
63	0xbbaec4cd	-0.005333519
64	0x3d5d1b53	0.053981137
65	0x3e586c9f	0.21135186
66	0xbb81cf6d	-0.0039614947
67	0x3dc680ca	0.09692533
68	0x3e80e532	0.25174862
69	0xbc184828	-0.009294547
70	0x3e4abf39	0.19799508
71	0x3e869d60	0.26291943
72	0x3d49db54	0.049281433
73	0xbe995dee	-0.29954475
74	0x3e306dbe	0.17229363
75	0xbdccbaa7	-0.099965386
76	0x3c9023dc	0.017595224
77	0x3c8bce27	0.017066075
78	0xbe9a3be9	-0.30123833
79	0x3de5f49a	0.11228295
80	0xbe284980	-0.16434288
81	0xbe062739	-0.131009
82	0xbe1394d9	-0.1441225
83	0xbe251e58	-0.16124856
84	0xbcb8bfcb	-0.022552392
85	0xbdd5c346	-0.10437636
86	0x3e908547	0.28226683
87	0x3e05e040	0.13073826
88	0x3e8ea98c	0.2786373
89	0xbe610a57	-0.219766
90	0xbdeb8d65	-0.11501578
91	0xbadb1132	-0.0016713499
92	0xbd79f652	-0.061025925
93	0xbe91ecb3	-0.285009
94	0xbe110453	-0.14161806
95	0xbc88d0d7	-0.016701145
96	0x3c7086e8	0.014680602
97	0xbddb4db4	-0.1070818
98	0xbd6c419e	-0.057679765
99	0xbe605f25	-0.21911295
100	0x3e828cdb	0.2549809
101	0x3e1b4af0	0.15165305
102	0x3d808ec3	0.0627723
103	0x3e0a6564	0.1351524
104	0x3e06243a	0.13099757
105	0x3c9ff2d1	0.019524964
106	0x3e8a8cf9	0.2706068
107	0xbeab5c87	-0.3346903
108	0xbd206223	-0.03915609
109	0x3e311eca	0.17296901
110	0x3e1c4921	0.15262271
111	0xbe325635	-0.17415698
112	0x3e06ee2e	0.13176796
113	0x3e33e97b	0.17569534
114	0x3c5ce0bb	0.013481314
115	0xbe3102ca	-0.1728622
116	0xbe560aec	-0.20902604
117	0xbea530cf	-0.322638
118	0xbe044d48	-0.12920105
119	0xbe5ca9ad	-0.21549101
120	0xbe94de1b	-0.29075703
121	0x3ead7452	0.33877808
122	0x3b7884fb	0.003792106
123	0x3d532b57	0.051555004
124	0x3d6f451d	0.05841552
125	0xbe6fd3a9	-0.23420586
126	0xbe64e4bb	-0.22352879
127	0xbdd71de7	-0.1050375
128	0x3ead4090	0.3383832
129	0x3e7f24ef	0.24916433
130	0xbe8992d7	-0.26869842
131	0xbe7073ab	-0.23481624
132	0x3d9d01ee	0.07666384
133	0xbe87ba08	-0.26509118
134	0x3dc8cc3e	0.09804581
135	0xbc79bcb0	-0.0152427405
136	0x3e206b06	0.15665826
137	0xbc8724ab	-0.016496977
138	0xbd49b66a	-0.04924623
139	0x3d9c9864	0.07646254
140	0x3d87ecdb	0.066369735
141	0xbe0977f2	-0.13424662
142	0xbe9dce9f	-0.30821702
143	0x3b432e29	0.0029782152
144	0xbe1eb3b3	-0.15498237
145	0xbe107714	-0.14107925
146	0x3e8714f6	0.2638318
147	0xbdef7ee2	-0.11694123
148	0x3e8c964b	0.27458414
149	0xbdfa1e51	-0.12212814
150	0x3c9251c0	0.017861247
151	0xbdb93747	-0.090437464
152	0x3e394588	0.1809293
153	0xbbbb1251	-0.0057089706
154	0x3e7de4ee	0.24794361
155	0x3e2d5e30	0.16930461
156	0x3e24847f	0.16066168
157	0x3eafa006	0.34301776
158	0x3d7846f3	0.060614537
159	0xbe0fc63b	-0.14040463
160	0x3e4af50f	0.19820045
161	0xbe64fec3	-0.22362809
162	0xbd8befee	-0.06832872
163	0x3e778b19	0.24174155
164	0xbd1277e7	-0.03575888
165	0xbe38dccb	-0.18052976
166	0x3e1474f3	0.14497738
167	0x3e5c81fa	0.21533957
168	0xbb2902d4	-0.002578904
169	0xbe5206eb	-0.20510451
170	0x3d572fd7	0.052535858
171	0xbd8b00a3	-0.06787231
172	0xbe686fa7	-0.22698842
173	0x3e6d426a	0.23169866
174	0x3e8247b8	0.25445342
175	0xbdd00b3a	-0.10158391
176	0xbd84b072	-0.06478967
177	0xbe6123cd	-0.21986313
178	0x3d11190a	0.03542427
179	0xbd487ccb	-0.048947137
180	0xbe7a54c7	-0.24446402
181	0xbd467def	-0.048459943
182	0xbd84ba5a	-0.06480856
183	0x3d3a4727	0.045478012
184	0xbe7a3780	-0.24435234
185	0xbe63fb4e	-0.22263834
186	0x3e55acce	0.20866701
187	0xbdc81b4c	-0.097708315
188	0x3e4cf196	0.20014033
189	0xbe0e8a8f	-0.13920043
190	0xbdc52ce6	-0.09627704
191	0xbdb09712	-0.086225644
192	0xbc1ae670	-0.009454355
193	0x3de338f6	0.11094849
194	0xbe9d3181	-0.3070183
195	0x3e40d56d	0.18831415
196	0x3e1d2b94	0.15348655
197	0x3bb7ada5	0.005605417
198	0x3e94531e	0.28969663
199	0x3dc623ae	0.09674774
200	0xbead9533	-0.33902892
201	0xbcb5a479	-0.022173153
202	0x3e0651f2	0.13117197
203	0xbd9fe1b9	-0.07806725
204	0xbcb5fabf	-0.022214292
205	0xbea2b96b	-0.31782088
206	0xbcdd275a	-0.026996303
207	0x3cec16d8	0.028819486
208	0xbe000706	-0.12502679
209	0xbe5e88d6	-0.21731886
210	0xbe4f96ed	-0.20272417
211	0x3e1e50e5	0.15460546
212	0x3d384aef	0.044993337
213	0x3eaa375b	0.33245358
214	0xbe360d12	-0.17778423
215	0x3dc3b749	0.09556443
216	0xbcc28b9d	-0.023748213
217	0xbe8ff706	-0.2811815
218	0x3e60bc15	0.21946748
219	0xbdefd86d	-0.11711202
220	0xbdceed89	-0.101039
221	0x3e266524	0.1624952
222	0x3d2cf875	0.042229135
223	0x3df0d6da	0.1175973
224	0xbde5c074	-0.11218348
225	0x3e53a9cf	0.20670246
226	0x3cb3181f	0.021862088
227	0x3e595c27	0.2122656
228	0x3e4c13b0	0.19929385
229	0xbd9dc118	-0.07702845
230	0xbe08d44d	-0.13362236
231	0x3e6eefab	0.23333614
232	0xbd7ada8e	-0.061243586
233	0xbdbb52dd	-0.09146664
234	0x3e83c36c	0.25735033
235	0x3dfde2a5	0.12396745
236	0x3e982182	0.29713064
237	0xbe9718c3	-0.2951108
238	0x3de40cd6	0.11135261
239	0xbe248cf8	-0.160694
240	0x3e4af762	0.19820932
241	0x3d2b8179	0.04187152
242	0x3d4255be	0.04744505
243	0x3e6a38d3	0.22873239
244	0xbe926670	-0.2859378
245	0x3e550135	0.20801242
246	0x3db05d2b	0.086115204
247	0xbeb3d259	-0.3512142
248	0x3dc7584f	0.097336404
249	0x3d960883	0.07325842
250	0xbb0f8053	-0.0021896556
251	0xbe0c9eaf	-0.13732408
252	0xbe955c9b	-0.29172215
253	0xbdca7bcd	-0.098868944
254	0xbd997007	-0.07492071
255	0xbd93d084	-0.072175056

bias f4 [32]
0	0xbe02d4a4	-0.12776428
1	0xbc109485	-0.008824472
2	0x3e204ee3	0.15655093
3	0x3d7cf545	0.061757345
4	0xbe2d7c00	-0.16941833
5	0x3d432526	0.04764285
6	0x3da1daa5	0.07903031
7	0xbe277ccc	-0.163562
8	0x3d4ab451	0.04948837
9	0x3dff5c3d	0.12468765
10	0xbdf1024a	-0.11768015
11	0xbe22bdf8	-0.1589278
12	0xbdb73be1	-0.08946968
13	0x3ce991cb	0.028511902
14	0x3d2f54e0	0.042805552
15	0xbc8662c6	-0.01640452
16	0x3d77a39f	0.060458776
17	0xbde102ab	-0.10986837
18	0xbd7cd707	-0.061728504
19	0xbe20ed67	-0.15715562
20	0x3e357584	0.1772061
21	0xbd972f44	-0.07382062
22	0xbc50fccf	-0.012755587
23	0x3e352f4d	0.17693825
24	0xbd4da85a	-0.05020938
25	0x3d514ebd	0.05110048
26	0xbdb2a6b9	-0.08723206
27	0x3bb9c5ca	0.0056693302
28	0x3b5163f4	0.0031950446
29	0xbdc1d6d8	-0.09464806
30	0xbe26ac77	-0.16276728
31	0xbe1c1f3e	-0.15246293

weight f4 [32]
0	0x3fa16f72	1.2612135
1	0x3f9a062c	1.2033134
2	0x3fa30db5	1.2738558
3	0x3fb20bed	1.390989
4	0x3f9ebc0d	1.2401139
5	0x3fb110d6	1.3833263
6	0x3f961bd4	1.1727242
7	0x3f9ff026	1.2495162
8	0x3fad8235	1.3555361
9	0x3f9d93a7	1.2310685
10	0x3f98539c	1.1900516
11	0x3f974e1f	1.1820716
12	0x3f895d06	1.0731514
13	0x3f9e4e79	1.2367698
14	0x3f91765e	1.1364248
15	0x3f88c7e2	1.0685999
16	0x3fb1bb11	1.3885213
17	0x3f973b25	1.1814924
18	0x3f962026	1.1728561
19	0x3f9232a2	1.1421702
20	0x3f9ef86a	1.241956
21	0x3fae3d00	1.3612366
22	0x3f8fd8f9	1.123809
23	0x3fae9b7a	1.3641198
24	0x3f87aae1	1.0599023
25	0x3f8d401b	1.1035188
26	0x3f8d4c64	1.1038938
27	0x3fa1ee98	1.2650938
28	0x3fa6a4a7	1.3018998
29	0x3facc70e	1.3498247
30	0x3faab0d9	1.333522
31	0x3f8c5a97	1.0965146

bias f4 [32]
0	0x3e80a56a	0.251262
1	0x3d9c3aea	0.076284245
2	0x3e638ba7	0.22221242
3	0x3e8a9611	0.27067617
4	0xbb9562b1	-0.004558884
5	0xbd74347d	-0.05962037
6	0x3d372660	0.04471433
7	0x3e58ef2b	0.21184985
8	0x3e8ec2a8	0.27882886
9	0x3e0339bf	0.12814997
10	0x3e847370	0.25869322
11	0x3e0f0a34	0.13968736
12	0xbcde276b	-0.027118405
13	0x3eb64df1	0.3560634
14	0x3daeca74	0.085347086
15	0xbcf8fed5	-0.03039495
16	0x3ee446f7	0.44585392
17	0x3e8b9d48	0.27268434
18	0xbbffd2dc	-0.007807119
19	0xbccf00cb	-0.025268933
20	0x3e92b74b	0.28655466
21	0x3e0800b2	0.13281515
22	0xbcdf0f05	-0.027228842
23	0x3e59ff3a	0.21288767
24	0xbc01d305	-0.007923846
25	0x3dcf01b4	0.10107747
26	0x3d26a2eb	0.040682714
27	0x3da77238	0.081760824
28	0x3e7f0f88	0.24908268
29	0x3d0dad63	0.034589183
30	0x3e11acbc	0.14226049
31	0x3cbf8f9f	0.023383914

running_mean f4 [32]
0	0xbe3eb225	-0.18622644
1	0x3ec423f2	0.38308674
2	0x3d3c542d	0.045978714
3	0xbe02f3b0	-0.12788272
4	0x3d4e61c7	0.050386216
5	0xbead274a	-0.33819038
6	0xbd87d53a	-0.066324666
7	0x3c955f8f	0.018234042
8	0xbecba305	-0.39772812
9	0x3e8b495a	0.272044
10	0x3f1b9256	0.60770166
11	0xbf3a2b1e	-0.7272204
12	0xbe8735f8	-0.26408362
13	0xbd59603b	-0.05307029
14	0xbc3f5366	-0.011677599
15	0xbd5a706e	-0.053329878
16	0xbe3aa286	-0.1822606
17	0x3e7d758d	0.24751873
18	0xbf1f79ad	-0.6229504
19	0xbedcfb0b	-0.4316028
20	0xbe5e1efe	-0.2169151
21	0xbe8f7bb0	-0.28024054
22	0x3ddbc3b0	0.10730684
23	0x3c05d2fb	0.008167977
24	0xbe88adf8	-0.26695228
25	0xbe84ddd5	-0.25950494
26	0x3e547159	0.20746364
27	0xbd9e56b7	-0.07731383
28	0xbddd4290	-0.108037114
29	0x3e9f1d9a	0.31077272
30	0x3ef4109a	0.47668916
31	0xbda57fae	-0.080809936

running_var f4 [32]
0	0x3e4efc46	0.20213422
1	0x3eee648f	0.46561095
2	0x3f15a886	0.5846027
3	0x3ef2f359	0.47451285
4	0x3f215796	0.6302427
5	0x3efb9dbe	0.49143785
6	0x3ef733a2	0.4828158
7	0x3edde4d4	0.43338645
8	0x3edeba30	0.43501425
9	0x3e7780d7	0.24170242
10	0x3f1948a4	0.59876466
11	0x3eb737f7	0.35784885
12	0x3ef95d66	0.4870407
13	0x3eac77b2	0.3368507
14	0x3f3e9ebf	0.7446098
15	0x3e93cc81	0.28866962
16	0x3ed2dcda	0.4118412
17	0x3f0cfc3f	0.55072397
18	0x3eb0c399	0.3452423
19	0x3f017d44	0.50581765
20	0x3e40fa35	0.18845446
21	0x3e6d5539	0.23177041
22	0x3e6201a1	0.22070934
23	0x3ece4090	0.40283632
24	0x3e40df19	0.18835105
25	0x3fa8aae7	1.3177155
26	0x3e6baa97	0.23014294
27	0x3f09dcac	0.53852344
28	0x3ee39276	0.44447678
29	0x3eadd96d	0.33954945
30	0x3ef48037	0.4775407
31	0x3e8bae92	0.27281624

weight f4 [5, 32]
0	0x3ea569f3	0.32307395
1	0xbe584f8c	-0.21124095
2	0x3d5fbeb4	0.054625228
3	0x3e201e64	0.15636593
4	0xbc1f6247	-0.009728021
5	0x3ef583e8	0.479522
6	0x3d218e75	0.0394425
7	0x3e862394	0.2619902
8	0xbe553642	-0.20821479
9	0x3d78a4ce	0.060704045
10	0x3dcac484	0.09900764
11	0x3ea051ee	0.31312507
12	0xbe052ff1	-0.1300657
13	0x3dfd8dbb	0.123805486
14	0xbe5db6b2	-0.21651724
15	0xbe2d4e09	-0.169243
16	0x3d4b4b13	0.049632143
17	0x3cdeb83c	0.02718746
18	0xbd966d15	-0.073450245
19	0xbe88d03d	-0.26721373
20	0x3dd6a377	0.10480397
21	0x3e29a5fd	0.16567226
22	0xbe168d3e	-0.14702317
23	0x3e425c12	0.18980435
24	0xbe2e41d1	-0.17017294
25	0xbddd4440	-0.10804033
26	0x3d9dea83	0.07710745
27	0xbe81c206	-0.2534334
28	0x3dfe1498	0.12406272
29	0xbea2bf8d	-0.31786767
30	0x3ed59bd3	0.41720447
31	0xbe17673b	-0.14785473
32	0xbc10b414	-0.0088319965
33	0x3e0d93ff	0.13825987
34	0xbecaf0fe	-0.39636987
35	0xbe29932e	-0.16560051
36	0x3d7cecb9	0.061749194
37	0x3e252260	0.16126394
38	0xbe92c232	-0.28663784
39	0xbdd0c92e	-0.10194622
40	0x3e24fb6e	0.16111538
41	0xbe2ffef9	-0.17187108
42	0x3d2ac6e1	0.041693572
43	0xbdcad2ea	-0.0990351
44	0x3de1dac3	0.110280536
45	0xbc1a4a5b	-0.009417142
46	0xbd9f025d	-0.07764123
47	0x3e0bf72b	0.13668506
48	0x3d8f91ea	0.07010253
49	0xbdeb9c77	-0.11504453
50	0x3e28164c	0.16414756
51	0x3d87e115	0.06634728
52	0xbe407ade	-0.1879687
53	0xbe9e7a1c	-0.30952537
54	0x3dbd2abb	0.09236666
55	0xbea72b03	-0.32650003
56	0xbdd22bff	-0.10262298
57	0xbe69d59e	-0.22835395
58	0xbe91cec2	-0.28478056
59	0x3d95c98c	0.07313833
60	0xbe1e6a1b	-0.15470164
61	0x3dce851b	0.100839816
62	0xbeb544d4	-0.35404074
63	0x3e197d47	0.14989196
64	0x3e1511a9	0.14557518
65	0xbd7a6159	-0.061127994
66	0x3e8d0c8e	0.2754864
67	0x3de3d544	0.111246616
68	0xbe02c338	-0.12769783
69	0xbe853011	-0.26013234
70	0xbdf25df4	-0.118343264
71	0xbd0e8db0	-0.034803092
72	0x3dea691b	0.114458285
73	0xbe95be9d	-0.2924699
74	0x3e8a32dd	0.2699193
75	0xbdd6761e	-0.10471748
76	0xbe48a150	-0.19592786
77	0x3d687207	0.05674937
78	0x3e05ac50	0.13054013
79	0x3e88cb3c	0.26717556
80	0x3caad5ec	0.020853959
81	0x3c23f2ac	0.010006588
82	0xbed1c1b3	-0.40968093
83	0xbe1f78ca	-0.15573421
84	0x3e0989d8	0.1343149
85	0xbe85c5bc	-0.26127422
86	0xbd8da6b7	-0.06916564
87	0xbc33e70d	-0.01098038
88	0xbe9ad056	-0.30237073
89	0x3d5362ca	0.051607884
90	0x3d84bdb1	0.06481493
91	0x3de9d2a1	0.114171274
92	0x3c8c2264	0.017106242
93	0xbe7cdbb0	-0.24693179
94	0x3cd5c9bb	0.02609717
95	0x3e1f978c	0.15585154
96	0x3d662218	0.056184858
97	0x3e6f612c	0.23376912
98	0xbdabe1b9	-0.083926626
99	0x3e3d8ec0	0.18511486
100	0x3eb65dca	0.3561843
101	0xbe4dc8e8	-0.20096171
102	0x3e29b43d	0.16572662
103	0x3e1f4b31	0.15556027
104	0x3de70b52	0.11281456
105	0x3e80e8e6	0.25177687
106	0x3d90dcbd	0.070733525
107	0xbe5c6644	-0.21523386
108	0x3ddf0bc8	0.10890919
109	0xbcaeb0de	-0.021324571
110	0x3e649d8c	0.22325724
111	0xbd2465c0	-0.0401361
112	0xbd9a345a	-0.075295165
113	0x3e3a89ea	0.18216673
114	0x3de02d74	0.109461695
115	0x3d992c9e	0.07479213
116	0xbd566c21	-0.052349214
117	0x3e5d50ef	0.21612905
118	0x3e8ec604	0.2788545
119	0x3de9a3c0	0.11408186
120	0x3e025234	0.1272667
121	0x3d084afd	0.03327464
122	0x3c473cf3	0.0121605275
123	0x3cbe25c5	0.02321137
124	0x3ebf9de4	0.37425148
125	0x3d2f54f6	0.042805634
126	0xbde2d0fb	-0.11075016
127	0x3b669c22	0.0035188277
128	0xbf23da15	-0.6400464
129	0xbe3f18de	-0.1866183
130	0xbee2004e	-0.44140857
131	0xbf246173	-0.64211196
132	0xbea9171d	-0.33025447
133	0xbe0517b6	-0.12997326
134	0xbec2468b	-0.37944445
135	0xbf23cb06	-0.63981664
136	0xbf1f2cf4	-0.6217797
137	0xbebf2dd2	-0.37339646
138	0xbef3c3e3	-0.47610387
139	0xbebe0d81	-0.37119678
140	0xbe9e4f67	-0.30919954
141	0xbf2eac64	-0.682318
142	0xbe8b55ac	-0.272138
143	0xbeb172ee	-0.34657997
144	0xbf640d51	-0.8908282
145	0xbefeaa1a	-0.49739152
146	0xbe7c1e0d	-0.24620838
147	0xbe9979af	-0.2997565
148	0xbf0acba9	-0.5421701
149	0xbe7915bc	-0.24324697
150	0xbd9d5134	-0.07681504
151	0xbf0341b7	-0.5127215
152	0xbded42d5	-0.11585013
153	0xbef82724	-0.48467362
154	0xbe64d15f	-0.22345494
155	0xbf0c4207	-0.5478825
156	0xbf12c916	-0.5733808
157	0xbf0624b9	-0.52399784
158	0xbe81a84f	-0.25323722
159	0xbeadce28	-0.33946347

bias f4 [5]
0	0x3e86121e	0.26185697
1	0x3de14a92	0.11000551
2	0x3e175da7	0.1478182
3	0xbd09be89	-0.033628974
4	0xbee86b1e	-0.45394224
